checkpoint/LeNet checkpoint/best_model.pth (torch, 752094 bytes, 30 tensors)

conv1.weight f4 [6, 1, 5, 5]
00000000: 0df7 6a3d 3efe 2b3c 1625 1fbe 2ff5 10be
00000010: 27ad 993d ffa2 f43c 2099 4a3d 107e cabd
00000020: e51b 573e c776 f03d cbcc 01bd e84e 36bd
00000030: 9ee4 133e a73e 293e 8469 24bd e934 0ebe
00000040: 035e b4bd 0aba 09be 3ae5 7cbd 4c6e 203e
00000050: 89e8 fb3c 19f4 95bd 66c2 8c3d 27a8 60bd
00000060: fe35 1ebe 30c2 2d3e ba01 363e d8b5 d1bc
00000070: 799c 3c3b 131d c5bd abef 923e ed49 a7bd
00000080: 5403 78be 575b 79be 1870 debd 82c6 f4bd
00000090: 54bb 37be 4f6d dcbb 03c3 7b3b 5e19 eebd
000000a0: f8ef 69be 7063 06bd fdc9 6e3d 11a4 cabd
000000b0: 7781 74bd 3d4b 17bd cfc8 bfbd cc48 60be
000000c0: 186b ce3d f274 053c 8722 19be c84b 403e
000000d0: 4b74 ec3d 1278 ffba bd72 20bd 6cb2 a6bc
000000e0: 9c85 23be fef3 0f3e 8758 d9bd cb27 79bc
000000f0: 30fa 15be f350 733e e306 bc3c 42e1 0a3e
00000100: 82e6 81be 8639 2a3e e1fb ffbc c6f5 8b3a
00000110: 670c 18be ace0 4bbe 0845 fa3d 5475 243e
00000120: d446 243e b027 45be 5cf8 04be 082e b2bc
00000130: 2db2 94bd bb50 133c 971b 733e c26f 2c3e
00000140: dd81 3bbd 4392 2c3d 5fee 82bd 63ce f23d
00000150: fd09 26bc 541b 37bd 2a79 c73d 3bfc f23d
00000160: 824d aabd 5d84 a43d 08f6 333e 3b3b 063e
00000170: e103 40be f3ab 15be 7717 0d3e fe76 17be
00000180: ecd0 62be 1337 23be adde 96bd a500 3abe
00000190: abe4 60be 44aa 45be 106f 49be f159 8939
000001a0: 626d a43d 6198 2b3e d5a2 eebd 5c8f 1ebe
000001b0: 85f1 6b3d 342c 19be ce59 99bd 2e78 223e
000001c0: e8fe e3bc 4289 c1bd 0182 e93c e3de 8b3d
000001d0: 907b d93d 5820 2f3d 532c 1b3e c4d6 283e
000001e0: 4fd8 893d 214a 8e3c b651 463e 72b4 9bbd
000001f0: e8b3 353e 888b be3d fac6 d63c 6025 203e
00000200: dcc8 603d 1c27 75bd 802d b2bb 97ae 32be
00000210: 5de8 fc3d 466e 3f3e d951 c9bd fd61 b73d
00000220: 04cd 143e 760a 3a3d cee6 2f3e b47c 59bb
00000230: 2634 213c 1e26 ddbc caf0 b03d 721c 3b3d
00000240: 1c40 1c3e 2481 ef3d 24dd 16be a73b 103e
00000250: 7f69 203e 20a3 36be
0.057364512 0.010497628 -0.15541491 -0.1415603 0.07503729 0.029862879 0.049462438 -0.09887326
0.21006735 0.11741405 -0.031689446 -0.044508845 0.1444268 0.16527806 -0.04013969 -0.13887371
-0.08806994 -0.13449875 -0.061742045 0.15667075 0.03075053 -0.073219486 0.06873016 -0.054847863
-0.15450284 0.16968608 0.17774096 -0.025599405 0.0028779788 -0.09624686 0.28698477 -0.08168397
-0.2422002 -0.2435125 -0.10861224 -0.11951925 -0.17942554 -0.006726898 0.0038415797 -0.11625932
-0.22845447 -0.032809675 0.0582981 -0.098945744 -0.05969378 -0.036936987 -0.09364473 -0.2190277
0.1007902 0.008145558 -0.14954577 0.18778908 0.115456186 -0.001949074 -0.039171923 -0.02034875
-0.15968937 0.1405792 -0.106125884 -0.015207241 -0.1464622 0.23761348 0.022952503 0.13562492
-0.25371176 0.16623506 -0.031248035 0.0010678105 -0.14848481 -0.19909924 0.12220198 0.16060382
0.16042644 -0.19253421 -0.12985367 -0.021750465 -0.07260547 0.008991416 0.23740993 0.16839507
-0.045778144 0.042131674 -0.06393122 0.118557714 -0.010134217 -0.044703797 0.09739907 0.118645154
-0.08315565 0.08033059 0.17574322 0.13108532 -0.1875148 -0.14616375 0.13778482 -0.14791486
-0.2215001 -0.15938978 -0.07366691 -0.18164308 -0.2196223 -0.19303232 -0.19671273 0.00026197688
0.080286756 0.16757347 -0.116521515 -0.15484375 0.057603378 -0.14958268 -0.07487832 0.15866157
-0.02783151 -0.09450008 0.028504374 0.06829622 0.10619271 0.042755455 0.15153627 0.16488177
0.06730711 0.017369332 0.19367108 -0.076027766 0.1774441 0.09303957 0.026217926 0.15639257
0.054879054 -0.05985175 -0.005437553 -0.17449413 0.12349007 0.1869441 -0.09830064 0.08954237
0.14531332 0.045420133 0.17177889 -0.00331859 0.009839093 -0.026995715 0.08639677 0.045681424
0.15258831 0.116945535 -0.14732796 0.14085256 0.15665244 -0.17835665

conv1.bias f4 [6]
00000000: 5402 5abd 5acb 48bd 16d1 183e 28b4 333e
00000010: fb44 253e e362 0dbe
-0.053224877 -0.049022056 0.1492351 0.17549193 0.16139595 -0.13807254

conv2.weight f4 [16, 6, 5, 5]
00000000: 7359 a03d d4c0 9b3d f19e 8cbd 9546 a1bd
00000010: 4b20 7abd 782b 823d 5252 123e 37c3 f23c
00000020: c429 673d 5bae 873d cbde 10bc 0126 983d
00000030: 36fa 3fbd 6a47 b2bc 99a8 cf3c f336 de3b
00000040: 5fab ebbc 1efb fdbd a582 35be f198 8fbd
00000050: 8773 06bb aeaa 803d 8df0 b43c d8cc 693d
00000060: 0a5a 08bc 689b 87bd 85bf b6bc 3e0f f5bd
00000070: 603d 5e3d d9d3 dc3c 3161 d63c ad54 e23d
00000080: a510 f93c f6a5 b33d 02d3 ff3c cb99 a23c
00000090: 3412 99bb 5a74 873c 756d 853d d13b c23c
000000a0: d009 d4bd 1743 c0bc e56e d4bd 2a35 9abd
000000b0: dad6 6abd b71f de3c 0de6 573d f8ea 733d
000000c0: fdac b23d bf9a 26bd 6e31 82bd fee1 0ebd
000000d0: 38a6 8dbd cace 033c ee88 f43c 0915 2e3d
000000e0: a26e 29bd 138d 03bd bf49 773d 7350 e7bd
000000f0: 9973 22bd 6cff a83c b9f8 eabc dd3b 5e3d
00000100: 4192 4abd d57f b13d b6ac 57bd c1aa bbbc
00000110: 0150 d7bc 879e a8bd d9af 823d c9e4 e73d
00000120: 6314 a23d 78c0 c8bd 5f8f 0dbd 4029 55bb
00000130: 7839 91bd e59f 2d3d 97a3 273d 20dd e43c
00000140: e718 1abd 2526 0b3d 4867 5e3d 5aa8 3dbd
00000150: 42d9 c13d cb34 1b3d 8483 8cbc cde0 8b3c
00000160: 1bc0 f33c 7782 623c 4ef7 0dbe 0022 4a3c
00000170: b765 b4bc 2a8d 88bd c931 4039 8f71 823c
00000180: 4d4d 613c d404 8cbd a077 85bd 167b 80bd
00000190: 678f 563d 9e7a 1f3d 01d6 a13d 3981 463b
000001a0: 7d10 e63b 0f3a 97bd 6329 7f3c 4ee5 4bbd
000001b0: 35fc ea3d 6fda e83c 068b afbd 210b 95bd
000001c0: de63 00be 61ca f93b f255 f5bc c5fa f63d
000001d0: dec4 883c 54e0 ac3d 5b0d 613d abf5 153d
000001e0: 97f7 553d 4bbf d33d da56 26bd f1f0 863d
000001f0: d12a 8f3d 5190 403d 859b 6a3c 35a4 68bd
00000200: dd59 2c3c 696e 5cbd 5967 20bd 4c93 9a3d
00000210: 828d 29bb b370 cb3d 03fe b03d 219e 58bd
00000220: 5901 68bc d907 81bd 17f1 26bd 771a 89bd
00000230: 6d57 d0bd fa17 23bd 8953 61bd fcda 6ebd
00000240: 5986 293d f3e6 8ebc 7194 a8bd 7876 11bd
00000250: ef5b fabc ca0b afbd 17a0 8fbc 5ce8 6a3d
00000260: adc0 ec3c 8bb2 3c3d f623 5cbb 6ae3 6a3c
00000270: c02d afbd c2e9 afbc c5ae 803d f28c e3bd
00000280: 5ba9 e0bd 1a1e 83bd 04de 91bd 8d70 91bc
00000290: 5c09 6539 c33f 93bc 54cc 583d 9427 b6bc
000002a0: 833a 853c 7ed6 0cbd c094 b93d 3a41 ca3d
000002b0: 34cb d23c 80c0 653d 5874 283d e1c5 613c
000002c0: a3b8 16bd 0f16 babd 0106 6dbd 7468 5cbd
000002d0: 5a74 3c3c f665 60bb e40f 60bd 8383 ddbd
000002e0: 7ab4 2e3c fe0e 0cbd b1d7 d5bd 53d9 0cbd
000002f0: 027e c53c 0f2e d13d de0a 0cbc f8d7 533d
00000300: 96b3 503d 92a8 183e c5c2 e7bb be12 0fbd
00000310: 32dc d43d 429b cb3d dd2d 323a d041 6a3c
00000320: 56a2 6ebd 63d1 3b3d 46e7 483d a373 94bc
00000330: 3b1d a3bd 7d48 d2bd 8c24 4dbb 64b9 e2bb
00000340: a7b0 f73b ead6 563d f4c7 3dbd 9a0b 3cbd
00000350: f2f6 063d 36d7 c53d f834 4e3d 0ee9 883d
00000360: 3d66 b2bc b46e 383d 5907 07bd 7ff3 a5bd
00000370: 0a50 ce3d 66db ff3c 59a9 383d 5d9d 50bd
00000380: 6418 ccbb a241 793d 08dc 1b3d 1fa7 8ebd
00000390: 4ab8 11bd 392a 10bd d14d b43d f39b b0bc
000003a0: a29f fdbd a107 a2bd f20f c7bc e3cd 95bd
000003b0: 14d5 d6bd 271e a7bc 5b94 993d 32ec c8bc
000003c0: 9611 8dbd 911e 95bd 1290 87bd ceea a93d
000003d0: 1b2e 32bd dda7 14bc 30c3 52bd effb 2e3a
000003e0: 6e3c 123b a218 d4bb 1456 b43c 2a3f 783c
000003f0: dc37 b3bd fd2b b4bc cacc 3f3a 1222 74bb
0.07829561 0.076051384 -0.06866253 -0.078747906 -0.061065953 0.06355947 0.14289215 0.029634101
0.056436315 0.066250525 -0.0088421805 0.07429124 -0.04686948 -0.021762569 0.025348948 0.006781453
-0.02876824 -0.124014124 -0.17725618 -0.07011593 -0.0020515637 0.062825546 0.02208736 0.05708012
-0.008322248 -0.06621438 -0.02230812 -0.11965798 0.05425775 0.026956486 0.026169391 0.11051307
0.030403445 0.08771889 0.031228546 0.019848725 -0.0046713594 0.016534973 0.06515018 0.023710163
-0.10353434 -0.02346949 -0.10372714 -0.075296715 -0.057333805 0.027114732 0.052709628 0.059550256
0.08724401 -0.04067492 -0.06357084 -0.03488349 -0.06916469 0.008044908 0.02985045 0.04250053
-0.041365273 -0.03211696 0.060373064 -0.11294641 -0.039661024 0.020629607 -0.028683053 0.05425631
-0.049455885 0.0866696 -0.052654944 -0.02290857 -0.026283266 -0.08233362 0.063811965 0.11322934
0.07914045 -0.098023355 -0.034560557 -0.0032525808 -0.070910394 0.042388815 0.040927496 0.027937472
-0.037621405 0.033971924 0.054297715 -0.04630313 0.09465267 0.037892144 -0.017152555 0.017074967
0.029754689 0.013825051 -0.1386387 0.012337208 -0.022021158 -0.0666755 0.00018329093 0.01592329
0.01375134 -0.068368584 -0.06516957 -0.06273477 0.052382853 0.038935296 0.07902146 0.0030289425
0.0070210085 -0.07384121 0.015573832 -0.04977923 0.11473886 0.02842447 -0.085714385 -0.07277513
-0.12538096 0.0076230024 -0.029948208 0.12059549 0.016695436 0.08441225 0.054944377 0.03661124
0.052238073 0.103392206 -0.04061017 0.06588925 0.069905885 0.04701263 0.014319305 -0.056797225
0.010519472 -0.053816233 -0.03916106 0.07547626 -0.0025871699 0.09933605 0.08642199 -0.05288518
-0.014160478 -0.06300325 -0.040757265 -0.06694501 -0.10172925 -0.039817788 -0.055011306 -0.05831431
0.04138789 -0.01744411 -0.08231438 -0.03551337 -0.030561415 -0.085471705 -0.017532391 0.0573505
0.028900469 0.04606871 -0.003359077 0.014336446 -0.08553648 -0.02147377 0.06283335 -0.111108676
-0.10969802 -0.06402226 -0.07122424 -0.017753864 0.00021842628 -0.01797474 0.052929237 -0.02223567
0.016263252 -0.034384243 0.09061575 0.09875722 0.02573166 0.056091785 0.04112658 0.013780088
-0.036797177 -0.090862386 -0.057867054 -0.05381055 0.01150235 -0.003424046 -0.054702654 -0.108160995
0.010663146 -0.034193985 -0.104415305 -0.034386944 0.024107937 0.10213863 -0.008547513 0.051719636
0.050952516 0.14908054 -0.007072779 -0.034929983 0.103935614 0.099417225 0.00067969953 0.0142979175
-0.058260284 0.045853984 0.049048685 -0.018121546 -0.0796456 -0.10267732 -0.0031302301 -0.006919073
0.0075589004 0.05245105 -0.04633327 -0.0459095 0.03295035 0.09660189 0.050343484 0.06685077
-0.021777267 0.04502745 -0.03296599 -0.08103084 0.1007386 0.031232547 0.045083378 -0.050931323
-0.0062284935 0.060853608 0.038051635 -0.069654696 -0.035576142 -0.035196517 0.08803905 -0.021558737
-0.12383963 -0.07911611 -0.024299596 -0.073146604 -0.1048986 -0.02040012 0.07499 -0.02452669
-0.0688812 -0.07281221 -0.06619276 0.082967386 -0.043501 -0.009073225 -0.051455677 0.0006675114
0.002231385 -0.006472663 0.022013701 0.015151778 -0.08750889 -0.021993631 0.0007316588 -0.0037251753

conv2.bias f4 [16]
00000000: fa1c 353d 0b29 93bd 5ba9 b1bc 8fcd 8e3d
00000010: 1a11 593c 94f8 de3c 4499 cb3c bacc 083d
00000020: e90a 83bd 70c6 1fbd ef3c 4f3c 1ab2 82bd
00000030: d2aa 063d 8376 6b3d 57b2 5f3c 467c 7fbc
0.044217087 -0.07185563 -0.0216872 0.06972801 0.013248706 0.02721814 0.024853356 0.033398367
-0.06398565 -0.039007604 0.012648805 -0.063816264 0.03287775 0.05748607 0.013653359 -0.015593594

fc1.weight f4 [120, 400]
00000000: eda8 0a3d 1cf2 a93d 019c 433c dcdf 2dbc
00000010: 70cc 83bc 0683 ec3c 9784 6cbc 72b6 743c
00000020: 9f7f 3fbd 4dcd 99bc 4802 303d c1a0 0e3d
00000030: 9c75 9abb cfa8 ce3b 0914 73bd 3384 50bd
00000040: dbd1 393d a989 2d3c ef30 d6bc 55fa 14bd
00000050: 2607 f1bc 8851 983c 2f82 4cbc e082 4d3d
00000060: a1da e23c 31fc 073d 5d77 3f3c 9b91 1c3d
00000070: 9d33 75ba 0d72 263d a5b9 81ba d8e7 62bd
00000080: 426e 523d cb5b fc3c 494f 0dbd 1c01 393c
00000090: b030 3abd 0804 29bc afed 61bd 5bd3 c8bc
000000a0: b787 63bd e143 4dbc 4c79 c53c 97cf b13c
000000b0: 2fb4 553d 3f11 5bbc 0e6d 0e3c 1405 f33c
000000c0: 7cc5 21bd db62 1d3d 6f6b 1abd 2d8e d63c
000000d0: 1663 ddbc 1f04 cbbc dee5 e0bc d2ec 5abd
000000e0: 05a6 36bc 8fe0 2e3d c707 e2b9 d53a e13c
000000f0: 3d44 1b3d edf7 813c 9ae7 ddbc f352 24bc
00000100: c21a ddbc a16d b2b8 024f 48bc 6668 a93c
00000110: 64e9 2fbd f86a 36bd 39a2 61bc f63c 5d3d
00000120: 306b 6ebc 5153 eebc b0d7 d2bd f88a 82bd
00000130: 2900 d23b eabf bf3d cab1 903d d6c4 e73c
00000140: 4143 18bd 85a1 81bc cf3e 953c a04a 3a3d
00000150: 8ef1 a23c ddb8 cbbc f72a 753b befc debc
00000160: c923 5e3c 7c78 1ebd 6215 453c de49 7e3c
00000170: 021f 5d3c 52e7 20bd 7829 95bb 6028 323d
00000180: ee05 46bd 417c 5fbd 5cd9 7cbc 7614 31bd
00000190: 66fe cc3c dcf0 9f3c fff9 823d c93f 393d
000001a0: da91 ddbc f4a3 dabc 488e 89bc 2ccc 453d
000001b0: 0ed9 0a3d 6c9a 98bd f972 1c3d 5d00 183d
000001c0: e2b2 aabb e88d 163d 7464 823d 6ac1 c23c
000001d0: 8d48 3fbc 61e1 02bc b436 b03c 9c93 833c
000001e0: be08 b43c 221f c1bc 5596 f5bc 2def 52bc
000001f0: 3fe3 a8bd 2383 da3c 89fa 1c3c 10c1 b83b
00000200: 86e6 ce3c bc31 2d3b f3be 7a3c dec6 2e3b
00000210: a980 43bd 56c7 57bc 616b 2f3c 394c 263c
00000220: a3a8 4f3c 4273 193d 6097 08bd 4628 4bbd
00000230: 822c 30bd 7824 c6bc 802d c8bc 2174 7dbc
00000240: 98b7 263d 281d d0b9 65ae a8bc b880 cd3c
00000250: 2cb0 bfbc 5249 293d a843 0e35 51ce 873d
00000260: 538e 3f3d 43dd 55bc 5a86 183c 4cae 273d
00000270: b44c 27bd 3abb eebc 235a 8f3c acb6 0cbd
00000280: 4915 183c ef2c b33d 2a5e 9bbd b20b a7bb
00000290: 51a2 a2bc befc f13d d124 a33d 7004 0cbd
000002a0: 64c0 e4bb cc9f f8bc 104b 183c b61e 3b3b
000002b0: 6af4 72bc e2a5 63bd 56c7 963d 3729 53bd
000002c0: 2cd8 7a3d a260 1f3d 3d9a 453d 9504 27bd
000002d0: a7d9 363c 132a 28bd 0923 a73c c636 273d
000002e0: f4ed 073d dce7 d73c 8039 08bd 4a08 713d
000002f0: 176e 52bd eb91 48bd 4dc0 513d eb01 e83c
00000300: 9373 413d 8a21 293b 88c6 463d cc32 9fbc
00000310: c058 243b ea01 07bc 5fa7 eebc d944 993d
00000320: dc6d b2bd 621b ea3c d42b 473e a2e5 a63d
00000330: c2a0 9cbb e53b 83bd 6dfa ce3c c1ba 723d
00000340: 73ac c43c b6ab 1abd 013c 87bd 1e7c 113c
00000350: eb4d f63c dc2a 2ebc e892 d5bc 9baf 28bd
00000360: e539 053d caee 29bd 88d9 4bbd 0fd2 0fbd
00000370: 29d1 8ebc d63a ac3a f8e4 143d d5c7 823c
00000380: 1c8b a7bc e482 f0ba 059f 163c 4138 1a3b
00000390: 9d5a 0a3c c453 cebc 3b3a 9a3b b7ed e6bc
000003a0: 870e 3ebd 29ac d8bc 96ac 18bd fea5 29bd
000003b0: 7d74 f53c 957e 283d f0ca 363c 681d 4dbc
000003c0: fb96 0e3b 4b5e 463d ac78 dcbc e339 e13b
000003d0: 3ed3 3cbd c73d b03c 5d4d 643b ddde 8e3c
000003e0: 4087 0cbd d46e 8abc 013d 11bd 2a1f 44bd
000003f0: 6259 393c 0e5b 083d 01dd 0dbd 1333 b43c
0.033852506 0.08298132 0.01193905 -0.010612454 -0.016088694 0.02887107 -0.014435909 0.0149360765
-0.04675257 -0.018774653 0.042970926 0.034821276 -0.004713727 0.0063067446 -0.05934528 -0.050907325
0.04536615 0.010591903 -0.02614638 -0.036371548 -0.029422354 0.018593565 -0.01248221 0.05017364
0.027692141 0.033199493 0.011686173 0.038224798 -0.0009353699 0.04063611 -0.0009897245 -0.055396885
0.05137468 0.030805489 -0.03449944 0.011291768 -0.04545659 -0.0103159025 -0.055158313 -0.024514845
-0.05554935 -0.012528391 0.02410569 0.021705432 0.05217379 -0.013370811 0.008692993 0.029665507
-0.039494976 0.038424354 -0.037700113 0.026190842 -0.027024787 -0.024782239 -0.02745336 -0.053448506
-0.011147981 0.042694625 -0.00043111874 0.027493874 0.037906874 0.01586529 -0.027087975 -0.010029542
-0.026990298 -8.5081214e-05 -0.012225868 0.020679664 -0.042947188 -0.044535607 -0.013771587 0.054013215
-0.014551923 -0.029092463 -0.102950454 -0.063741624 0.0064087105 0.093627766 0.070651606 0.0282921
-0.037173513 -0.015824089 0.018218426 0.045481324 0.019890573 -0.024868423 0.0037409642 -0.027220126
0.0135583365 -0.03868912 0.012029024 0.015520541 0.013496162 -0.039283104 -0.0045520626 0.043495536
-0.0483455 -0.054561857 -0.015432682 -0.043232404 0.02502365 0.01952403 0.06395339 0.045226846
-0.027047087 -0.026689507 -0.016791478 0.048290417 0.033898406 -0.07451329 0.038195584 0.03710972
-0.005209313 0.036756426 0.06366816 0.023773868 -0.011675012 -0.007988305 0.02151046 0.016061597
0.021976825 -0.023574416 -0.02997891 -0.012874407 -0.08246469 0.026673859 0.009581217 0.005638249
0.025256407 0.002642735 0.015304315 0.0026668827 -0.04773012 -0.013170084 0.0107067535 0.010150009
0.0126744835 0.037463434 -0.033347487 -0.049598955 -0.043011196 -0.024187312 -0.024435759 -0.015469582
0.040702432 -0.00039694575 -0.02059097 0.025085792 -0.023399435 0.04132969 5.2997575e-07 0.066311486
0.04676659 -0.013053241 0.009309376 0.040937707 -0.040844634 -0.029142011 0.017499035 -0.034353897
0.0092824185 0.08748805 -0.0758632 -0.0050978297 -0.01985279 0.11815785 0.079660065 -0.03418392
-0.0069809426 -0.030349635 0.00929524 0.002855224 -0.014828781 -0.05557812 0.07362239 -0.051552977
0.061241314 0.038910516 0.048242796 -0.040775854 0.011160291 -0.04105575 0.020402448 0.04082372
0.033185914 0.026355676 -0.03325796 0.058845796 -0.05137452 -0.048967283 0.051208783 0.028321227
0.04722936 0.0025807344 0.048529178 -0.019433402 0.0025077313 -0.008240202 -0.029132543 0.07483835
-0.0871236 0.02857751 0.19450313 0.08149268 -0.004779906 -0.06407908 0.025265897 0.059260134
0.024008011 -0.037761413 -0.06603242 0.0088796895 0.030066451 -0.010630336 -0.026071027 -0.041183095
0.032525916 -0.041487493 -0.049768 -0.035112437 -0.01743372 0.0013140093 0.036351174 0.015964428
-0.020452075 -0.0018349555 0.009193187 0.0023532065 0.008444455 -0.025186427 0.0047066486 -0.028189523
-0.046400573 -0.02644928 -0.037273966 -0.041418068 0.029962773 0.041136343 0.0111567825 -0.012519218
0.0021757472 0.04842977 -0.02691301 0.0068733557 -0.046099894 0.021513833 0.0034836151 0.017440254
-0.034308672 -0.01689855 -0.03545857 -0.047881283 0.011312814 0.03328996 -0.034634594 0.02199701

fc1.bias f4 [120]
00000000: 8f1e 273d 6d37 48bc a73a 82bb d125 72bc
00000010: 39ef 2abd 3842 7b3d 91ce 12bc 4ee0 273c
00000020: da86 f83a 2033 9d3b f049 163c 9f3f 813c
00000030: c5c5 ad3c 29e9 c93c 9654 6c3d f959 553c
00000040: 3148 1abd 78e1 ce3c f6f2 dbbc 28b8 733c
00000050: 245c 3cbd f214 8bbc 573c c33c cb2b c2bb
00000060: 9140 053c 5506 ef3c bc9c 333c ad1d 28bc
00000070: a2d3 efbb 65cb dfbb 8ce6 093d e68e 0e3d
00000080: 210a 043c 2ecd 6cbd d3d8 11bd 4044 4b3c
00000090: 045e 1e3d 4c08 27bc f346 3cbd fe04 13bd
000000a0: 5ff8 64bd 35c2 4fbd e64f 343d 5500 5d3c
000000b0: 1c93 18bd 49ad 2cbd 6f51 22bc 9d19 213d
000000c0: 6c5d e6bc a992 9ebc a040 0f3d b647 28bd
000000d0: b209 003d 5524 7fbc 397e 28bd 2f72 67bd
000000e0: bcbe f5bb c96c 5ebb 34cc c8bc 8ad6 2b3c
000000f0: 36c6 293d 6cf8 15bd 0976 283c 2535 0abd
00000100: 546c 003c 35ca 1fbd 7677 a6bb 200d 46bd
00000110: 5f64 22bd fbfb dc3c e397 64bc 7f90 02bd
00000120: c144 0fbd acae 60bd 2985 d5ba e833 f13c
00000130: 4b28 c9ba dfeb bb3c 4584 2c3d 9499 a53c
00000140: ebe9 4f3d 9c4a 2d3d 3d01 30bd bf7e 523d
00000150: 2a55 9bb9 1e9b 62bd 08c2 3bbd 0635 d9bc
00000160: 2789 1abc 7d3e 40bd 0f70 13bd 4662 0f3d
00000170: 5d20 8dbc 9313 903c ee99 b33c 57f4 b6bc
00000180: b5e4 e63b f051 6d3d 4ac8 ca3c 9982 8cbc
00000190: 47f2 ab3b 328c a63b 8913 b0bc de37 7cbc
000001a0: a7cb 743d d127 1cbd 1896 f73c 1242 4abd
000001b0: 2453 a1bb 7a3c b23c 79a6 1b3c f459 10bd
000001c0: 6095 12bb ac16 32bd 9101 94bc a214 4d3c
000001d0: 7c44 f8bc 482d e8bc 63e8 753d c1c8 133b
0.040800627 -0.012220246 -0.003974277 -0.014779524 -0.041732047 0.061342448 -0.008960382 0.0102463495
0.0018961087 0.0047973543 0.0091729015 0.015777407 0.021212468 0.024647312 0.057697855 0.013021939
-0.037666503 0.025253996 -0.026849251 0.014875449 -0.04598631 -0.016977761 0.023832483 -0.0059256307
0.00813307 0.029177824 0.010962661 -0.0102609815 -0.00731893 -0.0068296664 0.033667132 0.034804247
0.008059056 -0.057812862 -0.03560717 0.012406409 0.03866388 -0.010194849 -0.0459661 -0.035893433
-0.055900928 -0.05072232 0.04402151 0.013488849 -0.03724967 -0.042157445 -0.009907111 0.039331067
-0.028120719 -0.019357042 0.03497374 -0.041084014 0.031259246 -0.015572627 -0.041136 -0.05650538
-0.007499544 -0.0033939353 -0.024511434 0.010488162 0.041448794 -0.036613867 0.010282048 -0.03374209
0.007838327 -0.0390112 -0.005080159 -0.04835236 -0.039646503 0.026975622 -0.013952228 -0.031876083
-0.03497768 -0.05485408 -0.0016290295 0.029443696 -0.0015347091 0.02293962 0.04211833 0.020214833
0.05076019 0.04230748 -0.04296993 0.051390406 -0.00029627356 -0.055323713 -0.04583934 -0.026514541
-0.009432114 -0.046934593 -0.03599554 0.03500583 -0.017227346 0.017587459 0.021923985 -0.022333307
0.007046307 0.05793947 0.024753708 -0.017152118 0.0052473876 0.0050826306 -0.02149369 -0.015394179
0.05976453 -0.03812391 0.030222937 -0.049379416 -0.004923241 0.021757353 0.009500139 -0.035242036
-0.0022366866 -0.043478653 -0.018067153 0.012517126 -0.030306093 -0.028341904 0.060036074 0.0022550079

fc2.weight f4 [84, 120]
00000000: 17e8 da38 c2ca a23c c79c 6f3d 7e1a 00bd
00000010: c438 753d ab8a 3ebd 31eb 863d 2561 51bd
00000020: 1ac2 a3bc a091 023b d167 78bd 9d1e 33bd
00000030: fed8 fa3a c8ed 4dbd 6ba3 f93c 809e 843d
00000040: 78e9 c4bc 8b7c 64bc 5801 0cbc e101 853c
00000050: 96e2 2e3c 4e14 b03d aabf 373c bc51 20bd
00000060: 9a2f db3c cf80 673d ff95 8d3d 8d97 97bd
00000070: d4f2 5d3b bc09 1c3d 50b6 b83b f828 9ebc
00000080: 6a4e 423d ebfc 81bd 3253 86bd 4f57 8ebc
00000090: 86bd bfbd 3626 c4bd 591f 0dbd afe6 983d
000000a0: 56e6 7f3d cd34 8cbd 6f72 903c 6d17 673d
000000b0: b459 3b3d ff88 85bd b9d8 3a3d 711d 9b3c
000000c0: 5307 c93c 05ce 473c 607f 24bd d416 b33d
000000d0: 1c65 143d 758c 27bd e889 a2bd 7cff aabc
000000e0: 7e6f 6dbd e58a 323d 6a94 733d 0673 94bd
000000f0: b600 b53c 5fdb a33d e06e fcbd 02d6 9cbc
00000100: 520b 663d 7313 3e3d 809c 79bd cdd0 d1bc
00000110: b70b 18bd 1738 00bd fc31 2f3d ae13 9cbd
00000120: b98c e73c c598 213c 0ae9 4ebd 2595 bdbd
00000130: c84f c1bc 1249 6ebd 4078 473d c48d 693d
00000140: adba 893c 0008 4fbc 475b c4bd 050a a6bd
00000150: 23ee 40bd 192e 903d 7c25 35bc c230 26bd
00000160: b9e1 84bd 616c 71bc c355 3abc f396 323d
00000170: e14f acbd 5ceb 1fbd d064 153d 06cf 563c
00000180: 505f 8abc c382 593d c8fe 1b3c e1ac 763c
00000190: ea3f bf3c 6bc6 c03d 4ab0 dc3b 8768 28bd
000001a0: 442e 5bbd a8b5 2fbd 176b 7e3c aff2 49bc
000001b0: 907e 6ebd 499e 723d 6934 77bc 7d83 653d
000001c0: 7407 69bd 8bcb e3bd e038 c3bd 2852 543d
000001d0: cf5c 743d 5948 3fbc 00ac 38bd cd68 553d
000001e0: 51a3 f73b ad99 86bd ae35 2e3c 67ea a1bd
000001f0: 695a 79bd 4276 2b3d 77a1 353c ae2e 313d
00000200: 9ff6 04bd 22a4 953d f513 693c 29c6 c53d
00000210: b09b 14bd 7195 6dbc 4c08 723c 2ac1 9a3d
00000220: 1602 b9bd aaf0 8ebd 878f c93d 332a d8bc
00000230: 6e2b 3f3d 320d a6bd 50e8 1cbd 5c2c c43d
00000240: 31c7 363d d107 40bd 4a97 99bb e29b bebd
00000250: 0182 853c 91b6 3e3a e916 bdbc f247 9fbd
00000260: 3372 fa3d 48b5 a03d 29c2 9f3c 5227 ea39
00000270: dcbf 32bd 20e7 d33d c618 a6bd 8521 0bbb
00000280: d56c 9c3d 5eb5 763d 1052 32bc 8a84 8abd
00000290: 3fbf 9e3d 111d be3d aa1d 7bbd 554f b83d
000002a0: c0b5 d13d a347 933b 2693 6fbd 398a bd3d
000002b0: b09b aa3d be9e 893a bcfa 6f3d 99ca a7bd
000002c0: 3eeb c33d bb73 b63d 9641 3ebd 1820 91bd
000002d0: 41f6 003d 9ea9 66bc 4d25 00bd c97f 7c3d
000002e0: 0f7f e73d b267 ecbc 98cd a33d d835 ccbc
000002f0: ee5e 6bbb 7ad1 98bd 97f6 7cbc e1ac 97bd
00000300: 1689 993d 7143 c63d 8dd7 0b3e 81b7 9ab6
00000310: 9d06 8c3c 06ca b5bd f428 113d 3fa7 77bc
00000320: a4bd d6bc 410e c33c 273b 32bd eb9d fc3c
00000330: baf8 69ba 40c5 91bd fff0 d3bd 8c42 9abd
00000340: 2d60 bfbc 0558 173d 2986 09bb e175 cc3d
00000350: be95 a93d 00d8 c0bd 36a0 8f3d 8a81 7a3d
00000360: a02d debc 410f 8dbc 4ccc 0d3c 1823 7dbd
00000370: 2326 73bb fc91 873d 4200 913d c85d c1bd
00000380: 65ad 15bd 3b3a 9a3d eec8 2fbd 7ec6 4fbd
00000390: d7cf ff3b ee1f 24bd cfbf a0bd 3348 75bd
000003a0: 3643 6e3c 0c60 a13c ab60 4bbc b382 8dbc
000003b0: ab1d e23a a342 c23d 71f1 e3bc 1a75 8c3d
000003c0: efe8 71bd e743 1a3d 2008 62ba 4aa0 bbbd
000003d0: 1094 ebbb 32a2 e83c eace f03c 6214 e63c
000003e0: 02e0 50bd 2f6e c13d 97f9 c1bd a4d6 933d
000003f0: 4956 02bd 062f b53b 5314 84bd 6ad5 553d
0.0001043828 0.019872073 0.058499124 -0.031275265 0.05986859 -0.046518963 0.06587828 -0.051118035
-0.019990016 0.0019923225 -0.060645882 -0.043730367 0.0019138155 -0.050275594 0.030473432 0.06475544
-0.024037108 -0.013945709 -0.008545242 0.016236247 0.0106741395 0.08597623 0.01121513 -0.039140448
0.026756097 0.056519326 0.06913375 -0.07401953 0.003386666 0.03809522 0.0056369677 -0.019306645
0.047438063 -0.063470684 -0.06558837 -0.017375616 -0.093623206 -0.09577601 -0.034453724 0.074658744
0.062475525 -0.068460084 0.017632691 0.056418825 0.045739844 -0.065202706 0.04561684 0.018934937
0.024539625 0.012195115 -0.040160537 0.087445885 0.036229238 -0.040905435 -0.0793646 -0.020873778
-0.057967655 0.04358949 0.05946771 -0.072485015 0.022095066 0.08000826 -0.12325835 -0.019145016
0.05616314 0.046405267 -0.060940266 -0.02561226 -0.037120547 -0.03130349 0.04277228 -0.07620941
0.028265344 0.009863083 -0.050515212 -0.09256963 -0.023597613 -0.058175154 0.048698664 0.057019964
0.016812647 -0.012636185 -0.09587722 -0.0810738 -0.047102105 0.070400424 -0.0110563 -0.040573843
-0.06488366 -0.014735312 -0.011372986 0.043600988 -0.08413673 -0.039042816 0.036473095 0.013110882
-0.016891152 0.05310322 0.009521194 0.015055866 0.023345906 0.09412845 0.0067348825 -0.04111531
-0.05351092 -0.04289785 0.015528462 -0.012325927 -0.05822617 0.059232984 -0.015088179 0.0560336
-0.056891873 -0.11122807 -0.095323324 0.051836163 0.05965882 -0.011674964 -0.045085907 0.0521019
0.0075573106 -0.0657228 0.010632915 -0.07906037 -0.060877237 0.041860826 0.0110858595 0.043257408
-0.03246176 0.073066965 0.0142259495 0.09656937 -0.036281288 -0.014500962 0.014772486 0.07556374
-0.09033601 -0.06979497 0.09841829 -0.02638731 0.046672277 -0.081079856 -0.038307488 0.095787734
0.044623557 -0.046882454 -0.0046872245 -0.09307076 0.016297342 0.00072751293 -0.023082213 -0.07777394
0.12228813 0.07847077 0.019501762 0.00044661254 -0.043640003 0.10346818 -0.08110194 -0.0021229696
0.076379456 0.06023156 -0.010883823 -0.06763561 0.07751321 0.09282888 -0.061307587 0.089995064
0.10239744 0.0044946237 -0.05848994 0.092548795 0.08330476 0.0010499579 0.05858873 -0.08192939
0.09566353 0.089087926 -0.046449266 -0.070861995 0.031484846 -0.014078526 -0.031285573 0.061645303
0.113035314 -0.02885804 0.07998198 -0.024928018 -0.0035914737 -0.074618295 -0.015439651 -0.07406021
0.0749685 0.09680832 0.13656445 -4.6109203e-06 0.017092997 -0.088764235 0.035439447 -0.015115558
-0.026213475 0.023810508 -0.043513443 0.03083702 -0.0008925308 -0.071177006 -0.10348701 -0.07532224
-0.02336129 0.036949176 -0.0020984507 0.09983421 0.08280514 -0.09416199 0.0701298 0.061158694
-0.027121365 -0.017219188 0.008654665 -0.061801046 -0.0037101589 0.06619641 0.07080127 -0.094417155
-0.036542315 0.07530638 -0.04291623 -0.050726406 0.007806759 -0.040069513 -0.078490846 -0.059883308
0.0145423915 0.019699119 -0.012413184 -0.017274236 0.0017251273 0.09485366 -0.02782509 0.06858273
-0.059060033 0.037662413 -0.00086224265 -0.09161432 -0.0071892813 0.028397653 0.02939554 0.028085891
-0.05099488 0.09444844 -0.094714336 0.07218674 -0.03182057 0.0055292873 -0.06449189 0.05220548

fc2.bias f4 [84]
00000000: ebfe 2f3d 4027 463d 2cc2 d93b 02a2 beba
00000010: db2d adbc b63b 353c a902 0bbd 1ee8 2e3d
00000020: e8d9 2b3d dd9c 313d fbd4 ed3c 3e6c 69bd
00000030: 4eb2 33bd 3071 57bd c390 a73d 1834 a5bd
00000040: 1a05 cbbd 3e74 57bd 4177 b8bc cef7 39bd
00000050: 2f0a e23d 3fa5 a43d 4bd3 afbc b4d3 c1bb
00000060: 9df0 7f3d adcc 16bd 25df 86bd aca8 31bd
00000070: 7c82 2abc 346d a3bd eebc e9bc c791 a2bc
00000080: b02e e6bd 9a76 aebb 1eb2 7fbd 5a74 863c
00000090: 4006 ae3d d8a8 b93c 4b2b 88bd 2efb 953d
000000a0: b3ce 75bd 1bb3 dbbc 93d2 ebbc 83ae 8cbd
000000b0: 4980 75bd 06d2 9d3d 5104 433d e933 093d
000000c0: 3149 bcbd c6be 903d 0519 5a3d ddd7 a23d
000000d0: 3fa3 20bd d0f5 73bd f254 583c 2415 303d
000000e0: 76ba 803d f136 8c3d 1096 9abd fef2 f9bb
000000f0: 81c1 583d 56c8 803c 05fc 90bc eb1f 6b3b
00000100: 87ac a3bb 88e6 98bd 5fca 72bd bf72 a03d
00000110: 15a6 fc3c 76f1 6bbd 5ef4 a7bd 475f 12bd
00000120: 6fea 5a3d d507 adbc a587 da3c cb69 3a3d
00000130: a7e3 383d eff1 ea3b 8a46 a8bd ba53 71bc
00000140: 2ce5 c8bb 96ed 9abd 2b48 663d bd7b 94bd
0.042967718 0.048377275 0.0066454615 -0.0014544132 -0.02114003 0.0110615995 -0.033938084 0.042701833
0.04195586 0.043362487 0.029032221 -0.056987993 -0.043871216 -0.05259818 0.08181908 -0.08066577
-0.099130824 -0.05260109 -0.022517802 -0.04540234 0.110370986 0.08039331 -0.021463057 -0.0059151296
0.062485326 -0.036816288 -0.0658553 -0.04337375 -0.010407086 -0.07979813 -0.028532472 -0.019844903
-0.11239374 -0.005324197 -0.062425725 0.016412903 0.08497286 0.022663519 -0.066488825 0.07323299
-0.060011577 -0.026818803 -0.028786933 -0.06869223 -0.059936795 0.077060744 0.04761154 0.03349677
-0.09193648 0.07067637 0.053246517 0.07951329 -0.039218184 -0.059560597 0.013203846 0.04298891
0.062855646 0.06846417 -0.075481534 -0.007627844 0.052918915 0.015720528 -0.017698297 0.003587718
-0.004994932 -0.07465845 -0.059275027 0.07834386 0.030840913 -0.057603322 -0.08200906 -0.035735395
0.05344623 -0.021121899 0.026676008 0.04551105 0.04513898 0.007169954 -0.08216579 -0.014729435
-0.006130835 -0.07564847 0.05622117 -0.07250164

fc3.weight f4 [10, 84]
00000000: 6dda a23d 4921 293d d7ac b43d d7ed 84bd
00000010: 73ab 8fbc 30d2 93bd 1f3e f8bd bb13 83bc
00000020: d347 9dbd 7170 473d 59e8 9f3d 3dd0 e33d
00000030: d82f a1bd 87ee a73d 4c14 323d 8e81 1b3d
00000040: 3258 a3bd 6c11 433d afa3 4f3d a74b c9bc
00000050: f5ea ecbd 0c90 343c 48ae bb3d 788c b5bd
00000060: a926 93bd 478b 5cbd b77a ec3c 4224 fc3c
00000070: 5d9d 87bd 99ab 6abd 1664 8c3d be5f adbd
00000080: dfe5 a4bd 5162 48bb 023f 96bc d0f9 1e3d
00000090: 67c4 183d c61c cebc ec2d cbbd bcc0 083c
000000a0: 517b 4abe c0c0 7bbc 11e1 f7bd 7803 933d
000000b0: 645d 563d c8f9 9d3b af52 e0bb 376a 963d
000000c0: 41b3 d53c bf82 b0bb 8a0c d3bc c3c3 f53c
000000d0: bbfb a93c e1e8 cf3d 1ad8 d53c 8f40 b43d
000000e0: 104d 0f3d 60c5 ca3d e047 b33d d3c0 a23d
000000f0: bd6f 96bd afc7 c4bd 1e34 b5bd 187c 48bd
00000100: 6499 7b3c 8048 a03c a834 873d 97ae a23d
00000110: 4ef6 7e3c 128d c13c cae5 d6bb 14dd 15be
00000120: 72ae 73bd 5128 eabd 5ab3 a73c 5276 86bd
00000130: 32ce d3bd 7572 7bbd 6c15 88bd aa0a 983d
00000140: 6552 cb3d b368 eabd 67a0 d5bd d82b 9a3d
00000150: 44bd 93bd 4065 a4bc a6f6 92bd c638 af3d
00000160: 741b 3b3d ad23 cfbc 52a5 c33d 1b3c 29bd
00000170: 4854 c6bb 68ca f53d 37a9 853d 0512 e9bd
00000180: d74d 9bbd 785e 15bd 2b1c 64bd 7dfe d83d
00000190: 1b2c 8ebb e516 91bd 931f 14bd 442d 86bc
000001a0: 5792 4d3d 9c4e 10bd b107 9ebd 1d8a b03d
000001b0: 1c12 80bd 5071 b1bd 90a9 103d cf88 dabd
000001c0: c140 dcbd 4f44 07bc eac5 a9bd 8876 e23d
000001d0: 3167 a63b 9902 52bd e2e5 273d 741b 003d
000001e0: b365 b0bd 04c5 d63d 410a 8dbd b125 843c
000001f0: 7111 953d 6ebf 4cbd fe3b cebc d72f 05bd
00000200: c331 e2bd a369 9a3d 3866 2fbd 7c2d 30bd
00000210: 4f06 debd 0b76 0b3d c987 573d e373 9bbd
00000220: 2399 91bd d50e a03d a200 d1bd d5f3 18bd
00000230: 12cc f03d 9101 b5bc b7b4 edbd d0e4 c7bc
00000240: 0db1 593d f3af 913d 8a6a b53c 0889 ffbd
00000250: ba63 8d3d e0a6 0dbc a93a 7abd e522 a2ba
00000260: 2647 d63d c9a5 0e3d 9d35 14be 5299 883d
00000270: e289 6dbd fbfb 5dbd 61ea aabd 9276 a6bd
00000280: 5c0b c4bd 0584 19bd 4dbd 423d b624 863d
00000290: c0cc 1f3d 4d1d b13d b7f1 a0bd 606d 443d
000002a0: 5a3c b8bd 3345 f23d 6af9 6d3b 9055 83bc
000002b0: 90e4 0ebd c90c e9bc 5d23 babd 0c7d 8f3d
000002c0: dff4 493d c780 df3d 3537 303d b5c6 6c3d
000002d0: 0562 cebb 522a 92bd c5fe f3bc 11bd 083d
000002e0: 3db5 afbc f931 a8bd 1921 89bd 8a28 d63d
000002f0: 6bee eebd 6189 0b3e 3ea4 1d3d 91b7 273b
00000300: 9171 c0bd d74b 98bd 2d96 033b a116 6bbd
00000310: ee8f a0bd 2b20 013d d558 baba b237 e4bd
00000320: 3522 973c 4598 693d 5b97 813d d97e c83d
00000330: 8fe0 8cbc fa5b b93c 3acf 903d 57ca d2bd
00000340: 505b 2ebd 1175 46bd 82c6 943d 8c53 783d
00000350: bff2 bebd 999a 583d c2a1 613d 45b8 e0bd
00000360: d730 543d fffe a3bd f5c6 eebc c8a8 d53c
00000370: 922a 8bbd cf97 95bd 3ed4 e83c fdfd 77bd
00000380: 307d 033d 7677 833d 9b8a a0bd bf37 5e3d
00000390: 379b c53d 43f3 2a3c c027 be3d d895 5a3d
000003a0: b48f 6abc 67af 6dbd f768 ddbd e69f 9dbd
000003b0: 1fd9 823d 33c7 c13d 3289 4fbd 037d 92bd
000003c0: 3549 b43c c157 c3bd 9700 1bbd f4a2 b7bd
000003d0: 51d7 8fbc 30c4 803c 63f0 dabd 54c8 b8bc
000003e0: af0d c3bd 1ab7 b73d 0104 76bd e8f6 0ebc
000003f0: aeda 96bd d649 5abd 7c0a de3b 6ea9 bbbd
0.07951818 0.04129151 0.08822029 -0.06490677 -0.017537808 -0.072178245 -0.12121224 -0.01600062
-0.07679715 0.048691217 0.07807989 0.11123703 -0.078704536 0.08199792 0.043476388 0.03796535
-0.07975806 0.047624037 0.05069321 -0.024572207 -0.11568252 0.011020672 0.09164101 -0.08864683
-0.07185108 -0.053843763 0.028867109 0.030779008 -0.066218115 -0.057292555 0.068550274 -0.08465527
-0.08051657 -0.003057618 -0.018340591 0.03881246 0.03729668 -0.025160205 -0.09920868 0.008346733
-0.19773604 -0.015365779 -0.12103475 0.07178396 0.052335158 0.004821036 -0.006845794 0.073444776
0.026086451 -0.00538668 -0.025762815 0.030000573 0.020749917 0.1015184 0.026104022 0.08801376
0.034985602 0.099009275 0.087539434 0.079469346 -0.07345531 -0.09608399 -0.08847831 -0.04894647
0.015356395 0.01956582 0.0660184 0.079434566 0.015561653 0.023626838 -0.0065581547 -0.14635116
-0.059492536 -0.11433471 0.020471264 -0.065655366 -0.10342063 -0.06138845 -0.06644711 0.07423909
0.09927825 -0.11445751 -0.10430985 0.07527894 -0.07213834 -0.020067811 -0.07175951 0.085557505
0.04568048 -0.025285566 0.09553017 -0.041317087 -0.0060525276 0.120014966 0.06526416 -0.1138039
-0.07583206 -0.036467046 -0.055690926 0.10595415 -0.004338754 -0.07084445 -0.036162924 -0.016379006
0.05018839 -0.035231218 -0.07716311 0.08620093 -0.06253454 -0.08664191 0.035317957 -0.106706254
-0.10754538 -0.008256032 -0.08289702 0.11057764 0.0050782193 -0.05127201 0.040990718 0.03127618
-0.086131476 0.104867965 -0.068867214 0.016131254 0.07278717 -0.04998725 -0.02517509 -0.032516327
-0.110446475 0.0753968 -0.042822093 -0.043012127 -0.10841047 0.03404812 0.05261973 -0.07590463
-0.07109287 0.07815329 -0.10205199 -0.03734191 0.11757673 -0.022095473 -0.11606734 -0.024401098
0.053147364 0.07113638 0.022145528 -0.124773085 0.06903787 -0.008645743 -0.0610911 -0.0012370019
0.10462789 0.034826074 -0.14473577 0.066698685 -0.057992823 -0.054195385 -0.083454855 -0.08128084
-0.09572479 -0.03747942 0.047543813 0.06549971 0.039013624 0.08648167 -0.078586034 0.04795587
-0.08995886 0.11829605 0.0036311992 -0.01603201 -0.034885943 -0.02844848 -0.09088776 0.07006273
0.049305793 0.10913234 0.0430214 0.05780669 -0.006298306 -0.07136978 -0.02978457 0.033383433
-0.021448726 -0.082126565 -0.06695766 0.10456951 -0.11666568 0.13626625 0.03848671 0.0025591592
-0.09396661 -0.0743634 0.0020078525 -0.057394627 -0.078399524 0.03152482 -0.0014217148 -0.111434355
0.018448928 0.05702998 0.06327697 0.09789819 -0.017196922 0.022626866 0.07070775 -0.102924995
-0.04256755 -0.048451487 0.07264425 0.06062655 -0.09323644 0.05288181 0.055085905 -0.109726466
0.05180439 -0.08007621 -0.029147604 0.026081458 -0.06795229 -0.07304346 0.028421517 -0.060544956
0.03210181 0.0641927 -0.07838937 0.054252382 0.096487455 0.010433975 0.092849255 0.05336556
-0.014316488 -0.058028605 -0.10811036 -0.07696514 0.06389069 0.09461822 -0.05066795 -0.0715275
0.022007564 -0.09538222 -0.03784236 -0.08966628 -0.017558726 0.01571855 -0.106903814 -0.022556461
-0.09524094 0.08970471 -0.060062412 -0.008725859 -0.073659286 -0.05329307 0.006776152 -0.091631755

fc3.bias f4 [10]
00000000: 879f b9bd 914d 2fbc 7399 d13d a292 02bc
00000010: 0665 0e3d 6505 1a3d d8f4 a73c a1b2 00bd
00000020: 8435 a8bd c0ce 863d
-0.090636306 -0.010699646 0.10234346 -0.00796953 0.034764312 0.0376028 0.020502493 -0.031420354
-0.08213332 0.06582403

exp_avg f4 [6, 1, 5, 5]
00000000: 65cd b03b 6cbf 433c b9f7 973c 9492 8b3c
00000010: eac2 4b3c 67f4 423c 9077 913c 3678 a53c
00000020: 7193 9a3c ec79 983c 7cc4 073c 2190 483c
00000030: 07b7 833c f193 8f3c 40ba 8e3c 2baf 8a3a
00000040: 95d6 b93b c852 1a3c 55a0 323c 5a39 423c
00000050: 64ca 8c37 65f4 953b d27f 043c fd00 063c
00000060: bac8 e53b c754 af3c d02e 603c 31a7 9e3b
00000070: 94e1 d33a 9580 823a a550 ac3c daf5 3f3c
00000080: 96f3 533b 24d7 c43a 156e d13a 5135 843c
00000090: 1fef d33b ece8 0e3b 6c5c 493a d740 6539
000000a0: 8d5c c33b 109e af3a 14f3 173a 6bb6 7b3a
000000b0: 3582 cdb6 2d28 2839 202d ecb9 0ae2 f8b9
000000c0: 30e7 133a 892c 98ba 3ff8 edbb 227d a1bc
000000d0: 3a61 e4bc 5dd6 cfbc 27e6 9bbc 7562 34bc
000000e0: 1585 cabc 118b eabc db27 b8bc c481 56bc
000000f0: 63a8 babc 508d 0cbd 0c14 f3bc f92b 76bc
00000100: 19ab c0bb b0d2 0dbd 53d5 2cbd 7021 f9bc
00000110: e85b 34bc c0db 3dbb 8242 22bd 8a19 27bd
00000120: b334 d8bc 3867 ffbb c015 78bb adbd 9a3c
00000130: 15f6 ac3c 0a26 f63c 0f9d 303d a3bc 493d
00000140: 595c 8b3c 3eac ac3c c2e3 f13c da1e 183d
00000150: b987 183d 7f22 613c 0492 a33c edac c83c
00000160: a595 e03c 82f0 f93c b161 493c 1bf0 8c3c
00000170: 852e 923c 7434 a33c f0dd e03c ce60 5a3c
00000180: 2d43 633c aa96 443c 4a9a 823c 658d c73c
00000190: 10bf 843a 4256 513a e9b6 773b f35b 8f3b
000001a0: d2c4 853b ec34 223c 3806 f93b f64f d03b
000001b0: acbc f83b d1f0 2d3c 44af 9a3c 424f 633c
000001c0: 3e3a 4e3c 41b6 603c cd4a 963c b5d1 d13c
000001d0: b285 a33c 0d86 8f3c 9c7d 9f3c be59 c43c
000001e0: 152a b43c 91eb 8b3c 609f 6b3c 9c38 8a3c
000001f0: 558f b23c 428d 2abc cac4 afbc bd4c dabc
00000200: b086 e3bc 3108 cfbc c6b8 c3bb 1877 94bc
00000210: 4fdf bbbc 0d2d bdbc 4080 a9bc a5f3 00bc
00000220: dfaf 9abc a2b7 bfbc bc62 b5bc 343c 8bbc
00000230: bdcb 37bc ff09 acbc ae54 e6bc 5304 d6bc
00000240: ca69 8dbc 344e 6dbc af97 c9bc c283 0bbd
00000250: 12f3 fabc ea94 b4bc
0.0053955787 0.011947494 0.01855074 0.017037667 0.012436608 0.01189909 0.017757207 0.020198923
0.018869134 0.018612824 0.008286592 0.012241394 0.016078485 0.017526599 0.017422795 0.0010580769
0.005671332 0.009419151 0.010902484 0.011854494 1.6783546e-05 0.0045762532 0.008087115 0.008178947
0.007012454 0.02140273 0.013683036 0.004841708 0.001616525 0.0009956533 0.021034548 0.01171633
0.0032341233 0.001501773 0.0015978242 0.016138704 0.0064677144 0.0021806313 0.00076813134 0.00021863297
0.0059619606 0.0013398547 0.00057964143 0.00096020725 -6.124634e-06 0.00016036695 -0.00045047048 -0.00047470658
0.00056420546 -0.0011609952 -0.0072622593 -0.019712988 -0.027878392 -0.025370771 -0.019030644 -0.011009802
-0.024721662 -0.028630765 -0.022479942 -0.013092462 -0.022785371 -0.034314454 -0.029672645 -0.015025132
-0.0058797714 -0.034624755 -0.04219563 -0.030411452 -0.01100824 -0.0028970093 -0.039614208 -0.04079584
-0.026392316 -0.007794287 -0.003785476 0.018889273 0.021113435 0.030047435 0.043118533 0.049252164
0.017011808 0.021078225 0.029527549 0.037138797 0.03723881 0.013741135 0.019967087 0.02449652
0.027415106 0.03051019 0.012291358 0.017204335 0.017844448 0.019922473 0.027449578 0.013328744
0.013870996 0.011998812 0.015942711 0.024359414 0.0010127742 0.00079855707 0.0037798232 0.004374975
0.0040823007 0.009900313 0.0075996183 0.0063571883 0.007590851 0.010616497 0.018882401 0.013873877
0.012587128 0.013715328 0.018346215 0.025612691 0.019961212 0.017519975 0.019469075 0.023968574
0.021992723 0.0170801 0.01438126 0.016872697 0.021796862 -0.010409655 -0.021456141 -0.02664792
-0.027774185 -0.02527246 -0.0059729544 -0.018123195 -0.02293363 -0.023092771 -0.020691037 -0.007870589
-0.01888269 -0.023402993 -0.022141807 -0.01699648 -0.011218009 -0.02100086 -0.02811655 -0.026125109
-0.017262358 -0.014483977 -0.024608461 -0.0340612 -0.030633483 -0.022043664

exp_avg_sq f4 [6, 1, 5, 5]
00000000: a084 a73a 6ad1 8b3a d732 a53a 77f9 ee3a
00000010: d0cc 283b 0c59 9e3a f52a b43a 2882 003b
00000020: 3479 3d3b 9bc4 6a3b c741 5c3a 46b8 933a
00000030: f289 e83a bb83 2b3b 2e05 3c3b a4c8 0b3a
00000040: 8384 3e3a b64d 9c3a ba7e d93a bec8 d73a
00000050: fb85 023a 9632 303a a32e 863a 058d 923a
00000060: f7dc 753a 9582 e53a 532f 463a ad85 8d39
00000070: ca00 0339 eff5 af38 2e36 863a e367 8239
00000080: 307f 1c38 56b4 f236 baaa 0637 f0af d039
00000090: 0266 5e38 d033 e937 1cf0 ec36 e0f4 5236
000000a0: b277 1939 672d 7737 110d dc37 ea90 a537
000000b0: 38d7 8937 83e2 c038 b854 3237 d6bd 6737
000000c0: e046 1d38 cdb0 9b38 2a7a 9a3b 4d12 df3b
000000d0: c8ce f33b 98c3 be3b a2af 843b 814e b23b
000000e0: d73d f03b 1b5c eb3b 9aee 993b 78a3 2a3b
000000f0: 43e4 d93b 1845 083c 0fdb d53b 0097 483b
00000100: f2b8 8d3a a814 0a3c e3b2 0c3c 89b8 ac3b
00000110: 3558 db3a a755 ec39 3902 1b3c 10e6 0b3c
00000120: f360 9b3b b329 c03a 1bc9 1b3a 0ac8 213b
00000130: 72ee 833b e937 de3b 7ad1 223c 3eb3 3a3c
00000140: e50a 463b cb5f a93b 58b4 f03b 0834 103c
00000150: dbe4 223c 0c8f 693b 0adf a53b 94b5 a13b
00000160: 5369 a53b 0104 e03b e1c0 573b 92ff 443b
00000170: da01 053b 8118 153b ab36 893b 3190 0d3b
00000180: a5d6 b73a 9960 743a 6669 d23a 982d 463b
00000190: cf4f 883a 6712 573a 50a1 833a 9138 d63a
000001a0: 59c1 103b 5897 df3a 2fcd bf3a 83dd de3a
000001b0: 11f0 1a3b 3fe5 333b 49d0 4c3b c7ce 493b
000001c0: 54d1 543b 5683 6e3b 70ae 723b 34b8 9b3b
000001d0: 9df7 a13b 662a a93b 730f ae3b ca63 a83b
000001e0: 92e9 ab3b f4d6 b23b 81a0 b93b 0e84 b93b
000001f0: 6747 bb3b 48ce 673b f94a 693b 3b54 853b
00000200: 2cd8 8d3b 741e 863b ed8a 473b 55b9 473b
00000210: 7593 613b b8ec 673b edb0 5a3b 1a3b 4b3b
00000220: 2158 503b 3097 663b e1ea 643b 5e61 5c3b
00000230: 7ef7 733b ece4 833b 2da6 913b 428c 903b
00000240: e21b 8b3b 345b 9d3b e3c3 b23b 37e0 ca3b
00000250: c210 cc3b 10ac b43b
0.0012780614 0.0010667269 0.0012603652 0.0018232305 0.0025756843 0.0012080981 0.0013745712 0.001960883
0.0028911354 0.0035822752 0.00084021356 0.0011270128 0.0017741306 0.0026171047 0.002868961 0.0005332327
0.00072676706 0.0011925015 0.0016593554 0.0016463024 0.0004979071 0.0006721405 0.0010237287 0.0011180943
0.00093789346 0.001751023 0.00075601524 0.00026993212 0.00012493427 8.390459e-05 0.0010239535 0.00024872934
3.731175e-05 7.233156e-06 8.026773e-06 0.00039803935 5.3023927e-05 2.7799892e-05 7.0613005e-06 3.1434975e-06
0.00014635807 1.4732918e-05 2.6232128e-05 1.9737014e-05 1.6431892e-05 9.1974645e-05 1.0629352e-05 1.3812873e-05
3.7497724e-05 7.423908e-05 0.00471427 0.0068076015 0.0074404217 0.0058216564 0.0040492574 0.0054414873
0.0073315906 0.0071826107 0.004697633 0.0026037376 0.0066495254 0.0083172545 0.006526358 0.003060758
0.0010812564 0.008427776 0.008587572 0.0052710217 0.0016734662 0.00045077244 0.009460979 0.008538738
0.004741782 0.0014660865 0.0005942748 0.0024685883 0.0040262276 0.0067815674 0.009937638 0.011395274
0.0030218896 0.00516889 0.0073457174 0.008801468 0.009942259 0.003563824 0.0050619887 0.004934976
0.005047956 0.006836415 0.0032921361 0.0030059558 0.0020295293 0.0022750201 0.004187425 0.0021600837
0.0014025761 0.00093222555 0.001605314 0.0030239578 0.0010399761 0.0008204341 0.0010042582 0.0016343762
0.00220879 0.0017058654 0.0014633293 0.0017003271 0.0023641626 0.0027449874 0.0031252077 0.0030793415
0.0032473402 0.00363942 0.0037030242 0.0047521833 0.004942848 0.005162525 0.0053119003 0.005138849
0.0052463496 0.0054577533 0.0056648855 0.005661494 0.005715299 0.0035370756 0.0035597666 0.004068879
0.004328748 0.0040929858 0.0030447796 0.0030475457 0.0034420167 0.0035388898 0.0033369616 0.003101057
0.003179081 0.003518533 0.0034930038 0.0033627371 0.0037226374 0.0040250923 0.0044448585 0.0044112513
0.0042452672 0.004802132 0.0054554804 0.0061912793 0.0062275836 0.0055136755

exp_avg f4 [6]
00000000: 1bed 6337 8bb5 9d38 6e14 21ba 805b 403a
00000010: 2f3c cb39 a964 2cb9
1.358546e-05 7.5201584e-05 -0.0006144707 0.00073378533 0.00038764018 -0.00016440697

exp_avg_sq f4 [6]
00000000: 3ce5 e633 9229 6733 1e13 db35 01e8 1836
00000010: b50d 3835 ca64 ac34
1.0751907e-07 5.3821687e-08 1.6322335e-06 2.278481e-06 6.856529e-07 3.211083e-07

exp_avg f4 [16, 6, 5, 5]
00000000: 7fea ce3a 2a41 e93a 1151 473a 67a9 c139
00000010: 1bb4 5039 bdc4 813b 91ee 913a 9066 9739
00000020: 19ba ad3a 7208 2c3b 1a4f b93a e7ec d73a
00000030: 7a0f 473a 8a40 3eba 1d4b a239 1e37 73b7
00000040: 33ba ab39 2400 e739 4900 0a3a 28f1 483b
00000050: e483 28ba a86d b3ba 85e8 7fba c1dd 683a
00000060: eced d83a a3dd 7737 c4e4 16bb 2bc0 efba
00000070: a19a 27b8 03e1 a739 f72c d1ba 707c 6fbb
00000080: 9b66 73ba d0fa 95b9 cd93 beb9 378f 05bb
00000090: b0de 6439 19a9 7e3a e384 4e3a 0a81 c53a
000000a0: 4e4c 09bb 6ffa c939 061c f53a 6973 1a3b
000000b0: 0258 c13a 9fce 2cba be77 aeb9 f06d 34ba
000000c0: 12ad feb8 8b42 9338 a99b 97bb d2c7 4fba
000000d0: 24d4 0d3b c0aa 22ba 1894 87ba 7b02 5bbb
000000e0: 21df b239 3028 463a 22ad a938 6f90 4138
000000f0: 1863 3b3a 5aab 833a 9139 473b b66d 8b3a
00000100: 808f f9b9 40cc 6f3b b7c1 c43a ac76 173b
00000110: 3c66 e538 6c05 aaba 18e5 1c3b 806d a038
00000120: 66e9 663b d3f5 0f3b 6e75 e8b9 039d ab39
00000130: 3b39 72b9 fdff 963a 4563 ac3a 3802 c73a
00000140: d564 a33b 31c7 9f3b 72eb 463b 9099 6a3b
00000150: 8e70 ad3b 2690 823b 2da4 823b 35fa 7e3b
00000160: 396e 3a3b d859 213b e24f b13a 97ad 393b
00000170: cb85 c73a e511 4eba af71 9e39 b12a 07ba
00000180: 887c 0db8 8383 e2b9 fe96 84ba c53b 9a3a
00000190: cee3 e43b 96db e13b 5e09 a43b 3c18 813b
000001a0: 98a3 d33b f048 353b 7333 693b f970 6e3b
000001b0: 7f85 e43a 538a 003b 0e60 353b d928 bc3a
000001c0: 4486 343a eb3a 103b a0ac a23b 5a0d de3b
000001d0: f6de 413b b2f2 ee3a 0010 a13b 9566 0b3c
000001e0: 26c1 de3b afb0 963b 0bb8 793b 31e6 873b
000001f0: 8cc1 a53b 6cf0 17bb 1c8c ca3b 09c8 f33b
00000200: 71b5 bb3b 66a4 d33b 78f5 ecb9 4743 0f3c
00000210: 1526 013c cd9e a33b 044c b53b 0572 26b9
00000220: c2bb c83b 0d1b a93b be70 0d3b 5dd4 543b
00000230: d18e 543b 1c82 a13b 236f 363b 5a20 213b
00000240: c9bf cb3b 5ea8 033c 46ab bd3b 8456 5c3b
00000250: c903 683b 13d6 ed3b 68b5 863a 6351 81ba
00000260: 3873 e1ba 6d75 d5ba 2616 abba 3bcd 443a
00000270: c8cc 1539 52d9 dc38 36fd 9cba 6919 01ba
00000280: 79cb 513a d703 823a a0f0 85ba c7df 28ba
00000290: 5343 58ba b877 d639 2955 82ba 64a9 3dbb
000002a0: edbc 70ba f699 c1ba 8230 99ba 3919 2dbb
000002b0: 5def 87ba e48b c4ba 9bca cbba eac5 2bb9
000002c0: ef53 7fba 3083 d138 11eb da39 fdc8 14b9
000002d0: 433b 97ba e198 2cba 134e f5b9 8374 97ba
000002e0: 97b6 d6ba 7ca5 50b9 0d16 1db9 7569 29b9
000002f0: f8cc 80ba bb64 8637 145e 17b9 185b 16b9
00000300: d0d4 a739 c9c0 053a f930 40ba 379a 1e39
00000310: 2c4f 1d3a be6c d03a d473 5eba ed3d 2bba
00000320: 613f b1ba 31c4 ba3a 4ddb f83a 0250 843a
00000330: 2915 0cb6 71ef 0aba ec1d d33a f718 a53a
00000340: 5d84 773a 7bd7 cdb9 01b8 4cb8 59b4 253b
00000350: 80d0 db3a b796 d9ba e8af 1fba bc7c d2b9
00000360: c549 233b 8068 2dbb 96db 11bb 431a aab7
00000370: d08c 33ba a388 96ba 9f53 8abb 2eed 2cba
00000380: ac78 d4ba af0c 3fb9 8055 42ba 14df dbba
00000390: 0977 d7ba 12f3 3fba d86d 5c3a d816 18ba
000003a0: 9b4b 9cba dcc1 77ba 5a9b 1abb e9c0 723a
000003b0: 5661 5c3a f4c3 7e3a 12ca 2ebb 6664 4ebb
000003c0: 2db9 d13a 561f 0b3b 43dd 0fbb 8f90 7ebb
000003d0: 43ad 0dbb f64b fb39 7aa0 2cbb a0ec bdbb
000003e0: fbbf 69bb 68a8 20bb e5ce b63b abeb 3a3b
000003f0: b531 0dba 53e3 11bb 3ba7 24bb de5f 933b
0.0015786438 0.001779591 0.00076033274 0.00036938043 0.0001990352 0.0039602206 0.001113372 0.0002887738
0.0013254314 0.002625015 0.0014137954 0.0016473801 0.0007593554 -0.0007257542 0.00030955012 -1.4496762e-05
0.0003275439 0.00044059858 0.0005264325 0.0030661318 -0.00064283446 -0.0013689296 -0.0009762126 0.00088831416
0.0016550398 1.4773951e-05 -0.0023024539 -0.0018291523 -3.9959912e-05 0.0003202037 -0.0015958835 -0.0036542676
-0.0009285004 -0.00028606365 -0.00036349744 -0.0020379552 0.00021826732 0.00097145286 0.0007878078 0.0015068364
-0.0020950022 0.00038524295 0.0018700368 0.0023567325 0.001475096 -0.0006592068 -0.0003327708 -0.0006882837
-0.00012143901 7.021901e-05 -0.0046267104 -0.0007926199 0.0021641338 -0.00062052533 -0.0010343818 -0.0033418227
0.0003411705 0.0007559089 8.0907965e-05 4.61493e-05 0.000714825 0.0010045574 0.0030399302 0.0010637555
-0.00047599897 0.0036590248 0.0015011345 0.0023111505 0.000109386136 -0.0012971587 0.0023940261 7.6497905e-05
0.003523433 0.002196659 -0.0004433798 0.00032732644 -0.00023100238 0.0011520382 0.0013152143 0.0015183156
0.0049863853 0.0048760404 0.0030352739 0.0035797097 0.0052929586 0.003984469 0.0039868564 0.003890646
0.0028447045 0.0024620201 0.0013527835 0.0028332227 0.0015222369 -0.0007860943 0.0003022081 -0.0005156203
-3.3733e-05 -0.00043204063 -0.00101158 0.001176708 0.0069851642 0.0068926318 0.0050059995 0.0039396565
0.006458711 0.0027661882 0.0035583645 0.0036383255 0.0017434804 0.0019613698 0.0027675661 0.0014355435
0.0006886462 0.0022007774 0.004964426 0.006776494 0.0029582358 0.0018230288 0.0049152374 0.008508344
0.0067979274 0.004598699 0.0038104083 0.004147314 0.005058473 -0.0023184074 0.006181253 0.0074396175
0.0057284166 0.006458807 -0.00045196316 0.0087440675 0.007882615 0.0049932958 0.0055327434 -0.00015873469
0.006125898 0.0051606954 0.0021582092 0.0032475211 0.0032433758 0.0049288403 0.0027837239 0.0024585933
0.006217931 0.008035747 0.0057882397 0.0033620903 0.0035402647 0.0072581857 0.0010277452 -0.0009866174
-0.0017200476 -0.0016285606 -0.0013052865 0.00075073884 0.00014286034 0.000105308965 -0.0011977318 -0.0004924746
0.0008003037 0.0009919357 -0.0010218807 -0.0006442037 -0.0008249778 0.00040906458 -0.0009943593 -0.0028940076
-0.00091834256 -0.0014770615 -0.001168743 -0.002641274 -0.0010371018 -0.0014995304 -0.0015548052 -0.0001638156
-0.0009739985 9.990332e-05 0.00041755338 -0.00014189254 -0.0011538047 -0.000658406 -0.0004678821 -0.0011555109
-0.001638132 -0.00019898074 -0.00014980901 -0.00016156382 -0.000982671 1.6020951e-05 -0.00014435529 -0.0001433905
0.0003201128 0.00051022746 -0.0007331516 0.00015125504 0.0006000872 0.0015901548 -0.00084858877 -0.000653236
-0.0013522917 0.0014249143 0.0018986255 0.0010094645 -2.0873943e-06 -0.0005299962 0.001610694 0.0012595941
0.0009442026 -0.00039261192 -4.8808757e-05 0.0025284498 0.0016770512 -0.0016600703 -0.0006091581 -0.00040147256
0.0024915796 -0.0026459992 -0.0022256128 -2.0277808e-05 -0.0006849291 -0.0011484813 -0.004221394 -0.0006596622
-0.001621028 -0.00018219904 -0.0007413253 -0.0016774856 -0.0016438673 -0.0007322292 0.0008408702 -0.0005801744
-0.0011924388 -0.00094511895 -0.0023591132 0.0009260313 0.0008406838 0.00097185303 -0.0026670736 -0.0031492948
0.0016000621 0.0021228394 -0.002195195 -0.0038843488 -0.0021618165 0.00047931046 -0.0026340769 -0.00579603
-0.0035667408 -0.002451444 0.005578863 0.0028521817 -0.000538613 -0.002226074 -0.0025124091 0.0044975122
