checkpoint/LeNet checkpoint/best_model.pth (torch, 752226 bytes, 30 tensors)

conv1.weight f4 [6, 1, 5, 5]
000000 fe fb 6f be 35 b9 5b be bc f1 29 bd 0d 99 07 3c
       -0.23435971 -0.2145737 -0.0414903 0.008276236
000010 a8 2c 40 3d 5f 3e 70 be 0b 45 06 3d 39 45 e2 3c
       0.046917588 -0.23461293 0.03278069 0.027620899
000020 83 cf 68 be 1e 1b e1 3d a1 b8 6a 3e 49 35 80 3d
       -0.2273541 0.109915 0.22921993 0.06260163
000030 fa c5 07 bd f6 03 85 be 06 86 23 3e f7 5a 62 3e
       -0.03314779 -0.25979584 0.15969095 0.22105013
000040 e9 bb 7d 3d 3c 12 5d be 5f b2 aa be 00 f8 4f 3c
       0.061946783 -0.21588987 -0.3333921 0.012693405
000050 92 b0 6c be 6a 4c 6a 3e dc 6e 1e 3e 7c 74 43 3c
       -0.23114231 0.22880712 0.15471977 0.0119296275
000060 27 68 02 be 81 84 d3 bc 4c b8 15 be 98 f1 e5 3d
       -0.12735043 -0.025820019 -0.14621085 0.11227721
000070 9a 0f a6 bd 2f 53 66 3a 0c 42 14 3e ba 2d fc bd
       -0.081084445 0.0008786199 0.1447832 -0.12313409
000080 0e f7 3c be 85 b4 be bd d8 e7 fd 3c 2f 7b 06 be
       -0.18453619 -0.09311775 0.03099434 -0.13132928
000090 e5 b6 a7 3d da 53 c3 3d 42 67 eb 3c 96 45 86 bd
       0.08189181 0.09537478 0.02873576 -0.06556241
0000a0 f8 dc c0 3d 92 9f a0 bc 8b fe e7 bc 56 c3 2f 3d
       0.094171464 -0.019607339 -0.028319618 0.042910896
0000b0 ce 12 be 3d 47 1e ac 3d df 9b ab 3d 85 29 a3 bc
       0.092809305 0.084042124 0.083793394 -0.019917259
0000c0 01 49 58 3c f2 ac 16 3e 72 dc ba bd 3c 10 a1 bd
       0.013200999 0.14714411 -0.09124078 -0.078644246
0000d0 a8 63 b6 bd cc 3f 84 3c 7a b5 8a bd 64 d9 81 be
       -0.08905727 0.016143702 -0.06772895 -0.25361168
0000e0 d2 cb c6 3d a5 f2 22 3e a1 12 17 3e 14 8a e1 bd
       0.097068444 0.15912874 0.147532 -0.110126644
0000f0 73 bb 16 3d 59 84 31 3e 0b da 65 3d 7b 0f 05 bd
       0.03679986 0.17335643 0.056116145 -0.032485466
000100 25 8a 22 be 69 74 ce 3c 74 38 5a 3d 9a 87 42 3d
       -0.1587301 0.025201993 0.053276494 0.0474926
000110 36 96 b0 3d 3b f3 bd bd c7 b4 ed bc 22 73 fd 3d
       0.086224005 -0.09274908 -0.029016865 0.123754755
000120 e9 32 a9 3d 12 0d 56 be c9 9f 0d be e1 df 12 be
       0.082616635 -0.20903423 -0.13830484 -0.14343216
000130 da 7e 1f 3e 3b 24 2f bc 60 4e 1b 3e ae 94 22 bc
       0.15575734 -0.01068979 0.15166616 -0.009923143
000140 de a0 c3 bc da bb 19 be c7 a8 7e 3e 93 12 0c 3e
       -0.023880418 -0.15013066 0.24869071 0.1367896
000150 9e ed aa 3d 72 d9 5f 3d 61 2c ef bc 1a 36 15 3e
       0.08346103 0.05465073 -0.029195966 0.1457142
000160 29 cf f3 3c d5 a0 f3 bc 30 81 35 be bb 5f 47 be
       0.029761868 -0.029739777 -0.17725062 -0.19470112
000170 a8 d6 8d 3d 12 44 59 bd ed 70 08 be 72 01 04 be
       0.06925708 -0.053043433 -0.13324328 -0.12891176
000180 c7 25 af bd f0 e7 35 3c f9 73 d4 bd 17 aa bb 3d
       -0.08552127 0.0111026615 -0.103736825 0.091633014
000190 73 4c a8 3d 29 cc 2d be 59 4f 3d 3d 54 3d 2f 3e
       0.082177065 -0.16972412 0.04621825 0.17113239
0001a0 6a 13 2f be c4 6d 83 bc 21 07 98 3d a8 50 ee bd
       -0.1709725 -0.016043551 0.07423235 -0.11636478
0001b0 5a 17 a6 be 7e c5 41 be 74 f5 43 3e 18 ff 65 3d
       -0.3243969 -0.18922994 0.19136602 0.05615148
0001c0 b8 21 a3 be 37 eb c9 be dd f0 14 3e ab f8 38 3e
       -0.31861663 -0.39437267 0.14545007 0.1806361
0001d0 ba 79 33 be d5 47 d7 be 9a 9b 2b 3a e0 1a 73 3e
       -0.17526904 -0.4204699 0.0006546319 0.23740721
0001e0 e6 b1 86 3d a2 56 b5 be ef da b5 be 5c 42 20 3e
       0.065769 -0.35417658 -0.35518596 0.15650314
0001f0 60 78 f9 3d 8f 8d 80 be 6d bc 77 be 7b b8 eb bd
       0.12181163 -0.25108 -0.24192972 -0.11509796
000200 88 bc a8 bd 17 e5 39 3d c8 e9 8a bd fa 3a 82 3e
       -0.082390845 0.045384493 -0.067828715 0.2543562
000210 60 d9 4f 3e 27 ad 9a 3d 2b 34 07 3d 5d 7c 82 3e
       0.20297766 0.075525574 0.033008736 0.25485507
000220 c9 86 d0 3d d8 b5 f9 3d 23 8d 36 be f9 27 aa bd
       0.10181958 0.12192887 -0.17827277 -0.083084054
000230 0d 31 03 3d d6 f7 4f be 74 2f 9f bd d6 8d d0 3d
       0.0320292 -0.20309386 -0.07772723 0.10183303
000240 28 d0 a3 bd bd a7 11 bd 6b bb 83 be e5 a5 04 bd
       -0.07998687 -0.03556036 -0.25728926 -0.03238477
000250 0b 26 22 be 9b 29 e6 3d
       -0.15834825 0.11238404

conv1.bias f4 [6]
000000 69 20 f0 3e cd 62 c0 3e 51 cf bd 3e 9a eb ba 3e
       0.46899727 0.3757538 0.37072232 0.36507875
000010 db 40 83 3d b2 fd 54 bd
       0.064088546 -0.051999755

conv2.weight f4 [16, 6, 5, 5]
000000 79 be 7d bd 29 ca 0c bd b6 98 0e 3d 66 be 81 bc
       -0.061949227 -0.034372482 0.034813605 -0.01583786
000010 52 35 36 be 64 24 de bd 0b c0 48 3d 50 cd 0c 3e
       -0.17793778 -0.10846785 0.04901127 0.13750196
000020 6e 6c 07 bd 3f 92 59 be 51 e3 02 be 12 af a8 3d
       -0.03306239 -0.21247195 -0.12782027 0.08236517
000030 2f 78 f7 bd d0 cf 3b be 77 9b 1b 3d f4 9a 8e be
       -0.1208347 -0.18340993 0.03799006 -0.27852595
000040 14 2c a6 bc fe 2b d4 be 6f 4d 1f be c6 09 e1 3d
       -0.02028469 -0.41439813 -0.15556882 0.10988192
000050 6e 1e 70 be 72 0d b2 bd 72 75 21 be 18 dc 5e bd
       -0.23449108 -0.08693971 -0.15767458 -0.054409117
000060 9e 58 dd 3d 70 43 29 3d 3f 26 70 3d 2b 13 af 3d
       0.10807918 0.04132408 0.058630224 0.08548578
000070 41 14 37 bc d9 08 84 be 18 10 c9 3d 91 31 3f 3d
       -0.0111742625 -0.25788 0.09817523 0.04667813
000080 f8 16 bd bd ad 66 88 be 18 0a 08 be 09 13 a9 3d
       -0.092328966 -0.26640835 -0.132851 0.08255584
000090 28 36 25 bd 10 e4 31 be aa cf d2 bd a0 59 d9 bd
       -0.04033485 -0.17372155 -0.10293515 -0.10612798
0000a0 2c 3f 8e bd f4 e4 97 bd 0c 05 c6 bc 2d be 54 bd
       -0.06945643 -0.07416716 -0.024172328 -0.05193918
0000b0 5a 26 7b bd be 6e 25 3c cd 66 bb bc e4 44 8d 3d
       -0.06131587 0.010097204 -0.022876168 0.068979055
0000c0 d2 49 d5 3d 23 3e 08 3d 4b c4 50 be 61 70 02 be
       0.10414471 0.033262383 -0.2038738 -0.12738182
0000d0 5a 47 df 3c 25 c5 65 3c da ae 46 3e 5e 1b 23 be
       0.027255703 0.014024054 0.19402638 -0.15928409
0000e0 5d 21 00 3d 71 57 ca bc cc fc db 3d 52 ac 51 3d
       0.031281818 -0.024699898 0.107415766 0.051189728
0000f0 64 a9 3a bc 68 cc 8a 3d 41 d4 1b 3d c4 c7 a4 bd
       -0.011392925 0.06777269 0.038044218 -0.08045915
000100 66 68 5e be ea f5 b4 bb b3 27 de bb 1d 6a 6e be
       -0.21719512 -0.0055224793 -0.006779635 -0.23282667
000110 f8 00 68 be 18 68 88 bb 1c d3 81 3c 6d 86 c1 3d
       -0.2265662 -0.0041627996 0.015847735 0.09449468
000120 b5 be a1 bc 04 92 4f 3d fc 66 36 bd 60 f8 60 ba
       -0.019744257 0.05067636 -0.044531807 -0.00085819326
000130 d7 07 7d bd 65 47 bb bd 87 a5 19 bd 22 3a 15 3e
       -0.061775055 -0.09144477 -0.037511375 0.14572957
000140 50 16 8f 3d 7b 23 a8 bd 3d 56 54 3c 24 2f de 3d
       0.06986678 -0.08209892 0.012960014 0.10848835
000150 68 86 a1 bd 9b be ac 3d b3 aa 87 ba 9c df 05 3d
       -0.07886964 0.084347926 -0.0010350555 0.032683954
000160 db 35 90 3d f5 8a 4d be 30 3c fb 3d ea c4 cc bd
       0.07041522 -0.20072539 0.12267339 -0.09998496
000170 17 cd 2a be 08 c6 52 be 92 bd 23 bc 3e e6 0b 3e
       -0.16679798 -0.20583355 -0.009993928 0.13662049
000180 7d 34 37 be 88 07 8f be 9e 18 2a bd b9 ec d3 3b
       -0.17891116 -0.27935433 -0.041527383 0.0064674285
000190 a4 61 61 3d 3a 0d 96 3d 1c 79 25 be 52 72 09 3e
       0.055024758 0.073267415 -0.16159481 0.13422516
0001a0 9c e7 6c 3c ba 27 3c 3d 3b bc 7d bd 41 30 49 39
       0.014459517 0.045936324 -0.06194709 0.0001918683
0001b0 86 a0 09 3c 13 d3 96 3e d9 23 c6 3d fc fc 2c bb
       0.008400088 0.29457912 0.09674806 -0.0026395908
0001c0 86 c5 2d bd b5 47 f5 bc 98 22 11 3e 28 43 99 bd
       -0.0424247 -0.02994142 0.14173353 -0.07483512
0001d0 95 28 08 3e 70 0d 06 3b fb 67 8b 3d 6e aa 0b be
       0.13296731 0.0020454787 0.06806942 -0.13639233
0001e0 45 d3 0e be 8f 28 2f bd 8d da 65 bd a4 96 eb bc
       -0.1394778 -0.04276329 -0.05611663 -0.028758354
0001f0 f0 76 f7 bc f9 71 46 bd 85 82 c2 bd 57 73 6b be
       -0.030208081 -0.048448537 -0.09497551 -0.22993217
000200 bf e8 3a be e9 47 60 3d 70 2b d3 3d 87 a8 99 bc
       -0.18252848 0.05475608 0.103110194 -0.018757118
000210 1c 13 a5 bd c0 1b c4 3d 45 74 ee bd f1 42 93 bd
       -0.080602854 0.095756054 -0.116432704 -0.071905024
000220 90 91 de bd 9b 1c a3 3d 4c 3f 47 3b a2 1c 0d bd
       -0.108676076 0.079644404 0.0030402718 -0.034451135
000230 69 86 f9 bc 08 74 cc bd b2 31 ed bd 03 47 de 3a
       -0.0304596 -0.09983069 -0.11581744 0.0016958419
000240 13 df 49 3e 9f bb 6b be 61 0c 86 be cd bd d7 bd
       0.19714002 -0.2302079 -0.2618132 -0.105342485
000250 40 4d 8d 3d e6 97 c3 3c 02 74 9c 3d 9d 72 35 be
       0.068995 0.023876142 0.07639314 -0.17719503
000260 8b bb 20 be c8 f5 94 3d 4a e9 fa 3d d3 48 cb bd
       -0.15696542 0.072734416 0.122515276 -0.099259995
000270 fd 13 d6 bb 44 d1 2e bc 18 44 4a 3d 9f 63 22 3e
       -0.0065331445 -0.01067001 0.049381346 0.15858315
000280 c5 02 75 3d 2a 9d 3f be eb c5 34 be 4f fd 4e 3e
       0.059817094 -0.18712297 -0.17653625 0.20213817
000290 42 d2 90 3e 8e 29 ac bd 5b 52 68 bd 69 09 d0 bc
       0.28285414 -0.084063634 -0.056719165 -0.025395112
0002a0 50 4b 9a 3d e8 aa 12 3d e1 68 ac 3c d6 d1 3a bd
       0.07533896 0.03580752 0.021046104 -0.04561027
0002b0 b8 10 27 be 63 5c 15 be b9 12 ef 3d d2 85 d7 bc
       -0.16314971 -0.14586024 0.11673493 -0.026308928
0002c0 6d 1f d9 b8 51 58 60 bd 46 bd 47 bd 8e 75 7b be
       -0.0001035322 -0.054771725 -0.04876449 -0.24556562
0002d0 83 c4 bf 3c 8c 8a 0e 3d 72 be 73 bd bc a8 15 be
       0.023409134 0.034800097 -0.059507795 -0.14615148
0002e0 e9 d9 ea bd e0 9d 9c be 46 db c0 bd cd 99 5c 3d
       -0.11467344 -0.305892 -0.09416823 0.053857613
0002f0 58 95 98 bc b1 73 0c be a7 dc e9 bc 3a 45 05 bd
       -0.0186259 -0.13716008 -0.028547598 -0.032536723
000300 f6 88 68 bc 6e e2 95 bd 48 23 ce bd 41 2b f4 bc
       -0.01419281 -0.07318579 -0.10065323 -0.029805781
000310 ae 8e 39 bd 80 92 58 3d 24 d7 7f bd d2 68 12 3d
       -0.045302086 0.05287409 -0.062461033 0.035744496
000320 12 bd de 3d ac 4b ed bd 4e 50 52 3d 9e ed 0a 3d
       0.10875906 -0.11586699 0.051346116 0.033918016
000330 46 ff 5b 3c 0b a4 8c bd 6a 9e 9a 3d b4 6a 86 3d
       0.013427561 -0.06867226 0.07549746 0.06563321
000340 4f 78 09 3c 52 3f f7 bc 22 b6 05 be b3 0e 0f be
       0.0083905 -0.03018156 -0.1305776 -0.13970451
000350 46 67 36 be 90 f7 29 3e 6c e3 97 3c 9c 50 99 be
       -0.17812833 0.16598344 0.01854106 -0.29944313
000360 be 7c 2a bd 1d 93 86 3d ea bb ed 3d 2a 37 a3 3d
       -0.04162287 0.065710284 0.116081074 0.07969506
000370 4a e1 f1 3d bb 54 04 3e 7b 80 3e bd 5e bc 00 3d
       0.118105486 0.12922947 -0.046509247 0.03142964
000380 ae e9 ac bc 6e 3f 0e bd af 68 ae bd b3 da 2f be
       -0.02110752 -0.03472846 -0.085160606 -0.17173271
000390 c5 74 92 bc 01 bb d6 3c 08 4e 2c be 80 f6 46 bc
       -0.017877946 0.026212217 -0.16826642 -0.012143731
0003a0 df e2 e8 3d 2d de 0f be a1 24 3d bd 6c cc 2a 3e
       0.11371397 -0.14049597 -0.04617751 0.16679543
0003b0 6d 1d 1d 3e 41 e1 47 bd 80 a2 03 be 1b d8 3e be
       0.15343256 -0.048798803 -0.12854958 -0.18637125
0003c0 e1 53 88 3d 19 00 fd bd d9 29 a0 bd bd a6 01 bd
       0.06656624 -0.12353534 -0.07820482 -0.031653155
0003d0 d7 7b 65 bd 31 92 2a be f8 b0 dd bd 4b 64 67 bd
       -0.056026306 -0.1665733 -0.1082477 -0.05649213
0003e0 7e 93 6f bd 00 ef 2e be 7d 79 6b bd da de df 3d
       -0.05849027 -0.17083359 -0.057488907 0.109311774
0003f0 6b c3 4b be 06 c3 d2 bd 1e f4 17 be 3a 07 43 be
       -0.19898765 -0.10291104 -0.14839217 -0.19045725

conv2.bias f4 [16]
000000 9c 05 17 be c2 e8 ca bd 90 bb 16 be 26 0a 56 bd
       -0.14748234 -0.09907676 -0.14719987 -0.052255772
000010 64 3d c0 bd 60 a7 bd 3c f9 d9 b1 3c c8 72 6b be
       -0.09386709 0.0231511 0.021710383 -0.22993004
000020 09 88 3f be dd e4 3d be 1c 29 7e be d9 f9 51 bd
       -0.18704237 -0.18544336 -0.2482037 -0.051263664
000030 02 ee ae bd d2 e4 34 bd ae 68 80 be e8 27 41 b9
       -0.0854149 -0.044163533 -0.25079864 -0.0001842078

fc1.weight f4 [120, 400]
000000 b0 30 b3 bd aa f3 ad bd 2d ea c0 bd 5f 91 32 be
       -0.08749521 -0.08493741 -0.094196655 -0.17438267
000010 db 7a 17 be 53 af 1f bc 8a 8b bc bc 52 5f d6 3a
       -0.1479296 -0.00974639 -0.023015756 0.0016355312
000020 90 c5 b0 bd 72 90 14 be 43 65 04 3d ca 81 a2 3d
       -0.08631432 -0.14508227 0.032323133 0.079349115
000030 1c 82 71 3d b2 c6 0d 3d e6 47 6f bd c3 0f e1 bd
       0.058961973 0.03461332 -0.058418177 -0.109893344
000040 8c f7 ce 3c 15 e9 be 3d 69 0a 17 3e 78 ce b1 bc
       0.025264524 0.093218006 0.14750065 -0.021704897
000050 71 7d 31 be 6f 66 74 bd bf 3e 92 3c 3a cd e9 3c
       -0.17333008 -0.059668 0.017852185 0.028540242
000060 9a 84 b3 3b 7e 15 02 3d eb 3c 0f 3c 9d 08 ab 3c
       0.005478454 0.031758778 0.008742551 0.02087813
000070 5d 73 b2 bd 20 31 66 ba 6c 5b ec 3d df 3c f2 3d
       -0.0871341 -0.0008781124 0.11540875 0.118280165
000080 b4 ad a5 3d 57 74 11 be 6c 06 15 3e d3 b9 33 3c
       0.08089772 -0.14204536 0.14553231 0.010969597
000090 05 36 15 3c 11 3a 4d 3d 5e fe 81 bd af 93 a2 3c
       0.009107118 0.050104205 -0.06347345 0.019845812
0000a0 04 6b 72 be 56 03 db bc fd da 1d 3e 29 a8 16 3e
       -0.23673636 -0.02673499 0.15415569 0.14712586
0000b0 b5 95 5a 3e 60 e9 5f be 84 5d 48 bd 8b 26 23 3d
       0.21346171 -0.21866369 -0.04891731 0.03983168
0000c0 60 00 09 bd 61 4f 11 3d 7a 4f 37 3d ee ce 85 bd
       -0.033447623 0.035476092 0.04475353 -0.06533609
0000d0 44 31 a1 bd be 34 00 be c1 7b a8 3d 92 f5 ae bd
       -0.07870725 -0.1252012 0.08226729 -0.085429326
0000e0 7d ca 44 be bf 23 89 3d 33 c3 28 bd a5 b1 e9 3b
       -0.19217868 0.06696271 -0.04120178 0.0071317726
0000f0 40 73 63 be ce 55 47 be 27 8a 21 3c f9 5c 25 3d
       -0.22211933 -0.19466326 0.009859598 0.04037187
000100 bf ec b2 3d 0a 0b 78 bd e2 2a cb bd 1b 12 cf 3d
       0.08736562 -0.060557403 -0.099202886 0.10110875
000110 e8 f4 2c 3d 46 7f 2d 3d 01 7b 3b 3d 13 9f 0e 3a
       0.04222575 0.042357706 0.045771603 0.0005440574
000120 7e d2 a9 3c c9 01 a5 bd 90 a1 c9 bd 7d 92 3e be
       0.020730253 -0.08056981 -0.09845269 -0.18610568
000130 18 0a ad bd a1 bb 20 bb 48 d0 0e bd 6d f2 39 3e
       -0.08449191 -0.0024525898 -0.0348666 0.18158884
000140 70 58 b6 3b 2f 79 bf bd d4 92 bb bd b6 10 98 bc
       0.005564742 -0.09349286 -0.091588646 -0.018562656
000150 1b a4 c1 3d 58 68 7f 3d 7b 93 81 be 8a fb 8e bd
       0.09455129 0.06235537 -0.2530783 -0.06981571
000160 49 1b 87 3d 16 ed db bc 3d ea 53 3d ab a9 f9 bd
       0.06597001 -0.02684645 0.05173706 -0.12190565
000170 a9 7b d3 3b f3 57 84 3d 2b 3f 58 3c a3 44 bd 3d
       0.0064539504 0.064620875 0.013198654 0.09241607
000180 c9 4d 15 3c 31 e9 aa bc 10 d8 85 bc bb 7e fd 3b
       0.009112784 -0.020863147 -0.016338378 0.0077360547
000190 7a be 6f 3d a8 c1 27 bd 03 ad 3d 3c e0 69 d8 3d
       0.058531262 -0.04095617 0.011576894 0.10567069
0001a0 23 38 3a be 0d 70 5d 3d cf fd 76 bc a9 53 57 bd
       -0.18185477 0.054061938 -0.015075161 -0.05257002
0001b0 54 f7 ca bc 59 d0 c5 bd 05 f2 ef 3d 78 d6 9d bc
       -0.024776138 -0.0965888 0.117160834 -0.019267306
0001c0 be 13 ad bd 13 83 15 3d b2 88 9e bc ad c5 44 be
       -0.08451031 0.036501955 -0.01935229 -0.19216032
0001d0 0e 92 26 be e3 44 74 bd b7 08 ac bd d2 cc 8d 3d
       -0.16266653 -0.059636008 -0.084001 0.06923832
0001e0 3d 40 dd 3d 6e 3d 1a be 17 d8 06 be f1 82 9b 3d
       0.10803268 -0.15062496 -0.13168369 0.075933345
0001f0 80 8a 83 3d a7 83 b5 3c 6d 57 89 3c 93 76 7c 3d
       0.06422901 0.022157503 0.01676532 0.06163652
000200 39 63 c5 bc 68 85 c9 bd bc 00 56 3b 0b e3 74 bc
       -0.024095165 -0.09839898 0.0032654246 -0.014946709
000210 ea 61 e0 bc 29 4f 14 be 12 da 92 3d ac 03 2b be
       -0.027390439 -0.14483322 0.071705 -0.1670062
000220 6f ef 47 be 25 6f a3 bd 63 f4 96 bd 61 74 2c 3d
       -0.1952493 -0.079801835 -0.07370832 0.042103175
000230 0b c0 90 be 8c 6d 20 be bb c9 58 3c 5e 55 19 3e
       -0.28271517 -0.15666789 0.01323169 0.14973971
000240 55 56 18 3e ec e9 0f be 58 97 90 bc 31 4c 9e 3c
       0.14876683 -0.14054078 -0.017650291 0.01932344
000250 87 fc b2 3d e6 f5 fd bc 40 b3 e1 bc 3b 6b 60 3c
       0.08739572 -0.031001043 -0.027551293 0.013697441
000260 40 a9 5f 3d 29 e8 b5 3d b8 98 1d 3e 3f a9 33 be
       0.05460477 0.08882172 0.15390289 -0.17545031
000270 eb 93 9e bd 77 c2 00 be f8 60 37 bd ae be a1 bd
       -0.07743057 -0.12574182 -0.04477021 -0.078976974
000280 0f 5c 1a be 31 6b 2e be fb 17 f0 bc 58 13 11 bd
       -0.1507418 -0.17033078 -0.02930831 -0.03541884
000290 81 ab ce bd 20 eb 65 be a8 32 e4 bc fa c3 87 3d
       -0.100913055 -0.22452974 -0.027856186 0.066291764
0002a0 a2 25 6a 3e 01 cd 84 3e 75 87 94 be d5 87 b9 3d
       0.22865918 0.25937656 -0.29009596 0.09059111
0002b0 b6 16 6f 3e 77 01 a8 3d 9e e6 26 3e 93 3d 09 be
       0.23348507 0.082034044 0.16298911 -0.13402395
0002c0 db f8 de bd 81 5a ea 3d 70 e6 3e 3e ed a5 6e be
       -0.10887309 0.114430435 0.18642592 -0.23305483
0002d0 47 bd 49 be 8f 6a 77 bd 16 31 b6 bd c5 cd 83 bc
       -0.1970111 -0.060404357 -0.08896081 -0.01608933
0002e0 4f fd 65 bd 36 1c 98 3c f0 27 0d 3d ad a5 30 3c
       -0.056149777 0.01856814 0.034461915 0.010781688
0002f0 09 18 ab bd 66 ba 7f bc 9e e1 47 3d de 74 51 be
       -0.08354194 -0.015608406 0.04879915 -0.20454738
000300 63 c2 e1 bd 9e 70 29 3d 28 ae 08 be 51 a6 75 3e
       -0.110234044 0.041367166 -0.13347685 0.23989226
000310 9a bf fe bd 3d 43 78 be 64 75 5e be ed a8 e1 bb
       -0.12438889 -0.242444 -0.21724468 -0.0068865926
000320 1d 68 2d bd 0d 73 28 3d ac d0 9e bd 8f db a8 bc
       -0.04233562 0.041125346 -0.07754645 -0.020612506
000330 8c 10 8e 3d cc 3b fc bd 8d bc 58 be 21 56 05 3c
       0.0693675 -0.12316093 -0.21165676 0.0081382105
000340 c9 12 91 bb 25 1b 07 bd 3c f1 37 bc 09 e0 13 bd
       -0.004427288 -0.03298487 -0.011226948 -0.03610233
000350 df a3 da 3d 28 7f 37 bd 39 61 44 3d 29 5a c2 bd
       0.10675787 -0.044799 0.04794428 -0.09489853
000360 06 7b cd bc f7 df 1d be c7 30 5e bd cf 54 54 ba
       -0.025083076 -0.15417467 -0.054245736 -0.00080997957
000370 b9 ba 00 bc 99 cb 04 3e 19 3c 52 bd e1 a5 ae bd
       -0.007857018 0.12968291 -0.051326845 -0.08527733
000380 c8 ba 87 bd 1c 5c 3e 3d 57 a8 94 bc 98 cc cf 3c
       -0.066274226 0.04647456 -0.018146677 0.025366113
000390 4d 81 8a 3b 59 5c ae bc 9d 2f 2e 3d ee 94 25 bd
       0.0042268396 -0.02128427 0.042525876 -0.040425234
0003a0 f8 15 f7 3b 84 f7 21 3d cd 1a 10 be 2c a6 a2 3d
       0.0075404607 0.03954269 -0.14072724 0.07941851
0003b0 05 ad 95 3d 82 52 7e bc 12 c4 c1 bc 76 99 bb bd
       0.073083915 -0.015522601 -0.023653064 -0.0916013
0003c0 56 58 66 bd 73 b9 42 bd 6e c2 04 3d c5 c9 85 3e
       -0.056236587 -0.04754014 0.032411985 0.261305
0003d0 ff ee 81 3e 69 55 99 be 6e 01 b3 bd 8a d0 29 bc
       0.25377652 -0.29947975 -0.08740507 -0.010364661
0003e0 69 6f 6d 3e 66 c0 3c 3d 38 4e f1 bd 82 66 54 bd
       0.23187031 0.046081923 -0.11782497 -0.05185557
0003f0 cb 24 f8 3c f6 66 e2 bc 68 06 ed 3c 17 f1 e3 bd
       0.030290982 -0.027636986 0.028933719 -0.111299686

fc1.bias f4 [120]
000000 54 f1 2c bd 16 3a 46 bc 21 eb 06 3d e3 1f 52 bd
       -0.042222336 -0.01209881 0.03293908 -0.05129994
000010 2c af a5 bd 1e 80 56 3d 08 6e 0e 3d 27 43 42 bc
       -0.08090052 0.052368276 0.034772903 -0.011856831
000020 cf 3d e5 bd c4 ad 2e bd 63 10 d2 3c a5 8c 33 bd
       -0.1119343 -0.042646185 0.02564258 -0.0438353
000030 f4 bf 2c bd c0 da ae 3d 8f 56 18 bc d8 b2 88 bd
       -0.04217525 0.08537817 -0.009297981 -0.06674737
000040 40 83 b4 bd 94 f1 17 bd 26 f3 47 bd 1d c0 58 bc
       -0.088140965 -0.03709562 -0.04881587 -0.013229397
000050 91 0b 37 bb 2f 6d 16 3d 2e 75 8d 3d e7 c5 da 3c
       -0.0027930478 0.03672522 0.06907116 0.026705695
000060 e6 08 2c bd c6 1e 7d bd 26 29 dc 3d ce 73 b5 bd
       -0.042000674 -0.061796926 0.10750036 -0.088599786
000070 fc 02 d0 3b d5 da 90 3c 5e 0d ac bd e7 bc 7a bd
       0.006348012 0.017682472 -0.08400987 -0.061215308
000080 ae 42 03 ba 2a c3 95 bd 0f 7b d7 bd 73 4c 30 bd
       -0.00050071895 -0.07312615 -0.105215184 -0.043041658
000090 e9 a6 24 3d 0b 7f 8e bb 1f 7c f6 bb 5a bb b5 bd
       0.04019824 -0.004348641 -0.0075221206 -0.08873625
0000a0 28 bc 8d bd b1 a0 60 39 33 40 ce bd 5c 65 15 bb
       -0.069206536 0.00021422167 -0.10070839 -0.002279601
0000b0 0e 19 d5 bc 4f 61 a8 bd c5 3b d1 3c ff c8 d4 3c
       -0.026012924 -0.08221685 0.025541196 0.025974749
0000c0 8f 74 f6 3d 73 20 26 bc 96 14 ab bd 54 3f 4e bd
       0.120339505 -0.010139572 -0.08353536 -0.050353363
0000d0 5d 71 22 bd db 11 8b bd 89 bb 2a bc 27 27 db bd
       -0.039658893 -0.06790515 -0.010420688 -0.10700827
0000e0 70 bd 97 bd 72 9a 44 bd d5 13 b8 bd 8b a7 9a bc
       -0.07409179 -0.047998853 -0.08988158 -0.018878719
0000f0 9c 39 04 3d 35 26 98 bc f7 be 30 bc 2d 64 28 3d
       0.032281503 -0.018572906 -0.010787717 0.04111116
000100 91 ca a3 bd 48 45 10 bd d8 cd a0 bd be 25 82 bb
       -0.07997621 -0.03522232 -0.078517616 -0.0039717844
000110 08 fb 4d bd 71 47 73 bd 06 cf ba bd 0d 82 af bd
       -0.05028823 -0.059394304 -0.09121518 -0.08569727
000120 c2 0e 58 3b f7 ea 1d 3c 55 60 5f 3d 2e e3 80 bd
       0.003296778 0.0096385395 0.05453523 -0.06293331
000130 79 7b cb bd 5e dd 7b bc 0f e7 06 3d f4 af a1 bd
       -0.0993566 -0.015372602 0.0329352 -0.078948885
000140 f1 41 6c bd 6c f6 75 bd fb 17 e1 bc f1 ee e5 bc
       -0.057680074 -0.06004946 -0.027477255 -0.028068038
000150 26 63 08 3e 7a e2 ab 3c f8 96 52 bd ee b8 61 3a
       0.13319072 0.020982016 -0.051413506 0.00086106255
000160 61 2f c8 3d fa 40 8b bd 8a 22 e5 bc 69 3a be bc
       0.09774662 -0.06799503 -0.027970571 -0.023221212
000170 f7 59 b8 3d 7b 40 8e bc 22 16 19 3d 25 9a b1 b9
       0.090015344 -0.017364731 0.037374623 -0.00033874917
000180 a9 02 81 bd 8c c2 52 bb 68 ea a9 bc fa be 31 bd
       -0.062993355 -0.0032159416 -0.020741656 -0.04339502
000190 91 48 7a 3d 97 f5 0b bd 2c 3f d0 bd 2a 4d 79 bc
       0.06110436 -0.03416976 -0.10168299 -0.015216151
0001a0 58 2d 15 bd 6c 72 a2 bd c4 e6 bb 39 1d 1c d2 bd
       -0.036420196 -0.079319805 0.00035839353 -0.102592684
0001b0 8b 63 ca 3c 38 00 d8 bd 38 a1 51 bd 03 bd e5 bc
       0.024705669 -0.10546917 -0.05117914 -0.02804423
0001c0 f3 b4 de 3c 9d ec 5f bd 39 ac 9f 3d 19 d0 48 3d
       0.027185893 -0.05466901 0.07796521 0.049026582
0001d0 d2 64 81 3c 19 a0 96 3d 67 58 73 3d 8d 27 ff 3c
       0.015795145 0.07354755 0.05941048 0.031146789

fc2.weight f4 [84, 120]
000000 f6 61 74 bd ac d1 e4 3b ca ab 82 3d 4c c1 5f 3d
       -0.059663735 0.0069830026 0.063804224 0.0546277
000010 6f c4 51 3d 62 5a f2 3d 2b ce 0e 3d 2f 83 2e 3d
       0.051212724 0.118336454 0.034864586 0.042605575
000020 6a a6 32 be 26 b3 10 bd a5 82 9f bd 1c 90 79 bd
       -0.17446294 -0.0353271 -0.0778859 -0.06092845
000030 6f 4f 03 3e dc 43 98 3d 0b cf 3b bc 62 a5 07 ba
       0.1282327 0.07434818 -0.011462937 -0.0005174485
000040 16 05 66 bd e2 e2 5a 39 86 32 a1 bd 77 2d 26 bb
       -0.056157194 0.0002087462 -0.07870965 -0.002535669
000050 fe cb 54 3d 69 96 3f 3d a4 d4 04 3d 12 e8 4b 3d
       0.051952355 0.0467743 0.032429352 0.049781866
000060 9c e3 1d bd 6a d4 e2 bc 73 a2 1e 3d f5 8e 77 3d
       -0.038547143 -0.027689178 0.038729142 0.06043907
000070 fc 73 df 3c 3c 45 4c 3d 55 85 18 3e 80 9f 9d 3d
       0.027276985 0.049870715 0.14894612 0.07696438
000080 4d b1 8a 3c d6 8d 3b 3c 19 3b 76 3d 7f be 0b 3e
       0.016930247 0.011447391 0.060114954 0.13646887
000090 a8 f7 8e bd cb a8 92 3d 31 b1 d8 bc 63 62 10 3d
       -0.069808304 0.07161101 -0.026451679 0.03525008
0000a0 28 8c c7 3d 26 e5 1b 3e a4 cf cc bd 32 7a e4 bc
       0.097435296 0.15224132 -0.10000542 -0.027890299
0000b0 e1 64 b8 bd 9c 8c b7 bd e8 0f d3 bc 32 96 09 3d
       -0.09003616 -0.08962366 -0.02576442 0.033590503
0000c0 0d e0 0b 3d 6e 5a 74 3d c9 eb 58 bd d5 97 04 bd
       0.03414922 0.059656553 -0.052959237 -0.03237136
0000d0 4f d9 81 3d 7b ff 26 bd fc 8f 69 bd 09 e5 e6 3d
       0.063402764 -0.04077099 -0.05702208 0.11274154
0000e0 65 e2 23 bd 2e b1 9f bc 5b e3 0b be f8 ee 63 3d
       -0.04001083 -0.019493666 -0.13660948 0.05564782
0000f0 3a b4 63 bd 70 bd b5 bd 8e e2 80 bd ef a0 9a ba
       -0.0555918 -0.08874023 -0.06293212 -0.001179723
000100 2d b5 fc 3d 84 e1 dc bd 2e f1 81 bd 08 50 84 bd
       0.12339244 -0.10785201 -0.063448295 -0.06460577
000110 73 1e 91 3c 48 6a 94 3c 35 83 0b 3e df 44 7f 3d
       0.017714715 0.018117085 0.1362427 0.06232154
000120 3d f1 9a be 31 50 9a bd c6 fa 0b 3e 5e 99 63 be
       -0.30262175 -0.075348265 0.13669881 -0.22226474
000130 c6 e6 92 bd df b3 d1 bc c1 f7 01 3e 81 2b 41 3d
       -0.07172923 -0.025598465 0.12692167 0.04716063
000140 72 82 bc bd ad b3 9f bd 35 d7 cd 3d 03 bd 1e 3c
       -0.09204568 -0.07797942 0.10050813 0.009688619
000150 0f 1c 07 bd 3c 78 b7 3d 2c ff 04 3d de e7 03 be
       -0.032985743 0.0895848 0.032469913 -0.12881419
000160 cb e1 5d bd 53 cd 8e bd 69 87 ad bd 59 b2 a6 3c
       -0.05417041 -0.06972756 -0.08473093 0.020348715
000170 2f b2 6a 3d dc a5 e8 bc 26 44 ec 3c df 8a 3e 3c
       0.057298835 -0.0283994 0.02884109 0.011629789
000180 ea db 79 bd 4a 20 d8 3d 58 ba 23 bd c7 af 19 bc
       -0.061000742 0.10553034 -0.039972633 -0.0093802875
000190 31 4e 05 be 9f d8 75 3c 64 43 14 bc f8 63 3d bd
       -0.13018109 0.01500526 -0.00904927 -0.046237916
0001a0 68 9a 81 3d 90 58 db bb f2 b6 9b ba 05 f8 83 3d
       0.06328279 -0.006693907 -0.0011880083 0.0644379
0001b0 c7 0d 83 3c 29 96 a5 3d 06 a1 0e 3d df 09 3e 3d
       0.01599778 0.080852814 0.034821533 0.046396133
0001c0 37 71 08 bd 5a 8f 13 bd cb 09 f6 b9 30 c4 00 3e
       -0.033311095 -0.036025383 -0.00046928073 0.1257484
0001d0 13 96 10 bc d0 28 7c 3d c3 b7 d0 3d 02 18 c4 bd
       -0.008824843 0.06156236 0.101913 -0.095748916
0001e0 e7 84 19 be 06 a7 dd 3d 63 75 f1 3b 94 5c a1 3d
       -0.14992104 0.10822873 0.00736873 0.07878986
0001f0 e7 23 b5 bd db fa 09 3e e9 d0 4d 3b 0c 7e 0d 3e
       -0.088447385 0.134746 0.0031405038 0.13817614
000200 7c 13 10 be 36 d5 d2 3d 2d 5f 0c be ec 30 bb bd
       -0.14069933 0.10294573 -0.13708182 -0.091401905
000210 cc 87 0f be 26 eb 6c 3d 72 fc 02 3d 55 0e 8c 3c
       -0.14016646 0.057841443 0.03197903 0.017096678
000220 17 ef a6 3b 31 1d a7 3d 6a 4c 0e be f3 58 48 3c
       0.0050944197 0.08159865 -0.13896337 0.012228238
000230 48 3c 74 bd f6 9b 51 bd c1 7d 5d 3d 13 74 56 3d
       -0.0596278 -0.051174127 0.054075006 0.05235679
000240 cf dc ed 3d 3f a7 63 3d 41 5d 09 be a3 3d a1 bd
       0.116143815 0.05557942 -0.1341448 -0.078730844
000250 10 6a 84 bd ba c5 ae 3c 29 90 25 3d ee 3d b5 bb
       -0.06465542 0.021334518 0.040420685 -0.0055310642
000260 25 1a 8b bd 4d 4d 28 bd 01 cf f4 bd c3 41 4f 3e
       -0.06792096 -0.041089345 -0.11953545 0.2023993
000270 c3 e5 80 be 66 f5 fa 3b d5 da ab bc be ab 35 3d
       -0.25175294 0.0076586483 -0.02097837 0.04435324
000280 0c 18 a7 3d 43 3a a1 3d 28 47 6e bd 9b 7a 96 3d
       0.081588835 0.07872441 -0.05817333 0.07347604
000290 c9 34 24 3d f1 4e 9e bc 6a 95 3d bd 7d 73 ae 3b
       0.040089402 -0.019324752 -0.04628507 0.005323826
0002a0 75 80 1b bd 6a 9e 34 bb 37 44 9c bc cb a8 31 be
       -0.037964303 -0.0027560242 -0.019075496 -0.17349546
0002b0 fe 08 0f 3c 6f 58 02 bd 58 37 2c be 5a 27 bd 3d
       0.008730171 -0.031822618 -0.16817987 0.09236021
0002c0 47 f4 09 bd 2f 87 1a 3d 1f dd cc bd 30 e5 26 3e
       -0.033680227 0.037726577 -0.10003113 0.16298366
0002d0 b3 f3 7a bd 1d 1b 7f bd a2 be b2 ba 49 36 76 bd
       -0.061267566 -0.062281717 -0.0013637135 -0.060110364
0002e0 01 10 96 3d ab 83 d8 bd 45 1b ad 3d e6 fe f8 3d
       0.07327271 -0.10571989 0.08452467 0.12157993
0002f0 be 77 d0 3d 32 1c b6 bc f2 2a ee 3b 69 9d e0 bd
       0.10179089 -0.022230241 0.007268303 -0.109675236
000300 06 dd 04 be 62 bf 07 3c f4 13 c0 3d 14 4b ff 3c
       -0.12974939 0.008285375 0.09378806 0.03116373
000310 0d 93 ec 3d 04 c2 3a 3d 0a 9a da 3d 1d 3c 13 bc
       0.11551485 0.045595184 0.10673912 -0.0089865
000320 b2 d6 0e be 63 b4 83 3d ac 46 a7 3c e5 d2 d0 3c
       -0.13949087 0.064308904 0.020419441 0.025491187
000330 ca 6a e5 bb f7 47 b6 3d d0 af e6 3d 50 eb 02 be
       -0.0070012556 0.08900445 0.11264002 -0.12785077
000340 dd 0e e0 bd 60 1c 18 be 37 48 bd bd 4f 91 10 bd
       -0.10940335 -0.14854574 -0.092422895 -0.035294827
000350 9d 0d 06 be 35 ea b6 bd 0f bc e3 3d 12 35 05 bd
       -0.1309113 -0.0893139 0.11119854 -0.032521315
000360 e7 ed ef 3c c2 6c 39 3d 02 16 6f bd 81 2a e9 bd
       0.029288245 0.045269735 -0.058370598 -0.1138506
000370 f5 9f 49 be 68 65 3e bd 2f 2a 1e bd ca c8 d3 bd
       -0.19689925 -0.046483427 -0.03861445 -0.10341032
000380 64 86 2d bd e1 55 8d bc 34 25 82 3d 33 4d 31 3e
       -0.042364493 -0.017252864 0.06354752 0.17314605
000390 28 f1 8f 3c 29 78 c6 bd 08 ae e7 3d 82 89 33 bd
       0.017571047 -0.096908875 0.11312491 -0.04383231
0003a0 42 43 8a bd 4b 17 77 3d 3d a0 32 be 3f 06 80 3d
       -0.0675111 0.06032495 -0.17443939 0.06251191
0003b0 6c 09 6c 3d d8 8b cc bc 6f 45 48 be 9f 7b 4f 3d
       0.057626173 -0.024969026 -0.19557737 0.050655004
0003c0 c8 63 ae 3d 79 ce 3a 3d 00 a2 fb bd 18 33 41 3e
       0.085151255 0.045607064 -0.122867584 0.18867147
0003d0 53 c3 40 bb 36 ab 81 3d 53 32 27 bd 65 ce 42 bd
       -0.0029413297 0.06331484 -0.040819477 -0.047560114
0003e0 1f 9e 2d be ca 33 5f bd d4 c5 23 3e 68 ae 8e 3b
       -0.1695485 -0.05449275 0.15993434 0.004354287
0003f0 1b 2a 84 3d aa 8d ad bd 09 a1 40 3d c5 e6 10 3e
       0.064533435 -0.08474286 0.047028575 0.14150532

fc2.bias f4 [84]
000000 84 54 83 3d 67 34 e4 bd 06 e2 21 be c4 45 cb bc
       0.064126045 -0.111428075 -0.15808877 -0.02481354
000010 3b 30 9a bd 59 69 fe bb cb fe 54 bd c2 a1 b5 3d
       -0.075287305 -0.0077640233 -0.052000802 0.088687435
000020 10 be 05 3d a2 9f 85 bd e5 16 13 3c 15 5a 7f bc
       0.03265196 -0.06524588 0.008977626 -0.015585442
000030 83 1e f3 3c 68 1a 02 3d f3 2d b3 bd 84 4d b5 bd
       0.029677635 0.031763464 -0.087489985 -0.088526756
000040 6f 26 ba bd db 8f 51 bd 0b df f2 bd 9e 2a 22 bd
       -0.09089362 -0.051162582 -0.11858948 -0.039591424
000050 49 d0 78 bd 79 b7 19 be 44 12 c0 bc 3d 76 a9 3c
       -0.06074551 -0.15011396 -0.02344621 0.020686263
000060 22 0f 84 3b f7 df 68 bd 8a 13 7b bb 01 de 09 3e
       0.0040301243 -0.056854215 -0.0038311207 0.13463594
000070 eb 48 f1 bd c6 5a ba 3b 05 f8 03 3e 15 0e aa bc
       -0.11781486 0.0056870906 0.1288758 -0.020758668
000080 65 03 af 3c 58 ef 75 bc c3 70 5a bd f1 5a b2 bd
       0.021363923 -0.015010677 -0.053330194 -0.08708752
000090 05 87 44 3d 74 35 d4 bd b5 aa 7d 3c 67 54 89 3d
       0.047980327 -0.10361758 0.015482594 0.067055516
0000a0 bc a0 24 be e0 73 0e 3d 5b 38 9f bd e2 98 07 3e
       -0.1607694 0.034778476 -0.07774421 0.13241914
0000b0 83 08 fc 3d 21 64 f6 3d 00 2f f8 bc 58 dd 3e bd
       0.12306311 0.12030817 -0.030295849 -0.04659781
0000c0 12 a4 01 3d 81 6d ea 3c c4 0b a6 bb 49 5c 48 3e
       0.03165061 0.028616669 -0.0050673205 0.19566454
0000d0 87 ac af 3d 7f ec 18 be 61 a7 0c bd 00 74 56 3d
       0.08577829 -0.14933966 -0.034339312 0.05235672
0000e0 a9 4f 16 be 4c 61 a0 bc 85 e3 c1 3d db a5 5a bc
       -0.14678825 -0.019577645 0.09467224 -0.013345207
0000f0 71 d2 d8 bc de e1 f8 bb 31 b7 43 3d 4d 2c 8d bc
       -0.026467534 -0.007595285 0.047782127 -0.017233038
000100 20 1c c9 bd 2b a3 6e 3d 18 d9 e4 bd 26 4f bc bd
       -0.098198175 0.058261078 -0.1117422 -0.09194784
000110 82 d9 27 bd 88 20 8e bd aa 9c 9c bd eb bd 01 3d
       -0.040978916 -0.069397986 -0.07647069 0.03167526
000120 e4 81 fb bd 01 34 53 bd dc 6a 3a bd 7e db 11 be
       -0.12280634 -0.051563267 -0.045512065 -0.14243886
000130 4d 78 ba 3d 8e 28 61 bd e4 f3 c9 bd 0c e1 14 3e
       0.09104977 -0.054970317 -0.098609716 0.14538974
000140 94 42 89 3c 54 27 c1 bd 2f b7 86 3e c2 34 a8 bc
       0.01675538 -0.09431329 0.26311633 -0.02053297

fc3.weight f4 [10, 84]
000000 4b f4 6b be b0 03 a0 bd a8 2e d5 3d 23 af ce 3d
       -0.23042409 -0.07813203 0.104092896 0.100919984
000010 2a 46 a3 bc 71 86 d3 bd b0 d3 eb bc 7a d7 48 be
       -0.019930918 -0.10328377 -0.028787464 -0.19613448
000020 43 d0 f5 bd 83 53 0c be 91 3d 12 be 9a 62 07 3e
       -0.120026134 -0.13703732 -0.14281298 0.13221207
000030 1b 6a 85 3d a3 43 cb ba fd 4f c2 bd 78 30 1f be
       0.06514379 -0.0015507828 -0.09487913 -0.15545833
000040 cc df 22 be a3 0b a3 bd 9b 25 55 3c 0c be 3d be
       -0.15905684 -0.07961204 0.013009454 -0.18529528
000050 08 dd 8a 3d 8a ef 67 bd e4 aa 8d bd 7a f7 1a be
       0.067804396 -0.056624927 -0.069173604 -0.15133467
000060 f2 02 5d bd 81 b1 65 3d 49 b7 89 bc e5 3a e4 bd
       -0.053957887 0.056077484 -0.01681103 -0.11144046
000070 94 bf cf bc ab 2f 9d bc dc 6a 7c 3d 7c 44 89 3d
       -0.025359906 -0.019187769 0.061625347 0.067025155
000080 4d d1 08 bd 25 52 94 3c 8c 33 c5 bd df 64 20 bd
       -0.03340273 0.018105576 -0.096289724 -0.0391587
000090 da 75 06 3e a4 e9 f6 bd e8 81 2b 3c 1a ba 8b 3d
       0.13130894 -0.12056282 0.010467984 0.068226054
0000a0 45 76 9b bc 81 85 e9 3d 50 b1 0e bc 84 5d cf bd
       -0.018977294 0.11402417 -0.008709267 -0.101252586
0000b0 fe 53 c0 bc a7 99 99 bd 58 73 b4 be 0d c5 01 3d
       -0.02347755 -0.0750001 -0.3524425 0.031682063
0000c0 c5 fe a6 bd ab 74 59 bb 01 87 20 3e dc d2 11 be
       -0.08154062 -0.0033181112 0.156765 -0.14240593
0000d0 6b 2c e0 bc 02 a9 cc 3d 92 4c 7b 3d 6e 21 e2 3c
       -0.02736493 0.09993173 0.06135232 0.027603831
0000e0 26 0c 9f bd e5 eb 8a 3d 0a f5 3a 3b 19 7c 15 bd
       -0.07765989 0.067832746 0.0028527402 -0.036495302
0000f0 6b c3 c8 3b cf b4 21 bd e7 49 76 bd 79 e6 1c be
       0.0061268113 -0.039479073 -0.060129073 -0.15322293
000100 b6 2c 1b 3d 82 23 13 be 54 58 e8 3d 73 b0 17 be
       0.037884437 -0.14369014 0.11344972 -0.14813404
000110 41 67 91 be 11 1a 0b be 66 73 34 be bc b4 03 3d
       -0.2839909 -0.13584162 -0.17622146 0.032154784
000120 b2 80 43 bc 5b 53 27 be 49 83 4f bb 6f fb e8 3a
       -0.011932539 -0.16340391 -0.0031663945 0.0017775128
000130 82 17 bc bd 79 dc 70 3d 13 dd 61 3d fa d9 fc bd
       -0.09184171 0.05880401 0.055142473 -0.12346263
000140 94 b1 3e bd c6 f2 5c be 10 ac 9e bb ef 55 44 bd
       -0.04655607 -0.21576986 -0.004842289 -0.047933515
000150 5d e5 cd 3d 72 2d cd bb 87 db a0 3c b5 b0 9d bd
       0.10053513 -0.006261521 0.019635929 -0.0769972
000160 81 85 5a bd 06 3f 03 3c 4f 7b 8d 3d 0f 8c 3b 3d
       -0.053349975 0.008010631 0.06908285 0.045787867
000170 16 4f 9b 3c 0d 0e 95 3c 02 d0 7b 3d e4 fa ca 3b
       0.01895861 0.018195176 0.06147767 0.0061944593
000180 26 12 bb 3d 58 70 ea 3c c7 4c d9 bd 3e 3c 35 3e
       0.09134321 0.028618023 -0.10610347 0.17698762
000190 3e 0d 87 3d 03 d1 fb bd 57 4c f6 bc cd be 2a 3d
       0.065943226 -0.12295725 -0.030065699 0.041685868
0001a0 a5 c9 64 be d2 e3 af bc 17 45 c0 3c 3a 50 19 be
       -0.22342546 -0.021470938 0.023470445 -0.1497201
0001b0 c7 2c 34 3d b0 82 5d be d6 2a 9b 3c 9e e4 e7 bd
       0.043988016 -0.21631885 0.018941324 -0.11322902
0001c0 d8 a8 3e 3b d8 ab 9a bd f4 db 65 bb e0 5b d1 bd
       0.0029092338 -0.07552308 -0.003507373 -0.10222602
0001d0 cd 86 9a 3c c7 94 62 bd 00 e5 b6 bd cb 9e 92 bd
       0.018863106 -0.055317666 -0.08930397 -0.071591936
0001e0 fe 06 d2 bd 0d bb e8 bc 25 6b 1c 3d 88 9d 9f 3d
       -0.1025524 -0.028409505 0.03818812 0.077937186
0001f0 15 63 e1 3d 60 35 4e be 9b 7b 5c bc a3 b8 23 be
       0.110052265 -0.20137548 -0.013457204 -0.15988402
000200 5f 23 69 be bf 41 11 be 0a 56 2f be 06 53 ca bd
       -0.22767399 -0.14185236 -0.17122665 -0.09879117
000210 fd 48 e3 3d 36 dd e7 bd 0a d8 a6 3c 70 c8 13 be
       0.11097906 -0.113214895 0.020366687 -0.1443193
000220 16 c6 cf bd 3e b2 29 be e2 15 2b bc bd f2 d1 bc
       -0.10145204 -0.165719 -0.010442229 -0.025628442
000230 a2 92 04 be 88 40 e4 3d 31 55 95 bd b3 29 8f 3d
       -0.12946561 0.11145121 -0.072916396 0.06990375
000240 9c a3 35 be 3e 30 e5 bd 8b 53 12 be 10 2f a0 3c
       -0.17738193 -0.11190842 -0.14289682 0.019553691
000250 92 00 ec bd 6c 7b 94 3d d0 0e 1f be ac e7 a5 bd
       -0.11523546 0.07250103 -0.15532994 -0.081008285
000260 4e e4 cb 3c b5 1d c8 bd 90 80 a8 be 13 34 10 3d
       0.024889138 -0.09771291 -0.32910585 0.03520591
000270 90 dc 98 bd 9d ce 1a be ac 92 2c bd b5 9f d3 bc
       -0.07463944 -0.15117879 -0.042132065 -0.02583299
000280 3f f2 1d be ba 78 60 bd a0 88 0b be 50 5d 14 3e
       -0.15424441 -0.054802634 -0.13626337 0.14488721
000290 98 c7 9d bb c4 af 0f bd 51 25 43 3e 91 95 f7 bd
       -0.004815053 -0.035079733 0.19057204 -0.120890744
0002a0 cf 62 0a 3d d5 13 e3 3c 52 68 34 bd a6 48 06 3d
       0.033785637 0.027719418 -0.0440448 0.032784127
0002b0 c2 7b 11 bd 26 71 e0 bd 08 c7 c2 bd d4 d7 a5 3d
       -0.035518415 -0.10959081 -0.095106184 0.080978066
0002c0 47 e0 40 be 2c 52 87 3d e1 92 e6 3d 0e 24 e9 3d
       -0.18835555 0.0660747 0.11258484 0.1138383
0002d0 47 b6 9e bd 9a cd 21 3d 61 67 80 bd 5b e6 8d bb
       -0.077496104 0.039502718 -0.06269718 -0.004330439
0002e0 ed a6 89 3b 14 b6 6e bd bd 8a 01 bd c1 e3 05 3e
       0.0042008073 -0.058279112 -0.03162645 0.13075162
0002f0 43 af 09 be cb 43 51 3d 88 b1 96 bc fb bf 3b 3d
       -0.13445763 0.051090043 -0.0183952 0.045837384
000300 da ef 2c 3d c9 19 59 bd 5f c3 c4 bd bc 2c 96 3d
       0.042220928 -0.053003106 -0.096075766 0.07332751
000310 cb 92 04 bd a0 e7 44 bd c2 a2 c9 3d 90 0e 4e 3d
       -0.032366555 -0.048072457 0.09845497 0.050306857
000320 80 05 1d be 4e e1 f8 bd 1d 94 a4 bd 4a ce 33 be
       -0.1533413 -0.121523485 -0.08036063 -0.17559162
000330 46 72 10 be 59 8f ef 3c fa fc 67 bd d5 ba 98 bd
       -0.14106092 0.029243158 -0.05663774 -0.074575104
000340 2c bc d6 3d bd 13 99 bd 93 90 15 be 35 c8 42 bb
       0.1048511 -0.07474468 -0.14605932 -0.0029721383
000350 07 81 05 bc 40 df 59 bd 31 70 8e bd 05 52 9c 3d
       -0.008148438 -0.053191423 -0.069549926 0.076328315
000360 7c 1f db bd 75 61 db bd 22 fb db 3c 25 98 12 be
       -0.106993645 -0.10711948 0.026853148 -0.14315851
000370 70 0a 74 bd 98 f2 3b bd 3f 49 06 3d b1 b8 b3 bd
       -0.059580266 -0.045885652 0.032784697 -0.087754615
000380 2b 02 95 bd 19 3e 9b 3d 77 58 a5 3d 3f 74 31 3d
       -0.07275804 0.075802036 0.08073514 0.04332375
000390 9e 9f b7 bd 63 9c f3 bd cf 9d ce 3d b4 fd 93 bd
       -0.089659914 -0.11895063 0.10088693 -0.072261244
0003a0 24 14 63 bd 4d 3d e1 bd 57 b1 15 3e c2 fb 73 bd
       -0.05543913 -0.1099802 0.14618431 -0.059566267
0003b0 05 16 ac bd d9 6c 15 3d 39 ba 5d be 8d fc 36 3d
       -0.084026374 0.03648076 -0.2165307 0.044674445
0003c0 66 98 2c bd 27 8c 2a be 9b fd f4 bd 90 73 47 3d
       -0.042137526 -0.16655026 -0.11962434 0.048694193
0003d0 b1 a9 f2 bc 20 5d 31 be 19 c6 ae 3d a3 c5 b1 3c
       -0.02962193 -0.1732068 0.08533878 0.021700686
0003e0 84 a4 df bd 85 17 83 3d d5 2d 42 be e7 18 b7 bd
       -0.10920051 0.0640097 -0.18962796 -0.089402966
0003f0 73 b1 b2 bd a9 91 17 be 8f 5f 94 bd 73 e9 65 bd
       -0.08725252 -0.14801659 -0.07244789 -0.056130838

fc3.bias f4 [10]
000000 1f 13 3e 3d 12 25 e1 3d 75 bd 86 3d 86 46 82 3d
       0.046404954 0.10993399 0.06579105 0.063611075
000010 15 9f bb 3d 50 d9 df bd 9b ba e1 bd 24 55 c3 bc
       0.09161202 -0.10930121 -0.1102192 -0.02384431
000020 92 ba 6b 3e de 14 6d 3c
       0.2302039 0.014470307

exp_avg f4 [6, 1, 5, 5]
000000 7a 54 0d bb 4f 07 19 3b 26 d5 b4 3b 2a 13 7a 3a
       -0.0021565245 0.0023350304 0.0055185733 0.0009539599
000010 80 43 4e 39 bf 86 c7 ba 72 32 61 3b 62 ab 24 3b
       0.00019670837 -0.0015222653 0.0034362343 0.0025126566
000020 56 36 90 bb 69 cc 5e bb 6d 28 c3 bb 5b e1 d6 ba
       -0.0044010086 -0.003399635 -0.005955747 -0.0016394065
000030 85 e9 50 bb da 85 ad bb 83 c0 bd bb 18 04 34 bc
       -0.003187747 -0.0052954974 -0.0057907715 -0.010987304
000040 5b 25 ea bb 6b 56 90 bb a2 13 71 bb 70 9b bd bb
       -0.0071455664 -0.004404833 -0.0036785384 -0.005786352
000050 2b 6c 81 bc fa 17 74 bc 0c 25 53 bc f5 89 71 bc
       -0.015798649 -0.014898295 -0.012887251 -0.014742364
000060 c3 32 4a bc ab da 58 3c 2c f8 63 bb 31 b6 45 bb
       -0.012341204 0.013235728 -0.0034785373 -0.003016841
000070 a2 db e0 3a 68 12 51 3b 4c b9 40 3c 1c 85 a1 3b
       0.00171553 0.003190184 0.011762928 0.004929198
000080 fc b6 98 3b ca d7 e6 3b 05 96 37 3c 13 6a 0d 3c
       0.0046604853 0.007044767 0.011205201 0.008631247
000090 31 d7 85 3c 9c c5 bb 3c 5e 5e c9 3c bb 31 e5 3c
       0.016337963 0.022921376 0.02458113 0.027977815
0000a0 8a 59 33 3c 9e d2 c5 3c 5e e4 17 3d 28 00 2d 3d
       0.010946641 0.024148282 0.037083022 0.042236477
0000b0 1e 61 35 3d 55 a4 3b 3c 8d 23 d1 3c 4e 87 28 3d
       0.04428207 0.011452754 0.025529647 0.04114466
0000c0 86 22 47 3d 02 1c 45 3d 3f 43 04 bc 48 b3 eb b9
       0.04861691 0.048122413 -0.008072673 -0.00044956268
0000d0 0d ab 9a 3b 60 d4 24 3b de 78 f2 bb 17 d9 38 bc
       0.004720098 0.0025151 -0.0073996624 -0.011282227
0000e0 05 2c 1e bc 6a 14 e8 bb b5 ea d3 bb b5 1c 2f bc
       -0.00965405 -0.0070825117 -0.0064671882 -0.010687997
0000f0 b1 cd 8e bc 48 ab 9b bc ba 5a a8 bc 38 7a 9e bc
       -0.017432066 -0.019002572 -0.020551074 -0.019345388
000100 b3 a6 76 bc ba bf bc bc 57 42 c1 bc a8 fd c6 bc
       -0.015054393 -0.023040641 -0.023591204 -0.024290875
000110 7f d7 99 bc c0 93 2e bc 82 77 c3 bc 08 37 c1 bc
       -0.018779514 -0.0106553435 -0.023860697 -0.023585811
000120 bb cb a9 bc 3d ff 81 bc a0 67 1a bc 98 d6 62 ba
       -0.02072703 -0.015868777 -0.00942412 -0.0008653193
000130 e3 bf aa 39 fc 57 24 3b ae 29 42 3b 72 1f 8f 3b
       0.00032567894 0.0025076857 0.0029626894 0.0043677622
000140 34 54 3b 3b aa 3f e8 39 09 c1 94 bb 87 f7 18 bc
       0.0028584125 0.00044297922 -0.004539613 -0.009336359
000150 5f b2 49 bb fb 1e 30 3c 7d 20 b1 3a c1 22 0e bc
       -0.0030776483 0.010749574 0.0013513711 -0.008675278
000160 6f b5 e4 bb 1f ef 9f 39 0f 26 f3 3b 74 b8 a3 bb
       -0.0069796364 0.00030505002 0.0074203084 -0.0049963538
000170 82 0a 53 bc bb 66 b5 bb 34 6b ac 3b 4d e0 81 bb
       -0.012880923 -0.005535928 0.005261803 -0.0039635063
000180 f1 c6 72 bc c0 34 9d bc 48 66 fc bb 7c a0 63 3b
       -0.014817939 -0.019190192 -0.0077026226 0.0034733107
000190 b9 87 09 3c 57 80 09 3c 62 9d 3c 3c 34 c5 1e 3c
       0.008394175 0.008392415 0.011512132 0.009690572
0001a0 65 9a 87 3b 36 48 be 3a c4 f8 43 3b e9 1f 50 3b
       0.0041382783 0.001451737 0.0029902915 0.0031757301
0001b0 86 5e f5 39 69 9d fd ba c3 7e 33 bb e1 94 17 bb
       0.00046800467 -0.001934928 -0.0027388788 -0.002312951
0001c0 60 da 58 ba 4b 01 15 39 12 32 90 bb 5d 92 d1 bb
       -0.00082722865 0.00014210229 -0.0044005 -0.0063956217
0001d0 04 3b 73 bb 91 79 04 b9 87 23 f1 ba 33 d8 1e bc
       -0.0037114033 -0.00012633788 -0.0018397429 -0.009695101
0001e0 ea 6c 7e bb b8 3b 2a bb 4a 74 ff bb c1 5c 67 bc
       -0.0038822242 -0.0025975537 -0.007795845 -0.014121235
0001f0 62 d9 b2 bc c8 ea e4 bc 45 bb e9 bc 48 8a de bc
       -0.021832172 -0.027943984 -0.02853168 -0.027165547
000200 4b 14 81 bc f1 dc d9 ba ca 59 0b bd ef 26 0f bd
       -0.015756747 -0.0016621632 -0.034021176 -0.03494924
000210 f1 17 e3 bc 1d c8 3c bc df 2a bf 3a 1b f2 13 bd
       -0.027721377 -0.01152232 0.001458492 -0.03611956
000220 90 3c fc bc 83 ee 7e bc c9 d0 44 bb 8e f1 c6 3b
       -0.030790597 -0.015559795 -0.0030031672 0.006071276
000230 a1 aa ef bc 8d 3a 87 bc 0e e5 04 bb 2d 3a 8f 3b
       -0.029256167 -0.016507411 -0.0020278129 0.0043709488
000240 29 63 14 3c 52 87 71 bc 17 75 5f bb 10 af c2 3a
       0.009056845 -0.0147417355 -0.003409689 0.0014853198
000250 00 c7 35 3b fc 0a 1b 3b
       0.0027737021 0.002365767

exp_avg_sq f4 [6, 1, 5, 5]
000000 8f 29 bc 39 a1 12 0c 3a b6 7a 85 3a 09 f0 dd 3a
       0.00035889118 0.0005343352 0.0010183665 0.0016932498
000010 cb f8 7d 3b 41 fd 8c 3a 58 22 a4 3a b0 72 95 3a
       0.0038753028 0.0010756628 0.0012522442 0.0011401977
000020 d5 39 56 3a d2 38 14 3b ef eb 4b 3b fe 5d 19 3b
       0.000817207 0.0022616875 0.003111597 0.002340197
000030 5c 97 78 3a 5b a8 f5 39 70 9a db 3a 09 32 93 3b
       0.00094830035 0.00046855476 0.00167544 0.0044920486
000040 cc fd 51 3b 1a 27 90 3a 69 a8 0e 3a 25 7f d8 3a
       0.0032042144 0.0010997981 0.0005441965 0.0016517384
000050 09 96 80 3b ab 03 8f 3b bf 58 4c 3b 0b f4 0f 3b
       0.0039241356 0.004364451 0.0031180826 0.002196553
000060 05 d7 17 3b 7a fe 52 3b aa d7 0b 3b 27 34 fe 3a
       0.0023168933 0.0032195137 0.0021338263 0.0019394205
000070 2c 18 18 3b b7 91 89 3b 2e ff 70 3b ff ae 14 3b
       0.0023207767 0.0041982788 0.0036773193 0.0022687314
000080 9d ae 02 3b 15 45 37 3b 34 b8 9b 3b df 1a 9f 3b
       0.0019940503 0.002796476 0.0047521833 0.004855498
000090 d4 e6 6e 3b 33 9a 64 3b 7d c2 85 3b 4e 41 b8 3b
       0.0036453502 0.003488195 0.0040820227 0.0056230193
0000a0 e3 02 de 3b 81 bb bd 3b 3f f1 b5 3b 64 d0 c1 3b
       0.0067752465 0.0057901745 0.0055524404 0.0059147347
0000b0 08 d0 f4 3b e8 92 0c 3c 1d 92 01 3c f6 f9 f3 3b
       0.0074710883 0.008579947 0.007908371 0.007445569
0000c0 ff a3 00 3c 4c d6 1e 3c d0 5a 38 3b 92 26 8b 3b
       0.0078516 0.009694647 0.00281303 0.0042465413
0000d0 98 bb af 3b 1e 26 aa 3b ad ef 89 3b d7 0d 74 3b
       0.005362939 0.005192532 0.00420948 0.0037239695
0000e0 08 2e ba 3b 64 db dd 3b fa e6 b2 3b 4b df 67 3b
       0.005681757 0.006770538 0.0054596635 0.0035380896
0000f0 3a fc 9d 3b e8 6d d5 3b 81 e2 ce 3b e5 af 81 3b
       0.0048213275 0.006513346 0.0063136225 0.003957736
000100 f2 4e 12 3b 2b 59 a4 3b 7d 61 bc 3b 11 59 9a 3b
       0.0022324887 0.0050155125 0.005748926 0.0047103246
000110 b5 6b 2a 3b c5 19 b9 3a cd 46 a9 3b 64 6f ac 3b
       0.002600414 0.001412206 0.005165911 0.0052623022
000120 1b 30 7f 3b 9a 6f 03 3b 7d 99 ac 3a b7 02 9f 3b
       0.0038938585 0.0020055533 0.0013168302 0.0048526186
000130 9f cc bd 3b 9c 32 db 3b 49 0d f3 3b 9f 0f e7 3b
       0.005792215 0.0066893827 0.007417355 0.0070514227
000140 f5 c2 95 3b 98 97 b1 3b 62 3a e4 3b 31 00 f2 3b
       0.00457036 0.0054196827 0.0069649676 0.0073852767
000150 c3 f5 cb 3b 2b 54 86 3b 01 f3 9a 3b 05 06 cd 3b
       0.0062243654 0.004099389 0.0047286754 0.006256821
000160 6a 8b be 3b 31 08 96 3b 3a 2f 40 3b 0f 83 7e 3b
       0.0058149593 0.004578613 0.0029325024 0.0038835441
000170 01 d0 b4 3b c9 da 9b 3b 57 c6 7c 3b b4 55 2f 3b
       0.00551796 0.004756306 0.0038570368 0.0026753964
000180 34 a0 7a 3b 7a 63 a0 3b d9 cc 8c 3b b9 03 b5 3b
       0.003824246 0.004894671 0.0042968807 0.0055241254
000190 cf 9f 56 3c f0 eb e9 3b e9 8f 80 3b ad 57 01 3b
       0.013099625 0.0071387216 0.0039234054 0.0019736097
0001a0 53 6f cd 3a ea 61 19 3c a9 de 88 3b bd 17 75 3a
       0.0015673436 0.009361723 0.004176934 0.00093495456
0001b0 ca 6a 17 39 18 cc 9c 3a 0f 44 cf 3b b5 14 cd 3a
       0.00014440264 0.001196268 0.006325252 0.001564643
0001c0 2c 7c 9d 38 e0 30 02 39 59 fa 34 3b bd 9f 78 3b
       7.509472e-05 0.00012415973 0.002761504 0.0037937008
0001d0 95 5f e1 39 a9 1b ab 37 9f eb 59 3a 36 0e cd 3b
       0.00042986558 2.0397669e-05 0.00083130033 0.0062577976
0001e0 a7 74 46 3b 07 61 a9 39 8d 49 f0 39 b1 f5 6d 3b
       0.0030281933 0.00032306483 0.00045831167 0.0036309774
0001f0 a0 ea 3b 3c f8 81 16 3b 01 a1 47 3b d4 c2 89 3b
       0.011469513 0.002296565 0.0030460956 0.0042041335
000200 c7 ea 9c 3b c2 ed c5 3b 2d 8f b4 3b 54 c4 dc 3b
       0.00478873 0.006040306 0.005510232 0.0067372713
000210 f6 2a d5 3b 6a b5 a6 3b da 6b 98 3b 3e 62 fd 3b
       0.0065053655 0.005087544 0.004651529 0.0077326586
000220 98 44 d7 3b 33 45 8b 3b c2 e4 3a 3b df e7 23 3b
       0.0065694563 0.0042501925 0.0028517698 0.0025010032
000230 2b 38 95 3b e0 2f 08 3b 94 3c 99 3a 18 71 93 3a
       0.004553815 0.002078049 0.0011691027 0.0011248915
000240 97 e1 be 3a 7e 44 dd 3a 4b 2a f8 39 d7 b6 b5 39
       0.0014563081 0.0016881374 0.00047333757 0.00034659237
000250 49 ee 1e 3a 90 7c 16 3b
       0.0006062729 0.0022962429

exp_avg f4 [6]
000000 24 7e 50 b9 55 95 fc b9 9e dd fd b9 0a 3d 95 b9
       -0.00019883417 -0.00048176447 -0.00048421038 -0.00028464972
000010 6b 64 d0 b9 f1 4a 33 b9
       -0.0003974767 -0.00017098688

exp_avg_sq f4 [6]
000000 93 09 72 36 f7 43 90 36 a2 32 80 36 29 ef 5f 36
       3.6066383e-06 4.2994466e-06 3.8205917e-06 3.33688e-06
000010 e3 9c c1 36 26 22 d2 34
       5.7701122e-06 3.9140394e-07
