checkpoint/LeNet checkpoint/last_model.pth (torch, 752226 bytes, 30 tensors)

conv1.weight f4 [6, 1, 5, 5]
00000000: 4e8e 86be ca9e 61be 41d8 f6bc 3c27 7dbb
00000010: d67b c53c 9b93 84be 669b a13c d60a a6bb
00000020: 60c0 65be 37e0 0b3e 139f 653e 9409 4f3d
00000030: c7ae bdbd 1f1f 93be 2261 4f3e 1d97 623e
00000040: da2d aa3d 3008 6fbe e436 b7be a69d d23c
00000050: 226f 6bbe ed5a 823e c851 203e 8f4f 863c
00000060: fc76 c9bd 4473 eabc d429 28be e4a3 d53d
00000070: d9e4 7abd 5782 4bbc 7293 033e 1c18 12be
00000080: 5c25 4dbe 23c3 b2bd 6777 573c 11d7 16be
00000090: c6dc 9f3d c481 c53d f198 4a3d 4480 97bd
000000a0: f97d 983d 09e4 00bd e78c cfbc 43da 4c3d
000000b0: fa4b 833d b61c ab3d 2e88 9f3d ced3 5abc
000000c0: 4852 f03c e48a 113e ae3e cebd 79bb 8abd
000000d0: 19db dbbd 99f1 163c f53b 41bd c47f 82be
000000e0: fcff ea3d 64fb 193e 9d16 0e3e d5cd c8bd
000000f0: 8dde 0b3d ee74 373e 21d3 253d b2fe fdbc
00000100: 10eb 18be ef9c b63b 670c 3c3d 9030 343d
00000110: b5e7 9e3d 01fe e2bd a99b 12bd 93ed f93d
00000120: a776 c93d 7a9a 3bbe e7b6 f8bd 9d1e 12be
00000130: 816f 1f3e c770 a3bb 85e4 143e e3c7 b7bc
00000140: 1a0c 3abd e0f7 1abe 1ee2 813e ee43 0a3e
00000150: 2f32 a13d 10cb 2d3d 604d 0dbd 7a2a 0e3e
00000160: ca74 cc3c 5643 0cbd 93d8 2abe 1583 35be
00000170: 0b44 6c3d 7c8f 76bd 1df7 0cbe 4113 15be
00000180: 8c6d 8abd 2c44 143c 9497 dcbd 1a05 6f3d
00000190: f342 a33d 0557 34be 81ab 233d 6e1b 353e
000001a0: 822f 2abe f7ef 183c 1637 af3d f9a3 c8bd
000001b0: 09ee b2be ae30 4dbe 7d36 683e c4b2 933d
000001c0: d731 a7be 77f7 c2be 0c8e 1f3e 8bb4 523e
000001d0: b157 24be 3216 debe d6af d03c 18e0 813e
000001e0: d58e a23d 3f90 adbe 1570 afbe fe2b 383e
000001f0: 8e99 0a3e 59b6 6ebe 34b4 75be c4b3 e1bd
00000200: e169 95bd b5b7 653d e2a7 71bd dd83 8b3e
00000210: 231a 563e 95f6 773d 423f 293c 28cd 8b3e
00000220: 0160 003e abc2 ef3d eeed 46be e957 bcbd
00000230: f762 153d a96c 54be 418f eabd 52f6 f73d
00000240: ab84 76bd 3373 22bd 7bd7 95be fbf1 7fbd
00000250: 06d0 0cbe a8c8 b63d
-0.26280445 -0.2203323 -0.030132415 -0.0038628122 0.024106901 -0.25893864 0.01972742 -0.0050672097
-0.22436666 0.1365975 0.22423963 0.050546244 -0.09261852 -0.2873468 0.20251897 0.22127958
0.08309527 -0.23342967 -0.35784066 0.025709938 -0.22991613 0.25459996 0.15656197 0.016395358
-0.098371476 -0.028619416 -0.16422206 0.1043165 -0.061253402 -0.012421212 0.12849215 -0.1426701
-0.20033783 -0.087286256 0.013151026 -0.14730479 0.07805781 0.096438915 0.049462263 -0.073975116
0.074459024 -0.03146747 -0.025335742 0.050012838 0.06410976 0.083550856 0.07789646 -0.013356162
0.02933611 0.14213139 -0.10070549 -0.06774039 -0.10735149 0.009212875 -0.04717632 -0.25488102
0.114746064 0.15037304 0.13875814 -0.09804884 0.034147788 0.17915699 0.04048455 -0.031005237
-0.14933419 0.005572907 0.045910265 0.043991625 0.07759038 -0.11083604 -0.03579298 0.12203517
0.09837084 -0.18320647 -0.12144261 -0.1426949 0.15569879 -0.0049878093 0.14540298 -0.02243418
-0.045421697 -0.1513362 0.25367826 0.13502476 0.078709 0.042429984 -0.03449762 0.13883391
0.024958033 -0.034243904 -0.16684179 -0.17725785 0.05768208 -0.06019543 -0.13766141 -0.14558126
-0.06759176 0.009049457 -0.10771099 0.058354475 0.07971754 -0.1761132 0.03995848 0.17686245
-0.16619685 0.009334556 0.08555429 -0.097969 -0.3494723 -0.20038101 0.22677036 0.07211831
-0.32655212 -0.38079426 0.1558153 0.20576684 -0.16049077 -0.4337631 0.02547447 0.25366282
0.07937399 -0.33899114 -0.342652 0.17985532 0.13535139 -0.23311748 -0.23994523 -0.11020616
-0.072955854 0.0560834 -0.058997996 0.2724904 0.20908408 0.060537893 0.010330023 0.2730496
0.12536623 0.11707052 -0.194267 -0.09196455 0.036471333 -0.20744576 -0.11453105 0.12107529
-0.060185116 -0.039660644 -0.2926596 -0.06248663 -0.1375123 0.08924991

conv1.bias f4 [6]
00000000: a897 013f ca82 d33e 871d e33e 555b cd3e
00000010: 1127 e53d 5696 32bd
0.50622034 0.41310722 0.44358465 0.40108743 0.11189092 -0.043600403

conv2.weight f4 [16, 6, 5, 5]
00000000: f9c2 ecbd 0d69 a4bd b0af 0c3d c1cd 213c
00000010: cf3f 16be 0ee4 14be 9877 ab3c e3cf 343e
00000020: eba2 29bd 85bd 74be 897e e7bd 5727 cf3d
00000030: 6048 41be 9061 10be fa78 9d3d 27a6 c7be
00000040: 980c e1bb 9906 fbbe 03f0 31be a613 2c3e
00000050: 535c 91be 9702 1cbe e99f 8bbd 2d83 d0bd
00000060: d414 163e a044 5a3d 6713 443d c061 b43d
00000070: 9d37 b8bc 0e95 8abe ddb0 e03d 3959 a63c
00000080: 1647 03be 11a1 aabe 883e 03be 2111 9d3d
00000090: 8f5f 87bd 57f6 65be c9f8 0bbe a15e f7bd
000000a0: 3ef3 ddbd 795d a4bd cc15 fa3a d3fe 34bd
000000b0: 8f2d 56bd 93bc 2ebd eee3 72bd d812 5c3d
000000c0: 0d42 b83d 11ac 9d3c c68f 9fbe c48b dabd
000000d0: 56e7 fc3c 146a 1c3d c911 5b3e c7c5 64be
000000e0: 8903 583d ae24 26bd 0ba9 0a3e 643e 4d3d
000000f0: e122 06bd dd12 af3d f423 6b3c b7b7 ccbd
00000100: d4d3 96be 33d2 963a 9f8a 3dbc 7ae7 88be
00000110: 29b4 5dbe fda7 bbba e734 193d ee9e b33d
00000120: 2f0e b7ba 20f8 503d d2fd 60bd 09f6 82bd
00000130: a03e 94bd f445 16be f50c 3fbd 1db4 0a3e
00000140: 2ff5 543d 0dab edbd 6964 cabc 975b 123e
00000150: b9cd a7bd 9e34 a53d 56a5 953c 1b66 4c3d
00000160: 4709 9d3d cd9e 91be 4961 0a3e e8db f3bd
00000170: 163b 51be 6f90 80be 1901 fabc f2df d33d
00000180: e074 8abe 3eea a9be 8946 1fbd fccd 0dbc
00000190: ac2c d03d ca3f bf3c f996 40be efff 0f3e
000001a0: a6d5 cf3b 7a03 543d 8bf2 debd b221 44bd
000001b0: 8f06 b2bc 2bc0 b73e 956e 503d 44ce 57bd
000001c0: 5c29 6bbd 56e4 79bd 6991 353e 6d66 2bbe
000001d0: 800c 313e 9035 0fbd e37a a33d c092 01be
000001e0: f413 14be 1be6 dbbc 030d cdbd ddd4 393c
000001f0: 35b0 fdbc 3fd5 03bd a40c 1fbe 592a b3be
00000200: 9085 71be 2575 a03d 5cd6 ea3d 88fb 04bd
00000210: b0e9 10be 0e94 c83d a1a4 1abd ef64 82bd
00000220: bfa0 efbd f930 f33d 398c 553c 23cb 56bd
00000230: 277b 7ebc 686b 41bd 816c 0ebe 5f73 10bc
00000240: 4f28 9e3e f899 62be ced5 93be b4a5 b7bd
00000250: c738 113e 1f1a 1f3d 4f38 903d 4bc7 2dbe
00000260: f3e8 31be 49a4 723d 15d5 343e bb4a 79bd
00000270: 228c c33b 88e3 6d3d fcf9 0bbd bebd 013e
00000280: 3812 d23d 586e 5ebe 056b 43be be5e 803e
00000290: a5c4 9a3e b19a 0cbe fa16 a9bc b0eb 8abd
000002a0: f64d d53d 4cf9 4b3d 9e5f ed3b 1c99 a6bd
000002b0: 0e45 4fbe 9f35 cdbd a53a d93d c6bf debc
000002c0: 4665 bb3c 2875 7fbd bfa9 4bbd 1b51 89be
000002d0: 8014 493c 90b6 323d 4fce d2bd cf9c 20be
000002e0: 92dc 27be 227a e9be 2972 04be 4b45 113d
000002f0: 3818 4cbd 6bba 40be ef15 7abd 3eb6 e5bc
00000300: 2b34 78bd e50b dcbd 9243 f0bd 59ef 6bbc
00000310: c65e f5bc 608a 8a3c d213 a8bc 2350 843d
00000320: 7a3d 183e 2be6 d3bd f41a cc3d 9743 473d
00000330: d412 4f3d 16e6 4cbd d62e c33d 334f 093e
00000340: 5a71 03bd 36a4 e0bb bb73 24be 371e 07be
00000350: 0c73 41be 4f0d 3d3e d9cf dc3b 318a acbe
00000360: 12ac c4bc 47a6 be3d d4e1 f03d c128 1b3d
00000370: 6350 0e3e 23d3 ee3d b99f cebb 63e4 0dba
00000380: 25e9 97bd 7c20 39bd 3328 05be 222a 3fbe
00000390: b85c a9bd 7dc9 083d fcb9 49be 21ff d73c
000003a0: 18fa 253e ca41 14be 9194 5abd 84ad 453e
000003b0: e9d2 3b3e 470a f6bc 7be6 23be 3c52 45be
000003c0: aa60 8a3d 998b d2bd e757 7abd e958 a4bd
000003d0: 2d28 80bd d2e3 3dbe 77cb 97bd 8262 a1bd
000003e0: cf58 b6bd 875a 60be cd87 95bd 39ff 1e3e
000003f0: 3a96 9bbe 3207 b9bd 6b93 30be 4247 88be
-0.115606256 -0.08027849 0.034347236 0.009875716 -0.14672779 -0.14540121 0.02093105 0.17657427
-0.041415136 -0.23900421 -0.113034315 0.10114925 -0.18875265 -0.14099717 0.0768909 -0.38993952
-0.0068679564 -0.4902847 -0.17376713 0.1680437 -0.2839075 -0.15235363 -0.0681761 -0.1018127
0.14656383 0.053288102 0.047870066 0.08807707 -0.022487456 -0.27066845 0.10971234 0.020306217
-0.12820086 -0.3332601 -0.12816823 0.07669283 -0.06610023 -0.22457252 -0.13669123 -0.12078596
-0.108374104 -0.08025641 0.0019079982 -0.04418833 -0.05228954 -0.042660307 -0.059299402 0.05372891
0.08996973 0.019247087 -0.31164378 -0.106711894 0.030872028 0.0381871 0.21393503 -0.22341071
0.052737746 -0.040562324 0.13541047 0.05010833 -0.032748107 0.0854852 0.014351834 -0.09995978
-0.29458487 0.0011506736 -0.011568694 -0.26739103 -0.21650757 -0.0014317032 0.037403967 0.08770548
-0.0013966019 0.05101788 -0.054929562 -0.06394584 -0.07238507 -0.14675122 -0.046643216 0.1354527
0.051991638 -0.11604891 -0.024706082 0.14292751 -0.08193535 0.080666766 0.018267315 0.049902063
0.07667785 -0.28441468 0.13513674 -0.11907178 -0.20432696 -0.25110194 -0.030518102 0.103454486
-0.27042294 -0.33186525 -0.038885627 -0.0086550675 0.101647705 0.023345847 -0.18807591 0.14062475
0.0063426076 0.051761128 -0.10886105 -0.047883697 -0.021731643 0.358888 0.05088671 -0.052686945
-0.05741249 -0.061008774 0.17731251 -0.16738291 0.17289925 -0.03496319 0.07982423 -0.12653637
-0.14460737 -0.026843121 -0.100122474 0.0113422545 -0.030967811 -0.03218579 -0.15532166 -0.34993246
-0.23586106 0.078348435 0.11466667 -0.03246644 -0.14151645 0.09793864 -0.03775466 -0.06366908
-0.11700582 0.11874575 0.01303392 -0.05243982 -0.0155322915 -0.04722157 -0.13908578 -0.008816569
0.30890128 -0.22129047 -0.28874058 -0.08967152 0.14181815 0.03884327 0.0704199 -0.16970555
-0.1737402 0.059238706 0.1765941 -0.060862284 0.005967633 0.05807832 -0.03417395 0.12670037
0.10257381 -0.2172178 -0.19083793 0.25072283 0.30228153 -0.13730885 -0.020640839 -0.06783235
0.104152605 0.049798295 0.0072440645 -0.08134672 -0.20241186 -0.10019993 0.10606889 -0.027191054
0.02287544 -0.06236759 -0.04972243 -0.2681969 0.012272954 0.043631136 -0.102932565 -0.15684818
-0.16392735 -0.45600992 -0.12934174 0.035466474 -0.049827784 -0.18821113 -0.061056074 -0.028041001
-0.060596626 -0.10744456 -0.11731638 -0.014400327 -0.029952418 0.016911685 -0.020517264 0.06460597
0.14867201 -0.103466354 0.099660784 0.048648443 0.050555065 -0.050024115 0.095304176 0.13409118
-0.032090522 -0.006855513 -0.16059773 -0.1319512 -0.18891543 0.18462108 0.0067386446 -0.33699182
-0.02400783 0.09309059 0.11761823 0.037880663 0.13897853 0.11661365 -0.0063056615 -0.00054127554
-0.07417516 -0.045196995 -0.13003616 -0.18668416 -0.08269638 0.03339528 -0.19699854 0.026366772
0.16208684 -0.14478222 -0.05336434 0.19304472 0.18342175 -0.030034197 -0.1600589 -0.19269651
0.067567185 -0.102805324 -0.061118986 -0.08024771 -0.06257663 -0.18543938 -0.07411855 -0.07880117
-0.08903658 -0.21909533 -0.073012926 0.15527047 -0.3038805 -0.090345755 -0.17243735 -0.26616865

conv2.bias f4 [16]
00000000: 44ff 26be 72d2 09be 7868 2abe 9957 87bd
00000010: 8f52 f0bd 2f70 cc3c 2d37 453d 978f 82be
00000020: 7993 5abe 838f 7dbe 5600 93be 9911 30bd
00000030: 6519 92bd 9c29 9bbd 7d20 96be 67e1 65bd
-0.16308314 -0.13459185 -0.16641414 -0.06608505 -0.11734497 0.024955837 0.048148323 -0.25500175
-0.21345319 -0.24761777 -0.28711194 -0.042985532 -0.0713375 -0.07576296 -0.29321662 -0.056123164

fc1.weight f4 [120, 400]
00000000: e115 f8bd eefe 5ebd 1608 8abd 24fb 3cbe
00000010: 4439 1abe 5ed2 503c 4c18 e63c 2f28 42bc
00000020: 9e75 58bd 7c70 10be 7a64 5fbd c2ef c43d
00000030: 7528 df3c 96fb ec3c 718a 88bd 9f9e 1ebe
00000040: 3dc8 4c3d 5883 143e 92f1 053e ee9a c1bc
00000050: 8605 47be f784 debc ab18 e93c 8a97 0b3e
00000060: 156c 463c aaec 9d3d 2b12 8dbc 433c 633c
00000070: cd14 96bd 5d5c 123b 8c33 083e e813 293e
00000080: ceed 843d c002 50be 1af6 2f3e da3e 95ba
00000090: 1ba3 d6bc a041 6b3d 9748 05bd e465 97bb
000000a0: c68c 87be a176 35bd 5206 dd3d 0165 233e
000000b0: d787 9c3e 4666 9abe 8c11 afb9 913e c03c
000000c0: 08b8 c2bc 782d a43d e47b 1d3d e693 28be
000000d0: d623 59bd 6103 55be dc71 a63d 5135 56bd
000000e0: b2d7 89be 93c3 733c 145e f0bc 012d e5bc
000000f0: 0bbb 63be ba21 92be f7b6 7e3d 28ad 3d3d
00000100: 1c0e 8f3d 7312 75bd 73b5 03be 0b99 ba3d
00000110: 760b f83d c0bd 94bc 9fee 9e3d 0343 f3bb
00000120: 375f c1bb c24a 98bd 53e1 d0bd df11 a7be
00000130: 4e77 cfbd c33f 243c e33b 26bd fe34 fd3d
00000140: 354f a03d a8e2 7bbd cf31 49be edfb e73c
00000150: 4ed0 113e 44cc 743d ff15 b3be 9999 44bd
00000160: c994 c13d 70ef 90bc dbd8 683c a248 2dbe
00000170: 348a ec3c a6da 1a3e c528 78bd e65a a53d
00000180: b4ae 6b3c 5fce 90bc 29c3 1ebd e80d 4b3d
00000190: 05dc a73d 383c a3bd 1f9a e13c c3fc a23d
000001a0: 34dd 37be 24d1 b63d a100 c8bb 4b32 453d
000001b0: 7e9a 76bb 0057 0ebe 4fb2 3a3e 2b73 3c3d
000001c0: a426 bcbd 30f3 943c fcd6 c4bd 9776 64be
000001d0: 6618 a7bd 5dac 38bd 4499 9ebd a17f 623d
000001e0: fb7c f23d 7616 1ebe 096d cebd 07ec bd3d
000001f0: 7d33 6d3d 8e1d 8d3d c65e 623d 5720 c03d
00000200: 1032 2a3d c046 1bbe 0a1f 26bc 4d1a 27bd
00000210: 5d00 143b d8a4 32be e59f c63d 43d0 05be
00000220: 3463 84be 3096 e5bd 045f 96bb 56f2 563d
00000230: af75 cebe c88c 63be 114b 3a3d cc73 5a3e
00000240: 849f 173e 5e22 0bbe 323a ec3c c565 223d
00000250: ce8f e83d b524 81bd 0f13 ebbc 82a8 273c
00000260: f0b8 643d 8d0a b13d 2ed2 113e ffcc 3bbe
00000270: c99a 8bbd c85c cfbd 64e0 9fbc c511 2dbd
00000280: 892e 1fbe 6197 53be 8266 a2bc e2ad 8cbd
00000290: 79ea c3bd 5030 9abe 5dfb 89bd 4f56 a93d
000002a0: 4183 803e db42 943e ea51 c4be 4c8c 643d
000002b0: 8041 623e 239a 053e 9542 563e bacd 4ebe
000002c0: 306f d8bd f692 693c 1ba7 203e 9725 79be
000002d0: 4a0e 8bbe f19d 153d debe babd 2173 80bd
000002e0: 46e3 51bd 99d6 993c 9bd2 293c fcfe 873d
000002f0: c88d 8bbd 424b 04bd 2eb8 df3c 59e4 90be
00000300: f01b a3bd 0951 493d 954f afbd b377 5f3e
00000310: 448f 06be f08d 7bbe 0baf a9be 298d 8cbc
00000320: d046 05be 3b31 b2bd da9e 09be 2fae 4bbd
00000330: 783d 933d df84 cebd 408b 7fbe 7b5c ec3c
00000340: d7f7 1b3d 360b ecbb 4854 aabd 8d7f dfbc
00000350: 84db 3f3e bc98 a83c 3638 59bb 587b b2bd
00000360: 60fc babd 74a4 54be 9eb9 69bd d5f7 cc3b
00000370: fe13 e63c f07a 093e 6af7 2abe c9fa 6bbd
00000380: e5d0 e2bd 26e2 7c3d 08ca f43b 937b d03d
00000390: cab0 84bc a8b9 09bd c5b8 ec3b 4746 75bd
000003a0: d67a 69bd 7a94 01bd 5f59 08be ee68 bb3d
000003b0: 9e6e f63d bae1 6e3c cff7 2abc 6c45 40bd
000003c0: 8aa5 0abd 3886 033d cda4 9f3d 05e6 9c3e
000003d0: a92f 883e e1b7 bfbe 0917 04be c1d4 f23b
000003e0: 2bb7 953e 0230 8a3d 9b57 cfbd cd65 6bbd
000003f0: 0ff4 70bb b50e 09bd 207f d83d ad24 62be
-0.12113548 -0.05444234 -0.067398235 -0.18455178 -0.15060908 0.012745468 0.028087758 -0.011850401
-0.052846543 -0.1410541 -0.05453918 0.09616043 0.027240971 0.02892856 -0.066670306 -0.15490197
0.04999565 0.14503229 0.13080433 -0.023633447 -0.19435701 -0.027163012 0.028454145 0.13632026
0.01211073 0.07711156 -0.017220577 0.013869348 -0.07328186 0.0022332885 0.13300914 0.165115
0.0649067 -0.20313549 0.17183724 -0.0011386529 -0.026200822 0.05743563 -0.03253993 -0.0046203006
-0.2647459 -0.044302586 0.10792221 0.15956499 0.30572388 -0.30156153 -0.00033391675 0.023467334
-0.023769394 0.08016485 0.03844823 -0.16462669 -0.05301269 -0.2080207 0.08127186 -0.05229694
-0.26922375 0.0148781715 -0.029341735 -0.027975561 -0.2223932 -0.28541356 0.062186208 0.046307713
0.06985113 -0.059832048 -0.12862186 0.09111222 0.12111561 -0.018156886 0.07760357 -0.00742376
-0.005901243 -0.07436134 -0.10199227 -0.32630822 -0.101301774 0.010024968 -0.040584456 0.12363623
0.078276075 -0.061495453 -0.19647907 0.02831837 0.14239618 0.059765115 -0.3497772 -0.047998045
0.09452207 -0.017692298 0.014211859 -0.16922238 0.028874494 0.1512247 -0.060585756 0.08073978
0.014384914 -0.01767653 -0.038760338 0.04957381 0.08196262 -0.0797047 0.027539311 0.07958367
-0.17955476 0.08926609 -0.0061035906 0.048143666 -0.0037628706 -0.13900375 0.18232082 0.04600827
-0.091870576 0.018182367 -0.096113175 -0.22310863 -0.081589505 -0.045086253 -0.07744077 0.055297498
0.118402444 -0.15438256 -0.100793906 0.09273534 0.05791043 0.06890403 0.055266164 0.09381168
0.04155165 -0.15163708 -0.010139236 -0.040796567 0.0022583224 -0.17445695 0.09698466 -0.13067727
-0.25856936 -0.112102866 -0.0045889635 0.052477203 -0.4032416 -0.22221673 0.045481745 0.21333236
0.14806944 -0.13587329 0.028836343 0.039647836 0.113555536 -0.063058294 -0.028695611 0.0102330465
0.055840433 0.086445905 0.14240333 -0.18339919 -0.06816632 -0.101251185 -0.019516177 -0.042253274
-0.15545096 -0.20663215 -0.01982427 -0.06869103 -0.095662065 -0.30114985 -0.06737397 0.08268415
0.2510014 0.28957257 -0.38343745 0.05579786 0.22095299 0.1304708 0.20923837 -0.20195666
-0.10568082 0.01425623 0.15688746 -0.24330746 -0.2715934 0.036527578 -0.09118436 -0.06271959
-0.051242135 0.018779086 0.010365154 0.06640431 -0.06814152 -0.032298334 0.027309503 -0.28299215
-0.07964313 0.049149547 -0.08560101 0.21823005 -0.13140589 -0.24565864 -0.3314136 -0.017157154
-0.13015294 -0.08700796 -0.13439503 -0.04972666 0.071894586 -0.10083937 -0.24955463 0.028852692
0.038078155 -0.007203485 -0.083168566 -0.0272825 0.18736082 0.020580642 -0.0033145077 -0.08714932
-0.09130168 -0.20765859 -0.057061784 0.00625513 0.028085705 0.13425803 -0.16695943 -0.057612214
-0.11075 0.06173911 0.007470373 0.1017982 -0.01619758 -0.03362432 0.0072241747 -0.059881475
-0.05700191 -0.03163574 -0.13315342 0.09150873 0.12032817 0.014580185 -0.010435059 -0.046941206
-0.033849277 0.032110423 0.07795105 0.3064424 0.26598862 -0.37444976 -0.12899412 0.007410616
0.2924131 0.06747438 -0.10124131 -0.05747013 -0.0036766564 -0.03346129 0.10571122 -0.22084303

fc1.bias f4 [120]
00000000: 4699 19bd 9ed6 3dbd a009 2c3d 611c 45bd
00000010: ad11 c5bd 3a59 813d 726f 283c dc95 3dbc
00000020: 9131 0bbe a5b9 babd a8c8 713c 8670 30bd
00000030: 0e7e 5dbd a10d d23d 8f56 18bc 31c2 b2bd
00000040: 43d5 d4bd d450 73bd 7f1d a1bd 9fda 4abd
00000050: 3eea eebc 1813 413d b0e5 2c3d a72d df3b
00000060: 75d3 9abd 6ad6 92bd 8493 ca3d ce73 b5bd
00000070: b6a7 813b 9691 9f3c e1b4 f9bd 61a8 94bd
00000080: a887 a7bc 76f5 ddbd 61a5 d8bd 5af9 95bd
00000090: 40de 1a3d a7aa d5bb cd88 31bc 86df dcbd
000000a0: 0f24 8dbd 678d 623c f142 cebd 56af c6bb
000000b0: 6813 3abd 178c b7bd 47d3 de3c ffc8 d43c
000000c0: b08f dc3d aa03 69bd f076 00be 9442 81bd
000000d0: 5d71 22bd 1e12 17bd bbf6 c3bc ca59 0abe
000000e0: 07b8 f2bd 729a 44bd afc4 03be e5a2 81bc
000000f0: c227 2e3d 2a6a 093c f7be 30bc 3457 6b3d
00000100: 3bc6 ebbd 4e84 6dbd 77cc bdbd 1904 afbc
00000110: be22 8bbd fd90 97bd 0f65 02be afc7 d8bd
00000120: 256c 203c f7ea 1d3c 7323 8a3d bb30 b7bd
00000130: 6ee7 bebd bcd3 7bbc 4cce df3c 4011 ddbd
00000140: 54ce 9bbd 21a9 ebbd fe70 16bd 4e9b dcbc
00000150: 7714 1e3e b448 043d dd9b 8cbd 5e90 c1bc
00000160: 1f15 f13d 0ffd e0bd 5b01 1abd 693a bebc
00000170: 21c0 c43d db88 bf3c d528 4f3d 2d64 a4bb
00000180: 893d 96bd babe a33a 2267 9fbd 5224 8bbd
00000190: 391f 843d b834 68bd a5ba 0fbe afd7 a6bc
000001a0: 582d 15bd cf16 c7bd 37f3 bb39 4b15 03be
000001b0: cd6f 5fbb 24af bebd e2d0 95bd 6a9c 2bbd
000001c0: 97f6 853b 24fc 5fbd 7ded cc3d 402f 7c3d
000001d0: 6a0f 3b3d 27b4 a23d ac70 a83d 2d59 8e3c
-0.03749969 -0.046347253 0.042001367 -0.048122767 -0.09622512 0.06315847 0.010280477 -0.011571374
-0.13593127 -0.0911744 0.014757313 -0.04307606 -0.054075293 0.10256506 -0.009297981 -0.08728445
-0.10392239 -0.059403256 -0.07866954 -0.0495249 -0.02916443 0.04713735 0.042211235 0.006810862
-0.075598635 -0.071698025 0.098914176 -0.088599786 0.0039567603 0.0194786 -0.12192703 -0.07258678
-0.020450428 -0.108378336 -0.105784185 -0.07322951 0.03780961 -0.0065205875 -0.0108358385 -0.10784821
-0.06891643 0.013827658 -0.10071362 -0.006063382 -0.045428663 -0.08962267 0.027200354 0.025974749
0.10769594 -0.05688826 -0.12545371 -0.06311527 -0.039658893 -0.036882512 -0.023921361 -0.13510814
-0.11851507 -0.047998853 -0.12867998 -0.015824744 0.042518385 0.008387128 -0.010787717 0.05745621
-0.11512419 -0.057987504 -0.09267514 -0.021364259 -0.06793736 -0.07400701 -0.12733863 -0.105849616
0.009791409 0.0096385395 0.06745043 -0.089448415 -0.093214855 -0.015370306 0.02732005 -0.10794306
-0.07607713 -0.11506868 -0.03672885 -0.026929524 0.15437494 0.032295898 -0.06865666 -0.02362841
0.11771607 -0.10985767 -0.03759895 -0.023221212 0.09606958 0.023380687 0.05057605 -0.0050168247
-0.07335956 0.0012492754 -0.07783343 -0.06794037 0.06451268 -0.0566909 -0.14036043 -0.020366518
-0.036420196 -0.09721147 0.0003584863 -0.12801091 -0.0034093738 -0.09310749 -0.07315232 -0.041897215
0.0040882337 -0.05468382 0.10006235 0.0615685 0.045668997 0.079445176 0.082246155 0.017376507

fc2.weight f4 [84, 120]
00000000: 2fbd 95bd 1e10 5abd 4d21 163d 2891 ad3c
00000010: 77a2 273d b241 cc3d be6b 8fbc 6a29 8cbc
00000020: 98ba 1cbe 93f0 92bd 0110 f6bd b99d f1bd
00000030: d8fa eb3d 082a 303d 0bcf 3bbc e9c3 07bd
00000040: b9ac af3c f3f9 d83b eef3 d2bd 1358 f03c
00000050: b82e 493d 170e 9a3c 3a1e 5ebd e1f4 613d
00000060: f791 7cbd fed3 9ebb 3de2 933d f58e 773d
00000070: f5e5 963c 3a2a 0d3d 1aab 463e 3e20 183e
00000080: b432 213c a4d0 9c3d 83f9 f33d 5ad5 f13d
00000090: fa6d a1bd b80a 543e d390 a3bd 09b8 9bbc
000000a0: 6e83 c73d d943 1e3e 5ad2 ccbd 3c68 84bd
000000b0: a1b2 6cbd a754 b0bd 3333 0ebd 3296 093d
000000c0: 09e5 69bd 6308 bd3d 121e adbc 9eca d9bd
000000d0: 4fd9 813d 6eef 02be 654b 51bd f3b3 213e
000000e0: 82f3 95bd 2eb1 9fbc a93a 46be 855b 393d
000000f0: 907d cabd e941 0dbe 8ee2 80bd f1a7 4a3d
00000100: 98bd 013e ebb2 d2bd 4e5c a8bd 775c 51bd
00000110: ab6f 263d e5de 1bbb 9f6a 413e 0862 b93d
00000120: 17d9 93be 3150 9abd 60f6 e33d 1cc4 84be
00000130: 3774 0bbe dfb3 d1bc b8c1 6e3e 0cd0 903d
00000140: 8678 18be 6ddc 23bd d566 023e 8117 493d
00000150: 6900 9bbd 564a fc3d b5e1 553d 0642 05be
00000160: 5f80 d0bd 1d1a c0bd 274a 8ebd 59b2 a63c
00000170: 506a 043d e423 083c ea5e 973b 70ca 653c
00000180: 9087 86bd da29 c33d c290 a6bd e7cf 3d3d
00000190: b988 1dbe d506 ee3b 3def bcbc 4920 82bd
000001a0: 689a 813d 430d df3a 6ad7 9bba 5e30 ba3c
000001b0: 6b52 973d fd77 593d 0b41 283d 603d 8ebc
000001c0: 78a4 3bbd 1e8d 13bd 9aa7 c53c 353f 2b3e
000001d0: 1bb0 f03b b40d 783d a509 123e 1f63 e0bd
000001e0: 3664 e7bd 60f6 063e 41e1 3bbd 71ec 4f3d
000001f0: 18c2 87bd e3be 253e 74f7 7f3d a1aa 2f3e
00000200: 75d1 6dbe 0eac 233e bcaa 28be 791e f9bc
00000210: b083 30be ab5e 903d 72fc 023d e721 87bc
00000220: cd88 d93d b7de 603d 7684 fbbd 43af 01bd
00000230: 0a1b 53bd da7d b5bd 0c33 aa3d 5c8c 7f3d
00000240: 92eb 1e3e 1a2f 2b3d 6170 01be a33d a1bd
00000250: 83cb 9abd ea6c 0b3d eaa2 c23d 503e b5bd
00000260: cf93 dabd ce82 0dbd e7ac ddbd adcb 813e
00000270: ced9 96be ece7 0c3e 0354 48bd 3482 8f3d
00000280: 454d a73d e8f8 183e 2847 6ebd a799 183e
00000290: 2d1f 5e3d 51e1 0bbd 0003 60bc 7d73 ae3b
000002a0: 64f3 babd 9be6 433d 456d 6c3b a572 3bbe
000002b0: fe08 0f3c e1c5 95bc 9219 76be 022c 013e
000002c0: 856b 75bd 2f87 1a3d 926c e5bd b1e7 3c3e
000002d0: 3dbc d8bd b3ce cebd a2be b2ba 4a78 a9bd
000002e0: b19a 9a3d 9895 0bbe c01d 833d f04c 263e
000002f0: b118 0d3e 7bac 333d f874 59bd ca5a 02be
00000300: 8e74 f1bd 62bf 073c 78ca 843d efa3 a43d
00000310: 4b03 ca3d 04c2 3a3d 8089 a13d 41e1 be3c
00000320: 33df 1ebe dad5 1a3e 929d aa3d f28b 243d
00000330: 858f 46bd fe16 ac3d 5e83 fc3d 1cde a4bd
00000340: a18c 5fbd 5f51 82bd 5979 28be 4f91 10bd
00000350: 09bd f1bd 1bfb cdbd fcd6 fa3d a8e3 17bd
00000360: 82e1 693c 6763 a83d 73ac 8fbd 7b48 cabd
00000370: 2dc8 62be 5098 a03c da7c 7ebd 80c5 efbd
00000380: 6486 2dbd 9f9a ab3c 4025 823d 09e7 503e
00000390: 9765 693c 8278 1ebe f9b5 113e e1bc 29bd
000003a0: cb1f 74bc 1d1f 773d 2357 0ebe 9fa4 9c3c
000003b0: bcdb 943d b0cf 72bd e35b 65be 0ecf a53d
000003c0: 0bd5 983d 1f72 5c3d b245 3cbe 857d 4e3e
000003d0: e4f4 b23c 03ac c83d 254d 89bc c5d4 c7bc
000003e0: 2602 4bbe 0f00 80bd 9a60 313e 2797 223d
000003f0: ce51 823c d32d eabd 09a1 403d eb61 1c3e
-0.073114745 -0.053238027 0.03665285 0.02118738 0.040926423 0.09973468 -0.01750743 -0.017109592
-0.15305555 -0.07174792 -0.12014771 -0.11797661 0.11522454 0.043008834 -0.011462937 -0.03314582
0.021444665 0.006621593 -0.10300432 0.029338872 0.04911682 0.018805547 -0.054228045 0.055165175
-0.06166264 -0.004847049 0.07220886 0.06043907 0.018420199 0.0344641 0.19401208 0.1485605
0.009838749 0.076569825 0.11912825 0.11808272 -0.078823045 0.20707214 -0.079866074 -0.019008653
0.09741865 0.1545557 -0.10001059 -0.06465194 -0.05778754 -0.08609896 -0.034716796 0.033590503
-0.05710319 0.09230115 -0.021132503 -0.10634349 0.063402764 -0.12786648 -0.051097292 0.15791301
-0.07321836 -0.019493666 -0.19358315 0.045253295 -0.098872304 -0.13794674 -0.06293212 0.049476568
0.1266998 -0.10288032 -0.08220731 -0.051113572 0.04063384 -0.0023783979 0.18888329 0.09051901
-0.28876564 -0.075348265 0.11130977 -0.2593087 -0.13618551 -0.025598465 0.23316085 0.07070932
-0.14889726 -0.040005136 0.1273454 0.04909468 -0.075684376 0.12318866 0.052217204 -0.13013467
-0.10180735 -0.09379981 -0.06947737 0.020348715 0.03232795 0.008309338 0.004619469 0.014025316
-0.06568825 0.09529467 -0.08133079 0.04634085 -0.15384187 0.007263998 -0.023063296 -0.06353814
0.06328279 0.0017017502 -0.001188976 0.022728141 0.07388767 0.053092945 0.041077655 -0.01736325
-0.045811146 -0.03602325 0.02412777 0.1672333 0.007345212 0.060559943 0.14261492 -0.10956406
-0.112984106 0.13179922 -0.045869116 0.050762597 -0.06628817 0.16186099 0.06249185 0.17154934
-0.23224433 0.15983602 -0.1647138 -0.030410038 -0.17237735 0.070493065 0.03197903 -0.016495658
0.10621796 0.054899897 -0.12281124 -0.031661283 -0.05153946 -0.08861895 0.08310518 0.062389717
0.1551955 0.041792966 -0.12640525 -0.078730844 -0.07558348 0.034039415 0.0950373 -0.08849776
-0.106727235 -0.034548573 -0.10823994 0.25350705 -0.29463047 0.13760346 -0.048908245 0.07007256
0.08169035 0.149387 -0.05817333 0.14902364 0.05422895 -0.034150425 -0.01367259 0.005323826
-0.09128454 0.047827344 0.0036075872 -0.18305452 0.008730171 -0.018282833 -0.24033192 0.12614444
-0.05991699 0.037726577 -0.11202349 0.18447758 -0.105827786 -0.100980185 -0.0013637135 -0.082748964
0.07549036 -0.13631284 0.06402159 0.16240287 0.1377895 0.043865662 -0.053090066 -0.12729946
-0.11789809 0.008285375 0.0648393 0.0803908 0.09863909 0.045595184 0.07887554 0.023300769
-0.15514831 0.1512064 0.083308354 0.040172525 -0.048476715 0.08402823 0.12329744 -0.080501765
-0.054577474 -0.063631766 -0.1645254 -0.035294827 -0.11803634 -0.1005766 0.12248036 -0.037082344
0.014274957 0.082220845 -0.07015314 -0.09877106 -0.22146674 0.019603878 -0.062130786 -0.11707592
-0.042364493 0.020947753 0.06354761 0.20400633 0.014245412 -0.15475658 0.14229573 -0.041439895
-0.014900158 0.060332406 -0.13900428 0.019121466 0.072684735 -0.059280097 -0.22398333 0.08096133
0.0746251 0.05381977 -0.18385962 0.2016507 0.021845289 0.09798434 -0.016760418 -0.024393449
-0.19825038 -0.06250011 0.17322007 0.03969493 0.015908148 -0.114345215 0.047028575 0.15271728

fc2.bias f4 [84]
00000000: 4813 373d 26ca eabd ebb5 49be 5bb0 63bd
00000010: 2b88 20be 0907 b73c be29 aebd 12fe 9b3d
00000020: bb4b a33c 9706 babd 4962 143d 2185 2dbd
00000030: b94e 933c 92a3 bd3c 65cd 9fbd b26c 0ebe
00000040: a63d b4bd 88bd 4abd 0f64 ebbd 047c 2abd
00000050: f79b 83bd 3191 40be 1934 8abd 1978 b9bc
00000060: f622 60bd 22a1 83bd f71b 85bc 67c2 063e
00000070: 0ec6 d0bd 1cc5 e0bc e165 103e 6a19 76bd
00000080: 552a 173c ff80 71bb 1c55 8cbd f5d8 f8bd
00000090: 76cd a33d a9ed f0bd d2ee febc ffa4 b43d
000000a0: d1ba 22be eda6 c73c 1f52 bdbd 68af fe3d
000000b0: 169e b43d a277 013e 11ba ffbc c906 97bd
000000c0: ee92 e83b 16d6 11bc 6a49 14bd 7c1e 533e
000000d0: ca3c a63d a60a 1abe ab47 09bd 3ca0 0e3d
000000e0: 38ef 30be 404b 6bbd 7706 403d 6905 40bd
000000f0: e34c 9dbd 8471 07bd 01f1 22bc 4c30 16bd
00000100: 4cf8 d9bd 03e4 8c3d f582 08be 36c0 9fbd
00000110: 7603 11bd 9952 bdbd 7b91 bcbd 435f 3b3d
00000120: 2040 ddbd 1ce7 84bd a77c 7ebd da8d d2bd
00000130: ce61 dc3d 84b8 d9bd d55f 65bd e044 073e
00000140: 2a8b d93a c866 01be ea6a 893e cc85 eebc
0.044696122 -0.11464338 -0.19698302 -0.055588108 -0.15676944 0.022342222 -0.085040554 0.076168194
0.019933572 -0.09083288 0.036226545 -0.04236329 0.017981874 0.023149285 -0.07802848 -0.13908651
-0.08800821 -0.049497157 -0.11493694 -0.041622177 -0.06426232 -0.18805386 -0.06748218 -0.022640275
-0.05472084 -0.06427218 -0.016248686 0.13160096 -0.10194026 -0.02743774 0.14101364 -0.06008283
0.009226401 -0.003685057 -0.06852171 -0.12150756 0.07998173 -0.1176408 -0.031119738 0.08820533
-0.15891577 0.024371589 -0.09244179 0.124358 0.08819215 0.12643293 -0.031216653 -0.07374341
0.0070975935 -0.00890114 -0.036202826 0.20617098 0.08117063 -0.15043125 -0.033515614 0.03482078
-0.17278755 -0.05744481 0.046881165 -0.04688016 -0.076806806 -0.03306724 -0.009945155 -0.036667153
-0.10643062 0.06879427 -0.13331206 -0.07800333 -0.03540369 -0.0924427 -0.09207436 0.045745146
-0.108032465 -0.06489393 -0.062130596 -0.10280962 0.10760842 -0.10630897 -0.055999596 0.13209867
0.001659726 -0.12636864 0.2683938 -0.029116534

fc3.weight f4 [10, 84]
00000000: 7ce8 81be 0559 11be 6f8f e13d ae1e 703d
00000010: 6fa3 e33b 7f38 0cbe 1443 8ebd 5d78 54be
00000020: ee3c 5dbe e363 15be 3f0f 3ebe 2ef7 e13d
00000030: 75b1 923d 6893 0a3c 23f8 0abe 7c67 77be
00000040: ca04 2abe 50d4 efbd 28bc afbc d57a 2ebe
00000050: d24b 713d cdda 80bd de0a 94bd 416e 45be
00000060: aba2 35bd 0bae c13b d48f 683b f697 f8bd
00000070: 6a40 11bd b403 9fbd d810 903d a393 903d
00000080: e09f 89bd ca71 c1bb ffd1 cbbd 8c7e b9bd
00000090: 194b 0f3e 036b 0cbe 50c3 a9bc a730 513d
000000a0: 3217 7e3a 0be7 ff3d 0bcf 90bd 3aba 06be
000000b0: 5f78 42bd 6b20 11be 1f55 13bf 8aad 513d
000000c0: c43f 05be 5c1d 55bb 278f fe3d c8f5 9dbd
000000d0: cd96 cbbc f357 833d 07c9 803d 0f64 cf38
000000e0: b26d d7bd 22df 8e3d 81b9 d33c 1ed7 bfbd
000000f0: 2ffa 1a3d a8c4 3abd 0792 3abd 0a28 1fbe
00000100: 1910 783d 93e6 3abe 6734 e33d 4645 18be
00000110: 4012 94be 4d23 32be 6193 29be e4f6 ac3c
00000120: c350 b9bd 425b 4fbe acce 333c 719b a63a
00000130: 5242 cebd 97d3 763d 4633 713d 4f3f 10be
00000140: 5102 53be 01df 5fbe 679e 28bc ed60 73bd
00000150: acee b93d 4579 4fbd dd54 963c 194d dbbd
00000160: be25 4fbd a696 923c e53e 9b3d b2a5 753d
00000170: d0ef 003d 4f68 af3c 0d72 ae3d de1a 9dba
00000180: c966 a33d cb75 853d 7d7a 00bd fe00 3e3e
00000190: 85ce 9e3d ff26 e6bd 68fd 50bd d398 1e3d
000001a0: 2cb3 83be d9a4 5dbd 1fb2 003c 6b25 12be
000001b0: 7888 bd3d e871 a4be 5cd5 9c3c 2450 15be
000001c0: ff6e 123d 16a0 8fbd 02a3 74bd f9f8 f6bd
000001d0: a081 053d b12a 06be 55f8 29be 9858 62bd
000001e0: c41b eabd ac5a 8dbb 9dac 1a3a 131d 043e
000001f0: 05be e13d ff48 85be bdc1 1bbd 8987 45be
00000200: 7ef4 1fbe 0589 16be be1e 23be c6ce cebd
00000210: 3d56 e43d fc54 e3bd 5c91 253d d430 59be
00000220: 12f1 b8bd ec22 2ebe 951a f7bd 3b2b a0bc
00000230: 1e67 51be 36cd da3d 15ec b8bd 7851 a93d
00000240: 12c8 3ebe 4dc1 20be add4 12be 69b3 903c
00000250: 9306 81bd 8216 a13d 93e7 20be 0cf3 68bd
00000260: 3fb0 4e3d b249 02be a006 a4be dc53 213d
00000270: 2145 bebd e58d 48be ff24 52bd f826 23bd
00000280: 0dc0 6bbe 2dff 36bd 8fdb 36be 0525 163e
00000290: 018d c7bc 9f48 73bc e245 483e ed32 34be
000002a0: 3490 f53c 4afa 923d 6b82 83bd f572 89bc
000002b0: bccb 7ebd b2b0 fcbd fe7d dcbd 4f17 aa3d
000002c0: c0cc 0cbe e2e9 2e3d b8a5 ef3d f487 c83d
000002d0: 7b2a d0bd 86cc 7b3c c0b4 c2bd 0ff8 063c
000002e0: 68a7 9cbd 6b04 50bd 3e7e 53ba 7da5 103e
000002f0: b55e 57be 786b cc3c 29cc 563c 5f1a e2bb
00000300: 60e9 2c3c 3841 63bd a2d6 b0bd d7c8 7a3d
00000310: 765b 18be faa4 90bd 0c49 d03d ed11 c13c
00000320: 385a 54be 1b43 46be ccdd eebd 777e 1abe
00000330: 1dd1 23be ab97 8a3c c2cf 6bbd 98e8 96bd
00000340: c2ef f43d 62f0 07be 658f 04be 520b 273c
00000350: 1871 823c 82bd 8ebc a7f0 40be bf3b ad3d
00000360: c1be 0abe 323b 26be 27c2 763d fb2b 39be
00000370: 5524 e4bd 8433 a2bd 54b2 673d 6556 49bd
00000380: d213 fbbd 2720 973d 1cfb a73d 34fa 423d
00000390: 32f7 c6bd 4b76 09be 3be1 143d e1ca babd
000003a0: a66e e1bd 4c4d 05be 10ff 033e 91a9 5cbd
000003b0: 0026 c5bd 3d34 623d 6cd9 61be ddbd d53c
000003c0: 51fd d9bd da4d 41be 4757 10be 3bd4 a03d
000003d0: 8df3 3abd 89df 2bbe aeb6 ae3d 84f3 2c3d
000003e0: ac37 f9bd d945 683d 6b53 62be ccf2 f9bd
000003f0: fccf 02be 7218 e2bd dbd2 d3bd 823d 773c
-0.25372684 -0.14194115 0.11013686 0.05862301 0.006946973 -0.13693427 -0.06946388 -0.2074904
-0.21605274 -0.14588885 -0.18560503 0.11033474 0.071627535 0.008457996 -0.13571219 -0.2416057
-0.1660339 -0.11710417 -0.021452025 -0.17039044 0.0589102 -0.06291733 -0.07228635 -0.1928034
-0.044344585 0.00591064 0.003548612 -0.12138359 -0.03546182 -0.07764378 0.07034463 0.070594095
-0.06719947 -0.0059034573 -0.09952163 -0.0905734 0.13993491 -0.13712697 -0.020723015 0.05107179
0.00096927874 0.1249524 -0.0707074 -0.13156977 -0.047478076 -0.14172523 -0.5755176 0.05119089
-0.13012606 -0.003251872 0.12429648 -0.07712895 -0.02485218 0.06413259 0.06288343 9.8891665e-05
-0.105189696 0.06976153 0.025845291 -0.09367202 0.03783625 -0.045597702 -0.04554942 -0.15542617
0.060562227 -0.1825202 0.11093979 -0.14870176 -0.28920174 -0.17396279 -0.16560127 0.02111382
-0.09048607 -0.20249656 0.010974567 0.001271112 -0.10071243 0.06026038 0.05888679 -0.1408665
-0.20606352 -0.21862413 -0.010291672 -0.059418608 0.09078726 -0.05065276 0.018351013 -0.107080646
-0.050573103 0.0178941 0.075803556 0.059972472 0.031478703 0.021412043 0.08517847 -0.0011986156
0.07978589 0.06516608 -0.031366814 0.18555066 0.07754234 -0.11237907 -0.051022917 0.038719963
-0.25722635 -0.05411229 0.007854967 -0.14272086 0.09254545 -0.32118154 0.019144706 -0.14581352
0.035750385 -0.07012956 -0.05972577 -0.120592065 0.032594323 -0.13102223 -0.16598637 -0.05526027
-0.11431077 -0.0043137874 0.0005900355 0.12901716 0.110225715 -0.26032254 -0.03802656 -0.19289984
-0.1562061 -0.14700706 -0.15929696 -0.10098033 0.11149261 -0.11100194 0.04042183 -0.21210033
-0.090303555 -0.17005509 -0.12065617 -0.019551864 -0.20449492 0.10683672 -0.09029404 0.08267492
-0.18631008 -0.15698738 -0.14338942 0.017663674 -0.06300082 0.07865621 -0.15713339 -0.056872413
0.05046105 -0.12723425 -0.32036304 0.039386615 -0.09290529 -0.19585378 -0.051304813 -0.039832085
-0.2302248 -0.04467695 -0.17857192 0.1466256 -0.024359228 -0.014848857 0.19557908 -0.17597552
0.029975988 0.07176645 -0.0642136 -0.016778449 -0.062206015 -0.123383895 -0.107662186 0.08305227
-0.13749981 0.042703517 0.1170153 0.09791556 -0.101643525 0.015368586 -0.095071316 0.008237853
-0.07649118 -0.050785463 -0.0008067823 0.14125629 -0.21032222 0.024953589 0.013110199 -0.0069001163
0.010553688 -0.05548212 -0.08634688 0.061226692 -0.1487864 -0.07062717 0.101701826 0.023568118
-0.2073754 -0.19361536 -0.11663398 -0.15087305 -0.15997739 0.016918024 -0.05757118 -0.073685825
0.11959793 -0.13275293 -0.12945326 0.01019557 0.015923068 -0.017424349 -0.18841802 0.08458661
-0.1354933 -0.16233519 0.06024375 -0.18083183 -0.11139742 -0.07919982 0.05656655 -0.049154658
-0.1225964 0.073791794 0.08202192 0.047601894 -0.097151175 -0.13424031 0.03634761 -0.09120727
-0.11007433 -0.13017768 0.12890267 -0.05387265 -0.096263885 0.0552256 -0.22055596 0.02609151
-0.106440194 -0.18877354 -0.14095794 0.0785298 -0.045642424 -0.1678449 0.08530937 0.042224422
-0.12168822 0.056707237 -0.22102134 -0.12204513 -0.12774652 -0.11039819 -0.10342952 0.015090348

fc3.bias f4 [10]
00000000: 12a7 c13c eff7 fc3d 0b5f 1a3d 37f9 ad3d
00000010: cbe8 b33d c913 0ebe 1e6e 07be 05da a6bc
00000020: a97a 833e 7174 153d
0.023639236 0.12351977 0.037688296 0.084947996 0.08784636 -0.13874735 -0.132256 -0.020367632
0.2567952 0.036488

exp_avg f4 [6, 1, 5, 5]
00000000: 1cfa 27bb 57a3 803b 3086 f03b 1519 063c
00000010: 96da 223c b708 37bb 54d0 a03b 8b81 ae3b
00000020: 7f83 5d3b 255b a9bb 8ab4 84bb 39c2 d73b
00000030: db9f b23b 1d05 2dba 9d0b 3cbc eb66 20bc
00000040: 7f61 7e3a 8bbe 93ba 8266 8dbb 901b 46bc
00000050: 7b7d c9bc 11ee c1bc 8cb3 d9bc 049a bebc
00000060: ac93 a5bc 4cff 1cbc d01c 3abc 6047 2ebc
00000070: 24ee 1dbc dd33 97bc dde8 72bc 4dd6 15bc
00000080: 4da1 82bb 53b9 a4ba 74b1 dcbb ebd1 88bc
00000090: bcf2 16bc 86b3 993a 8aff 093c c9c6 413b
000000a0: bac7 7bbc 0d85 1abb a565 563c bac3 a63c
000000b0: 6dff 513c 8c46 33bc 81fd 093c 1eff e73c
000000c0: e40a 1d3d a573 023d a3e1 37bb 9cbe 75ba
000000d0: 4a3b 033c ff8e ea39 8629 d1bb cde3 edb9
000000e0: 813e 483a 4b0f 933a bb2f 02bc 0aaa f7bb
000000f0: e779 fd3a fa12 81ba 1191 2ebb c0df b2bb
00000100: f7d3 31bb 17b0 063c 5b50 a93b 55d9 fb3b
00000110: ca29 c83b 93f1 853b 6a9b 533b 2718 c03b
00000120: 7b94 843c 3146 803c 9f29 dd3b 3487 cbbc
00000130: 0da5 96bc 6426 73bb 89af b1bb 2ecb 3ebc
00000140: b8a4 d1bc 0204 8bbc 47c7 1c3a 8a90 3b3b
00000150: fbea ddb9 7c71 47bc de03 f9bb 6e69 d938
00000160: 7d36 6d3b 0aab 2c3b b820 96b9 4f94 983b
00000170: 8013 123c f8b3 ef3b 9043 483b 69d4 0a3b
00000180: 7991 bc3b b9a7 4b3b 0fda c0bb b5f5 b1bc
00000190: 528c 18bc 55cd c7bc d89d 22bd 4bc9 e7bc
000001a0: eba2 78bc ae89 8bbc d8ed efbc 792f c6bc
000001b0: c446 0ebc adba b6bb ea55 52bc 0419 68bc
000001c0: 732e 14bc b913 03bb 2e00 97bb 6986 bd3a
000001d0: 1e6a 053b c437 4939 ed97 313b 37c7 60bb
000001e0: f0cb 573c 32bc fa3b eeac 113b 5d82 ab3b
000001f0: 5a54 e33b ad30 9bba 44c5 c9bb b9a0 83bc
00000200: da60 a6bc 155e bbbc 9542 29bc 998f 4fbc
00000210: e697 6abc a50b 81bc 73e9 54bc 095b 50bc
00000220: 12bd 65bb 53bf d4bb 3cd1 25bc 53f5 29bc
00000230: 183e 21bc 3a23 17bb 24dc 0dbc 5f32 3dbc
00000240: 81a5 6dbc 2480 1abc bbbe c7bb b408 f5bb
00000250: 2823 28bc 348f 91bc
-0.0025631255 0.0039257216 0.007340215 0.008184691 0.00993981 -0.0027928778 0.004907647 0.0053255013
0.0033800302 -0.005168336 -0.0040498422 0.0065844324 0.005451185 -0.0006600188 -0.011477378 -0.009790163
0.0009703859 -0.0011271996 -0.0043151984 -0.012091532 -0.024595967 -0.02367309 -0.026574872 -0.0232668
-0.020212017 -0.009582352 -0.0113594085 -0.010637134 -0.009639297 -0.018457348 -0.014826027 -0.009145332
-0.0039865137 -0.0012567438 -0.0067350212 -0.01670166 -0.009213146 0.0011726476 0.008422742 0.0029567948
-0.015367443 -0.002357784 0.013085757 0.020357002 0.012817246 -0.010942113 0.008422256 0.028319892
0.038340464 0.03184857 -0.0028058074 -0.00093744113 0.008009741 0.00044738498 -0.006383124 -0.00045373887
0.00076387083 0.0011219768 -0.00794595 -0.007558112 0.0019338698 -0.0009847574 -0.002663676 -0.005458802
-0.0027134398 0.008220694 0.00516705 0.00768582 0.0061084973 0.004087636 0.003228868 0.005862254
0.016184082 0.01565847 0.0067493464 -0.024844743 -0.01838925 -0.003710174 -0.0054225367 -0.0116451215
-0.02559124 -0.016969685 0.00059806224 0.0028620088 -0.0004232748 -0.012173053 -0.007599338 0.00010367004
0.0036195808 0.0026347064 -0.00028634607 0.0046563516 0.008915782 0.007315155 0.0030557849 0.0021183735
0.0057546464 0.0031075312 -0.0058853696 -0.021723608 -0.009310799 -0.024389902 -0.039701313 -0.028294226
-0.015175561 -0.017033424 -0.029288217 -0.024192559 -0.008683864 -0.0055764527 -0.012837866 -0.01416612
-0.0090442775 -0.002000077 -0.0046081757 0.0014459613 0.002035744 0.00019189628 0.0027098611 -0.0034298429
0.013171181 0.007651829 0.0022228318 0.0052340464 0.0069375457 -0.0011840068 -0.006157549 -0.01606785
-0.020309854 -0.02287201 -0.010330816 -0.012668514 -0.014318442 -0.015752623 -0.012995112 -0.012717017
-0.0035055322 -0.006492534 -0.010120686 -0.010373431 -0.009841464 -0.0023061768 -0.008658443 -0.011547654
-0.014504791 -0.009429965 -0.006095735 -0.007477844 -0.010262288 -0.01776848

exp_avg_sq f4 [6, 1, 5, 5]
00000000: 7da8 f239 e661 353a 934d 9a3a d5f6 003b
00000010: e4cd 8d3b ed04 ad3a 818b d13a acc7 b53a
00000020: fbfd 803a a55d 373b c83c 773b fc12 413b
00000030: 08c7 933a 569b 013a 430a 1c3b 1964 af3b
00000040: 8478 7b3b 3088 993a 4b79 133a 100d 1f3b
00000050: a605 a13b 63b1 ab3b 22f6 603b c6ab 313b
00000060: 4606 5b3b d79e 333b 062a bb3a c9ef bd3a
00000070: 5045 0a3b fed5 893b 5844 753b 1a06 083b
00000080: a1dc 023b 134c 323b 8496 9d3b e5ec da3b
00000090: b537 aa3b 16ac 9a3b 6c1d a13b 24be d73b
000000a0: 59ce 1f3c 7b5a 0b3c 0204 003c 2895 053c
000000b0: cd76 233c 636c 433c 3dd5 383c 2f53 333c
000000c0: 2ba8 3c3c 04ec 693c 5ee2 883b 8693 bc3b
000000d0: 3cb7 ef3b 1c6f f23b fa10 ce3b 305b a13b
000000e0: cb61 e23b 501c 083c 1653 eb3b 93fb ad3b
000000f0: e70c c43b ced7 f73b b9ab ef3b 083e a13b
00000100: d507 633b 0d46 e53b afb9 f33b 7bd1 c13b
00000110: c3bb 6b3b ea56 263b 3c66 ee3b 1fc5 f33b
00000120: 31d2 b93b f230 533b 061d 153b 4a7f b13b
00000130: 341c d33b d106 043c e829 1d3c 8a41 193c
00000140: 073a c63b ab9f da3b 424f 093c 40f8 1d3c
00000150: 2885 0d3c af6b 943b d8e0 a33b 9231 e33b
00000160: 8723 fa3b afad db3b 4e1b 323b c834 693b
00000170: d74f c23b 62aa ca3b 183c bc3b 1e8c 203b
00000180: 1d7c 6a3b 9c62 ac3b 5459 af3b 0d8e d43b
00000190: 9c11 603c c770 e73b a138 8c3b da62 2d3b
000001a0: d02d 223b cf45 193c 7f6c 873b 4bb1 813a
000001b0: 48b7 6e39 4342 f33a 837f db3b b651 e93a
000001c0: 00a2 e838 c862 3f39 a399 7a3b 8941 8e3b
000001d0: 6f69 0b3a 02a6 1538 1413 ae3a 35d1 0d3c
000001e0: 996f 8a3b 50d2 113a 32d1 673a b155 c03b
000001f0: e8c2 813c 9565 603b 975e 8b3b a776 9b3b
00000200: 3b63 923b 52d1 b43b 03bc fd3b 39a2 0f3c
00000210: 3b1d e03b 787a 983b a187 853b 68bd 2e3c
00000220: be66 0d3c 9dfc 9c3b 4ecc 363b e663 193b
00000230: 2bfe cf3b 4138 2a3b a5b0 a83a 8c6e a53a
00000240: 903c c93a 9061 363b 56c6 0a3a f022 b439
00000250: 1fe1 333a 1c91 293b
0.0004628337 0.000691919 0.0011772386 0.0019678373 0.0043275226 0.001320032 0.001598701 0.0013868711
0.0009841317 0.00279794 0.0037725437 0.0029460778 0.0011274526 0.00049441063 0.0023809827 0.0053525087
0.0038371393 0.0011713561 0.0005625679 0.002426926 0.0049140034 0.005239652 0.0034326394 0.0027110442
0.0033420487 0.0027407908 0.0014279492 0.0014491017 0.0021098442 0.004206418 0.003742477 0.002075559
0.001996793 0.0027205988 0.0048092026 0.006681072 0.005194629 0.0047202213 0.0049168374 0.006583946
0.009753787 0.008505459 0.007813456 0.008153237 0.009977055 0.011927697 0.011281309 0.0109451255
0.011514704 0.014277462 0.0041773757 0.005754891 0.0073155444 0.007398499 0.006288645 0.0049242005
0.0069086305 0.0083075315 0.0071815355 0.005309531 0.0059829834 0.0075635677 0.007314172 0.004920725
0.003464212 0.006996876 0.0074379067 0.0059148646 0.003597007 0.0025381395 0.007275371 0.00743927
0.0056708087 0.0032225219 0.0022752895 0.0054167854 0.006442571 0.008058266 0.009592511 0.009354005
0.006049398 0.006671866 0.008380713 0.009641707 0.008637704 0.0045294384 0.0050011687 0.0069333995
0.0076336297 0.0067040543 0.002717692 0.0035584439 0.005929928 0.006184862 0.0057444684 0.002449758
0.0035779544 0.0052607786 0.005351225 0.0064866603 0.013676073 0.0070630047 0.0042792116 0.0026456625
0.0024746545 0.009355023 0.004132807 0.0009894756 0.00022765726 0.0018559176 0.00669855 0.0017800841
0.00011092797 0.00018251978 0.0038238547 0.0043413085 0.000531814 3.5678975e-05 0.0013280832 0.008655836
0.0042247293 0.000556265 0.0008843123 0.00586959 0.015840009 0.0034240235 0.0042532193 0.004744369
0.0044673956 0.005518117 0.00774336 0.008766704 0.006839422 0.0046532713 0.004075006 0.010665275
0.008630453 0.004790856 0.0027892771 0.0023405491 0.006347438 0.0025973471 0.0012870027 0.0012621447
0.0015353132 0.0027829148 0.00052938366 0.00034358306 0.0006861854 0.0025873845

exp_avg f4 [6]
00000000: eb04 18ba 86e8 c7b9 e9d4 19ba 20f2 0fba
00000010: 46fc 983a 7368 0fb9
-0.00057990727 -0.0003812948 -0.0005868213 -0.00054910965 0.0011671863 -0.00013676453

exp_avg_sq f4 [6]
00000000: 6e43 a636 f22c b736 18a9 9e36 6878 a836
00000010: b7f4 ce36 3dd8 0935
4.9550354e-06 5.4590573e-06 4.728452e-06 5.0208073e-06 6.167767e-06 5.1351145e-07

exp_avg f4 [16, 6, 5, 5]
00000000: 9be8 6aba 3c30 983a 8ff3 893a 689a 2b3b
00000010: 5393 103a 93cd b8b8 5343 073a ea2e 923b
00000020: aad8 af3b 2a82 8a3a 0b4b 89b8 407e 523a
00000030: a9b8 9e3a a2ad 053b 0fb3 083b 9fd1 9d39
00000040: ae38 e4b9 618a 13b9 c9d6 b439 7fb1 a439
00000050: be02 7fb9 597c b1b9 6672 e739 a51f 153b
00000060: 9bd9 a03a a989 10bb 44f1 d138 7230 1f3b
00000070: 9d82 0e3b b849 093a b1a9 4e3b e9ef bf3b
00000080: adee a53b 7bf1 263b fccd 3a3b 612e aa3b
00000090: 0250 0d3b 8ce6 573a b0b0 3c3b 1f8b e33b
000000a0: 5377 523b 3d2b 313a 02df f23a b606 053c
000000b0: d1cb 323c 3504 093b 0a7f 8b3b bc48 033c
000000c0: 8eb1 2f3c 8385 133c fd83 303a e616 d53a
000000d0: 9b14 ae39 8402 c2bb 9b87 84bb 8de8 24b9
000000e0: 7006 913b af8c d33b f943 afba 5e59 02ba
000000f0: 6ae9 3a3b ab16 093c 9654 5e3b 4f1d 68ba
00000100: 7500 3235 332d 6c3b 098c bf3b 11ec 2fba
00000110: a09e 12bb 6535 9a3a 47fb 323a 093e 3a3b
00000120: a00b 50ba acab aeba afe2 873b 7a6f b0ba
00000130: eb2d a6ba ff38 57bb 49d8 1abc bb8e 0dbc
00000140: e95f 0b3b c4d3 803a 4d5c 87bb 38d5 26bc
00000150: f147 41bb d2b7 2e3b bb14 403b b278 31bb
00000160: 962c 4ebb abe3 2dba a045 bc3b 15b0 0c3b
00000170: 0de4 daba 51e4 b9b9 28e5 9f3a e43a 923b
00000180: 00f1 c13a 9386 b7b9 363e 2f3a eb8d 933b
00000190: 8b8d 863b 2468 ae3a b3a5 82ba efc8 de38
000001a0: bf2c 1abb f033 fb3b 55b3 a839 82d6 5f3b
000001b0: 83fb 293b ac76 2e39 586a 863b 9f83 9b3a
000001c0: bd62 283b ff53 603b 20fe e23b 41d9 433a
000001d0: 38ab ae3a ff53 483a ecff 983b f929 153b
000001e0: bfcb 433a 2139 01b9 4600 8239 c0a0 88ba
000001f0: d29d 44b9 fcff 4bba 4611 33ba 7618 23b8
00000200: d6eb 9fba 21d9 b9bb 7cd2 8eb9 8fe7 8137
00000210: 0e72 313b 8575 233a 2d17 22ba 4862 a839
00000220: be44 893b 755d 9a3b c319 333b 919c 8739
00000230: 031c a83a 6080 0a3a 1cf3 fdb8 9fe1 0d38
00000240: 5b3f 5bba c829 8eba 8534 6dba ef27 b9ba
00000250: 6a9a 65ba 6a22 3a3b 0ae6 a3b9 f35a 3fba
00000260: 3030 543b af3b c83a 97dc c13a c71a b63a
00000270: aa6e 733a eb61 e23a 7572 3d3b 1701 90ba
00000280: 3f38 643a aca8 083b 631f 9e3a c3cb 4d3a
00000290: 9749 09bb cd6c ae38 072d 5aba e283 63ba
000002a0: ad6f 023a 3413 67bb 0543 deba 285f 95ba
000002b0: e836 26bb 7f32 f3ba 29eb 56bb 5227 743b
000002c0: e03a be3b fd51 8a3b 3a49 023b 51a8 ee39
000002d0: 0178 733b 22bb 813b 3d8b 203b dff0 1039
000002e0: a521 09ba 70fb 0e3b 2e71 3139 4e39 d7ba
000002f0: 6f26 ecba dd6c 21bb 495b faba 8dfb abbb
00000300: bb15 abbb a359 7ebb 1be7 99ba 918a 53bb
00000310: 31b4 bebb 9e43 3fbb 239f 0bbb 9b43 68ba
00000320: 2d4f 06bb 3a2c a63a 5e22 d23b 2ee4 583b
00000330: 356b f43a b929 91ba 22a4 8d3b ea5a d63b
00000340: d44a 563b 1769 7e3a 7b80 d73a 9054 8c3b
00000350: 9eab 8d3b f579 e83a 2774 09bb 9c5d d4ba
00000360: c5aa 963a 2b13 603b 9b7f 5dbb e4da 40bb
00000370: b23f bbbb 3fe2 cc39 cf4f febb a1e0 70bb
00000380: ad13 b7ba 2f4a 023b 8bec 1f3a e4b0 b639
00000390: c92d 253a 3ccb 22ba b664 723b a665 823b
000003a0: 7830 f53a afff 803a ed48 06ba 4a06 453c
000003b0: 7f92 3a3c 6513 c13b 72c8 183b 135d 4e3a
000003c0: 27d4 a93b 4c41 8d3b d31e 993b 5af2 c939
000003d0: b925 8d39 9611 6bba 7c32 27b9 ee44 0e3b
000003e0: a950 133a b593 2cba 6e0f ea3a 4e28 263a
000003f0: 528f b43a 5c03 373b b90e 2e3b 1b2d 5b3a
-0.00089610525 0.0011611055 0.0010524857 0.0026184563 0.0005515117 -8.812095e-05 0.00051598734 0.004461159
0.0053664045 0.0010567356 -6.546647e-05 0.0008029677 0.0012109476 0.0020397683 0.002085868 0.00030101553
-0.00043529778 -0.00014070563 0.00034492303 0.00031412762 -0.00024319717 -0.00033852717 0.00044144987 0.0022754457
0.0012271883 -0.0022054708 0.00010010836 0.002429035 0.0021745332 0.000523712 0.003153425 0.005857457
0.0050638528 0.0025473523 0.0028504124 0.005193517 0.002156258 0.0008235953 0.0028791837 0.0069440748
0.003211458 0.0006758457 0.0018529596 0.008119276 0.010912851 0.0020907049 0.0042570876 0.008012947
0.010723485 0.009004 0.0006733535 0.0016257435 0.00033203218 -0.00592071 -0.0040444857 -0.0001572689
0.0044258162 0.00645598 -0.0013371698 -0.0004972423 0.0028520473 0.008367221 0.003392493 -0.0008854465
6.631083e-07 0.0036037683 0.005845551 -0.0006710897 -0.002237238 0.001176518 0.00068276044 0.0028418323
-0.00079363026 -0.0013326309 0.004146896 -0.0013460957 -0.001267848 -0.0032840369 -0.00945098 -0.008639987
0.0021266884 0.0009828736 -0.004130876 -0.010182671 -0.0029492343 0.0026659858 0.0029309231 -0.0027079997
-0.003145968 -0.00066333514 0.0057456046 0.0021467258 -0.0016700045 -0.0003545606 0.0012199031 0.0044625867
0.0014796555 -0.00035004746 0.00066849904 0.004503002 0.0041062287 0.0013306183 -0.0009967595 0.00010623212
-0.0023525206 0.0076661035 0.0003217707 0.0034154956 0.0025937266 0.00016638142 0.0041020326 0.0011864788
0.0025693618 0.0034229753 0.0069272667 0.0007471033 0.0013326174 0.0007641911 0.00466918 0.0022760613
0.000746902 -0.00012323681 0.00024795736 -0.0010423884 -0.00018750809 -0.000778198 -0.0006830882 -3.888501e-05
-0.0012201022 -0.0056716357 -0.00027241174 1.5485826e-05 0.0027076039 0.00062354683 -0.0006183263 0.00032116682
0.004189103 0.004710848 0.0027328588 0.00025865858 0.0012825731 0.00052834116 -0.00012109263 3.3827146e-05
-0.0008363628 -0.0010846192 -0.00090486585 -0.0014126281 -0.0008758666 0.002840186 -0.00031261175 -0.0007299624
0.0032377355 0.0015276576 0.0014790472 0.0013893478 0.00092862046 0.0017271613 0.0028907333 -0.0010986653
0.0008705891 0.002085249 0.0012063797 0.0007850492 -0.0020948404 8.317232e-05 -0.00083227496 -0.0008679015
0.00049757474 -0.0035259249 -0.0016957229 -0.0011396157 -0.0025362317 -0.0018554478 -0.0032793975 0.0037254882
0.0058053583 0.0042211995 0.0019880072 0.00045520303 0.0037150385 0.0039590755 0.0024497055 0.00013822642
-0.00052311487 0.002181735 0.00016922198 -0.0016420276 -0.0018016825 -0.0024631538 -0.0019100691 -0.005248493
-0.0052210963 -0.0038810752 -0.0011741848 -0.0032278637 -0.0058198203 -0.002918459 -0.002130457 -0.00088601717
-0.002049397 0.0012677975 0.0064127883 0.003309499 0.0018647673 -0.0011075056 0.0043225447 0.0065415995
0.003269841 0.00097049907 0.0016441488 0.0042825416 0.004323437 0.0017736541 -0.0020973773 -0.0016202214
0.0011494985 0.0034191112 -0.0033797983 -0.0029427344 -0.00571438 0.0003907848 -0.007760979 -0.0036754983
-0.0013967656 0.0019880643 0.00061006163 0.0003484554 0.0006301073 -0.0006210094 0.0036986298 0.0039794026
0.0018706461 0.0009841825 -0.0005122561 0.012025425 0.011387466 0.0058922046 0.0023312834 0.00078721455
0.0051827612 0.0043107625 0.004672864 0.00038518274 0.0002692172 -0.0008967159 -0.00015945168 0.0021708566
0.0005619624 -0.00065832894 0.0017857382 0.00063384033 0.0013775623 0.0027925586 0.0026559068 0.0008360908
