checkpoint/MLP_1_Layer checkpoint/best_model.pth (torch, 97536 bytes, 6 tensors)

MLP.weight f4 [10, 784]
00000000: 4f0d 033d 1c18 013c 1274 ff3c 981d 31bc
00000010: 40ad 70ba 3e9c a5bc 2366 d2bc a54f a7bc
00000020: 06b4 e03c e5cb 87bc bef1 ffbc 9edf f53c
00000030: c02c ef3a 10bf a03c 342c 683c 3c2e 5abc
00000040: 2a83 943c 90ba 8abb 92bb 1cbc 26e8 2abc
00000050: 8030 fab9 dc36 a5bb a89f 8dbb 1c4b 0fbd
00000060: 489a f3bb 2a26 b93c fa92 fcbc f6fa fa3c
00000070: 809c f9b9 b0c5 873c 00e1 edbb ec49 d93c
00000080: 5aea e43c e810 ffbc 8a29 843c f8c9 e13b
00000090: d1d9 e9bc f4f3 fb3b a56f 1fbd 976e 103e
000000a0: 98d9 b23d c043 183e cc6f 953b e5f2 013e
000000b0: 640a 1c3e 2769 303e 6028 88bb ab31 0abd
000000c0: 385e debc ca8f 11bd bc0f 313c 7587 bbbc
000000d0: d865 ad3b 163a b33c c052 ba3c 8709 99bc
000000e0: be79 e43c 40d1 32bc 8159 073d 1590 113d
000000f0: c09f 123d 754f 2bbd e166 47bd 5b66 e43c
00000100: 0cdb 73bd ac3c a3bd 8623 62bd 399b 82bd
00000110: fb5c ffbd 9375 07be e3d2 41be ebcb 41be
00000120: 1c2c bebd 7e23 21be e640 e2bd cefc a3bd
00000130: d597 abbd b259 21bd ad3a 86bc df3d 0d3d
00000140: 7ccf c6bc 2aea f9bc e617 dc3c 9a0b 9ebc
00000150: d4c3 b8bb b83a 863b 026a b53c be4d b73d
00000160: c989 45bc 153b e83c 2265 ccba 2c32 bcbd
00000170: 6e82 debb 707f b0bd e863 8ebd fb64 dcbb
00000180: cac7 33bd 8802 c73b 5529 543b 86c3 6cbc
00000190: 098b 40bd 3b9e 173c e773 59bd e84a c2bc
000001a0: d846 07bd 1ef9 a4bd c7b7 49bd 2142 53bc
000001b0: a755 613d 77ce ab3c ae08 60bd be4e 933c
000001c0: 9320 fabc a06b b9ba a191 073d bad4 72bb
000001d0: 6830 48bd 65e6 fbbd 089d c0bd 42be c63c
000001e0: 769d c9bc c48c 873d b34f 93bb 8b48 843d
000001f0: 907d 83bc 51ac 173d 0c71 1fbc 10c7 ff3c
00000200: 4411 74bc 55b7 c33c e9da d7bc 1fee 31bc
00000210: c9a0 913c 16b4 10bd 695b 433d 9df9 7ebd
00000220: 8f0c 8ebd 2d3e a83b b3e6 a0bd ba2a fbbc
00000230: 0006 29ba 4abf efbc 6c24 fd3c 3e06 93bc
00000240: 07a3 6ebd 8948 26be fa59 423d 5566 9f3c
00000250: 4e00 fe3c 99f8 a03c b004 e43b 9680 f73c
00000260: b66c 90bc 3ef5 35bc 6dfc 083d 1715 47bc
00000270: 47ff 69bb 505b e63c cb24 8c3b 82cb 363c
00000280: 5806 7dbc d3c8 ffbc 05fb ac3c 7b21 6abd
00000290: 829d 37bd d26a 00be dace f6bc c40d e5bc
000002a0: 959b 83bc 84f8 523c 2b23 dbbc 724a 60bb
000002b0: 53b6 8ebd 2fd9 02bc 740e 013d 0ad5 b1bb
000002c0: b116 9fbc 621e aabd 13eb cc3c e68e 513c
000002d0: 83aa edbb 61c6 2e3d 147b 463c 4fa9 aabb
000002e0: 7b96 423a 8f2b 12bc 0eea 113d 61b9 a73c
000002f0: d955 d3bc e03f 083d 84fe b13c 7bea 6abc
00000300: 7b8d 14be 9822 52be 2f76 ebbd 1535 82bd
00000310: b8df f93b 04e1 533b c8d1 32bd a485 253c
00000320: a8a1 9ebd b386 a4ba 1c74 2e3d b939 b63c
00000330: 0cdb 46bd 5d58 0b3d d05f 563c 7da0 b4bb
00000340: de25 5ebb 99ad c53c db74 8a3c 526f 593c
00000350: e2aa 1dbc 4794 893c 1dd2 863c ecef 1fba
00000360: ddb6 e53c 2e46 79bc a29a e5bc 09ba 0a3d
00000370: 9a6e 28bc 237a bdbd d04c 25be d723 743c
00000380: f846 3d3e b800 863c b545 783d 1457 0a3e
00000390: 79ba 81bd 198b fabc ec0c 82bc 39f5 be3c
000003a0: e862 f9bb 8962 4c3d 33af 69bc 8a70 d13c
000003b0: 11cd 033d 6ff8 0bbc 8bb7 a13c 55ad 043d
000003c0: 6971 783d 498f f63c 69b0 f23c 70e9 4dbc
000003d0: c4eb 1d3d ea51 983c 5519 833c 42a2 993b
000003e0: 2bf0 bb3a fb48 63be 19d1 f0bd 6481 843b
000003f0: bc20 6b3c e0a9 303b 472d 593e 3c84 223c
0.031995114 0.007879283 0.031183276 -0.010810278 -0.00091810897 -0.020216104 -0.025683468 -0.02042372
0.027429592 -0.016576717 -0.031243201 0.030013856 0.001824759 0.019622356 0.014170695 -0.013316687
0.01812895 -0.0042336658 -0.009566205 -0.010431325 -0.0004771985 -0.00504194 -0.004322011 -0.03498374
-0.0074341632 0.022601206 -0.030831803 0.030637246 -0.00047609583 0.016573757 -0.007259488 0.026524507
0.027943779 -0.031135991 0.016133089 0.0068905316 -0.028546246 0.0076889936 -0.038924832 0.14104687
0.08732909 0.14869595 0.0045604464 0.12690313 0.15238339 0.17227612 -0.0041552037 -0.033738773
-0.027144536 -0.03553752 0.010806974 -0.02289174 0.0052916817 0.021878283 0.022744536 -0.0186813
0.027890082 -0.010914147 0.033044342 0.035537798 0.03579688 -0.041823823 -0.048682097 0.027880838
-0.05953507 -0.079705566 -0.05520966 -0.063772626 -0.124689065 -0.13228445 -0.18928103 -0.18925445
-0.09285757 -0.15736195 -0.11047535 -0.08007203 -0.08378569 -0.03939218 -0.0163854 0.034482833
-0.024268858 -0.030507166 0.026866864 -0.019292641 -0.005638579 0.0040963553 0.022145275 0.08950375
-0.012056776 0.028348485 -0.0015594105 -0.09189257 -0.006790451 -0.08618057 -0.06952649 -0.006725905
-0.043891706 0.0060733 0.0032373269 -0.014450913 -0.047007594 0.009254034 -0.05308905 -0.023717359
-0.033026546 -0.08055328 -0.04924753 -0.012894184 0.055013325 0.020972474 -0.054695778 0.017981883
-0.03053311 -0.0014146455 0.033097867 -0.0037053064 -0.04887429 -0.12299804 -0.09404951 0.024260644
-0.024611216 0.06618646 -0.004495585 0.06459149 -0.016051084 0.037029568 -0.009731542 0.03122285
-0.014896695 0.02389113 -0.026349502 -0.010859995 0.017776864 -0.035327993 0.047694597 -0.06224977
-0.06935989 0.005134365 -0.078565024 -0.030660022 -0.00064477324 -0.029266018 0.030901156 -0.017947312
-0.058260944 -0.16238607 0.04744909 0.019457975 0.031006005 0.01964979 0.0069585666 0.030212682
-0.017629962 -0.011105834 0.033443857 -0.012151024 -0.0035705136 0.028119713 0.004276847 0.0111569185
-0.015443407 -0.03122369 0.02111579 -0.057160836 -0.044827946 -0.12540749 -0.030127931 -0.027960666
-0.016065398 0.012876634 -0.026750168 -0.003422406 -0.06968369 -0.007986351 0.031507924 -0.0054270076
-0.01942 -0.08306576 0.025014436 0.012790417 -0.0072529926 0.042669658 0.012114305 -0.0052081714
0.0007422936 -0.008921518 0.035623603 0.020474138 -0.025797771 0.03326404 0.021727808 -0.014338131
-0.14507096 -0.20521009 -0.11497151 -0.06357781 0.0076255463 0.0032330165 -0.043657094 0.010102663
-0.07745677 -0.001255235 0.0425912 0.022244321 -0.048548743 0.034019817 0.013084367 -0.0055122958
-0.0033897082 0.02413063 0.016901424 0.01327117 -0.009623261 0.016794337 0.016457612 -0.000610112
0.028041298 -0.015214486 -0.028027836 0.033868823 -0.010280276 -0.09251811 -0.16142583 0.014901123
0.18484104 0.016357765 0.060613353 0.1350978 -0.06334395 -0.030583905 -0.015875302 0.02331029
-0.0076106675 0.049898658 -0.014262962 0.025566358 0.03217799 -0.008543118 0.01974084 0.032391865
0.06065503 0.03009762 0.029625135 -0.012567863 0.03855492 0.018593747 0.01600329 0.004688532
0.0014338543 -0.22195809 -0.11758632 0.004043745 0.014351066 0.0026956722 0.21208678 0.009919222

MLP.bias f4 [10]
00000000: a483 9dbe 4129 2e3e 4262 173e 4059 44be
00000010: 00ca 863d 6495 3f3f d2a0 24be f5f3 913e
00000020: 6231 0ebf 8e8c 1cbe
-0.30764496 0.17007925 0.14783576 -0.19174671 0.06581497 0.74837327 -0.16076973 0.28506437
-0.555441 -0.15287992

exp_avg f4 [10, 784]
00000000: 0000 0000 0000 0000 0000 0000 0000 0000
00000010: 0000 0000 0000 0000 0000 0000 0000 0000
00000020: 0000 0000 0000 0000 0000 0000 0000 0000
00000030: 0000 0000 0000 0000 0000 0000 0000 0000
00000040: 0000 0000 0000 0000 0000 0000 0000 0000
00000050: 0000 0000 0000 0000 0000 0000 0000 0000
00000060: 0000 0000 0000 0000 0000 0000 0000 0000
00000070: 0000 0000 0000 0000 0000 0000 0000 0000
00000080: 0000 0000 0000 0000 0000 0000 0000 0000
00000090: 0400 0000 0400 0000 2400 0000 5301 0000
000000a0: 4cde 1e00 953c 9000 efa0 eb0d 9094 b39a
000000b0: 196d 759b 4574 e99a 0400 0000 0400 0000
000000c0: 0400 0000 0400 0000 0000 0000 0000 0000
000000d0: 0000 0000 0000 0000 0000 0000 0000 0000
000000e0: 0000 0000 0000 0000 0000 0000 bb7b 3096
000000f0: df6c 7395 0400 0000 0400 0000 fdc1 350c
00000100: 0fd4 4517 158f a317 3e4f e015 c16e 5c0f
00000110: c6b4 7e39 1848 c539 89a7 013a 5b62 aa39
00000120: 6a3c 9239 3148 9638 ad79 909c f4ae 019d
00000130: c011 f607 6d3c 0e05 4835 a605 3fc0 5705
00000140: 0400 0000 0000 0000 0000 0000 0000 0000
00000150: 0000 0000 0000 0000 0000 0000 6085 e722
00000160: d7d0 d124 0400 0080 a55f c824 a738 4d26
00000170: 7dc9 82b8 f242 87b9 facc d9ba d55d 5fbb
00000180: 9cf9 473a 495d 3b3d 74fe 573e 40d8 ae3e
00000190: 060e b03e b2ef 233e 6c67 d13d 220b b23d
000001a0: df27 623d f143 363c fd16 3bb4 4e48 e2b3
000001b0: 3abc e22c 0400 0000 0400 0000 0000 0000
000001c0: 0000 0000 0000 0000 0400 0000 b294 4a23
000001d0: 1474 b62e c2e9 4aaf 4001 cdb1 7295 d9b8
000001e0: 0e04 983c af1c 833d aafd 073e 19b4 713e
000001f0: 8421 9e3e d6cd 083f 1a04 3e3f 0ffc 073f
00000200: 064c b73e f274 ad3e 693c 1c3e 25a2 9b3d
00000210: 82d0 de3d 5044 ac3d d23c 2fbd efe8 11bd
00000220: 29bc 1eb9 9227 b02b c268 8d0d 0400 0000
00000230: 0000 0000 0000 0000 93f7 9c11 99f6 c624
00000240: 9ab5 912f ad47 693d 48c8 5f3e 086c 6f3e
00000250: 1853 993e 3a0b a93e dd18 d73e fb9c ea3e
00000260: 1b0b 253f 4301 1a3f c5c2 c93e 15d1 843d
00000270: cd57 bb3d 6ae4 5f3e 2376 6238 9436 b5bd
00000280: 99cf b63c 47f4 3ebd 0423 15be 49b3 61be
00000290: 2f8d f7bd 09e1 9c2c b07c 8617 f72c 2218
000002a0: 0000 0000 0400 0000 f88a 4128 e9de ef06
000002b0: 48e4 b7b4 4c27 3f3e c38b c93e 81ec d03e
000002c0: caa5 c73e 041a b73e 24a2 e93e 3856 eb3e
000002d0: 402e 913e aa51 313e bc25 e7bb 6945 81be
000002e0: 55f0 c8bd 80f8 073e 9bdb 8d3d 7e49 d93d
000002f0: fb74 603e ec5c 9f3c 8141 0ebe 2cf7 a1be
00000300: 16e8 b5be ed69 42b7 4995 852a 7feb b818
00000310: 0000 0000 0400 0000 6563 cf07 20aa 1e08
00000320: 2195 77b5 2c97 3c3e ff1f 893e cf12 fd3d
00000330: f876 f23d 9249 6e3d 5259 7e3e 09b2 843d
00000340: cae2 83bc deed da3d 5ce7 0a3e a5bf d33d
00000350: 6ab3 8c3d 858e 903e b393 213e 153c c93d
00000360: 9867 2e3a 8aa4 28bd 5b84 ce3d 6507 72bd
00000370: bfb4 85be 9683 3fb7 c3af e229 0400 0000
00000380: c6ab 0780 0400 0000 7c15 6407 eb96 8a09
00000390: ff97 77b5 ee8c 3d3e 0c13 af3e f200 343e
000003a0: f49c f53d 788e 823e 86ce 053e 25c0 94bd
000003b0: 9e62 f63b c654 463e 7f61 e43e 3664 e53e
000003c0: 420c 8f3e faa1 fa3e 1ff2 fe3e 273d 993e
000003d0: 87b5 0b3a b4e2 5ebe 15b3 03be 612b c4be
000003e0: 53f0 8bbe 8ea0 5533 3c97 e11d 0400 0000
000003f0: 0400 0000 0400 0000 4d49 87a2 e9b3 a033
0.0 0.0 0.0 0.0 0.0 0.0 0.0 0.0
0.0 0.0 0.0 0.0 0.0 0.0 0.0 0.0
0.0 0.0 0.0 0.0 0.0 0.0 0.0 0.0
0.0 0.0 0.0 0.0 0.0 0.0 0.0 0.0
0.0 0.0 0.0 0.0 6e-45 6e-45 5e-44 4.75e-43
2.83481e-39 1.3246044e-38 1.4521737e-30 -7.427268e-23 -2.0301176e-22 -9.6554385e-23 6e-45 6e-45
6e-45 6e-45 0.0 0.0 0.0 0.0 0.0 0.0
0.0 0.0 0.0 -1.4256209e-25 -4.9159343e-26 6e-45 6e-45 1.4002109e-31
6.392179e-25 1.0569747e-24 9.05979e-26 1.0868168e-29 0.00024290671 0.00037628482 0.0004945924 0.00032498207
0.00027892302 7.166004e-05 -9.560573e-22 -1.7163456e-21 3.7024399e-34 6.6879064e-36 1.5630137e-35 1.01445614e-35
6e-45 0.0 0.0 0.0 0.0 0.0 0.0 6.275389e-18
9.099309e-17 -6e-45 8.68982e-17 7.120044e-16 -6.236413e-05 -0.00025799085 -0.0016616874 -0.0034083028
0.0007628442 0.04574326 0.2109316 0.3414936 0.343857 0.16009405 0.10224804 0.0869353
0.055213805 0.011124597 -1.7424095e-07 -1.0537097e-07 6.4442037e-12 6e-45 6e-45 0.0
0.0 0.0 6e-45 1.0981929e-17 8.2970214e-11 -1.845484e-10 -5.9664274e-09 -0.00010375203
0.01855662 0.06401955 0.13280359 0.23603858 0.30884945 0.5343908 0.7422501 0.53118986
0.3580019 0.33878285 0.1525742 0.07599286 0.108796135 0.08411467 -0.042782612 -0.035622533
-0.0001513815 1.2516535e-12 8.715015e-31 6e-45 0.0 0.0 2.476504e-28 8.6286565e-17
2.6504382e-10 0.05695312 0.21853745 0.23381054 0.29946208 0.33016378 0.42011157 0.45822892
0.6447007 0.60158175 0.3940641 0.06485192 0.09147606 0.21864477 5.3992622e-05 -0.088483006
0.022315787 -0.04661968 -0.14564139 -0.22041048 -0.120874755 4.4587706e-12 8.691023e-25 2.096071e-24
0.0 6e-45 1.0743786e-14 9.0229345e-35 -3.4252503e-07 0.18667334 0.39364442 0.40805438
0.38993675 0.35762036 0.45631516 0.45964217 0.28355598 0.17316309 -0.007054059 -0.25248268
-0.09811465 0.13278389 0.06926652 0.10609721 0.21919625 0.019453488 -0.13892175 -0.3163389
-0.3552863 -1.1587964e-05 2.3729133e-13 4.7800676e-24 0.0 6e-45 3.1204317e-34 4.7746376e-34
-9.223168e-07 0.18417042 0.26782224 0.12357103 0.11839098 0.05817563 0.2483876 0.0647927
-0.016099352 0.10689901 0.13564819 0.10339288 0.06870158 0.28233734 0.15778999 0.09825913
0.000665301 -0.04117254 0.100838386 -0.059089083 -0.2611446 -1.1415124e-05 1.0066906e-13 6e-45
-7.04469e-40 6e-45 1.7159127e-34 3.3364214e-33 -9.2235854e-07 0.18510792 0.3419422 0.17578486
0.11992827 0.2549932 0.13067064 -0.07263211 0.0075190803 0.19368276 0.44605634 0.44803017
0.2793904 0.48951703 0.497941 0.29929468 0.0005329479 -0.21766168 -0.12861283 -0.38314345
-0.2733179 4.973895e-08 5.9713377e-21 6e-45 6e-45 6e-45 -3.6669434e-18 7.483306e-08

exp_avg_sq f4 [10, 784]
00000000: 0000 0000 0000 0000 0000 0000 0000 0000
00000010: 0000 0000 0000 0000 0000 0000 0000 0000
00000020: 0000 0000 0000 0000 0000 0000 0000 0000
00000030: 0000 0000 0000 0000 0000 0000 0000 0000
00000040: 0000 0000 0000 0000 0000 0000 0000 0000
00000050: 0000 0000 0000 0000 0000 0000 0000 0000
00000060: 0000 0000 0000 0000 0000 0000 0000 0000
00000070: 0000 0000 0000 0000 0000 0000 0000 0000
00000080: 0000 0000 0000 0000 0000 0000 0000 0000
00000090: 0000 0000 c6f9 6233 092b 8737 3783 fa39
000000a0: 8d64 f43a bc2f a539 93d8 2a33 8a7a 173b
000000b0: 915a 8d3c 520a b23b e6e3 cf38 c93a 2801
000000c0: 0000 0000 0000 0000 0000 0000 0000 0000
000000d0: 0000 0000 0000 0000 0000 0000 0000 0000
000000e0: 0000 0000 0000 0000 0000 0000 62c6 2238
000000f0: dfd6 9a36 b963 192f f670 5335 3b4b 2b37
00000100: 5ddf 0a39 5218 c239 b88d 2938 0e94 333b
00000110: bad2 d23b 4352 273c b0c6 183c 6754 023c
00000120: ce51 803c 9b0a 003b 549e 9d3a 5d32 ed38
00000130: 9b0e 4438 0417 c726 ec2f 8724 d325 3b0e
00000140: 0000 0000 0000 0000 0000 0000 0000 0000
00000150: 0000 0000 0000 0000 0000 0000 c6d1 aa39
00000160: 3cee aa38 9960 cc3b e25a a63b 7a6e 393c
00000170: ef38 1a3d 8460 733d af16 d83d e10b 2a3e
00000180: 6334 3c3e 43a2 4a3e cb7a 833e 6494 9b3e
00000190: 88af b43e 713e 923e de9a 6b3e c704 663e
000001a0: b639 303e ce86 bd3d 0b88 973c 5e69 a33a
000001b0: 6ab3 d13a 3f4a 193a 3f75 e837 0000 0000
000001c0: 0000 0000 0000 0000 0000 0000 ea7a 6335
000001d0: 8644 9539 8250 9f3b 6516 a13c c0dd 8e3d
000001e0: 9367 263e 3ac5 b13e c725 f63e ae62 1e3f
000001f0: b866 483f af7c 883f f1dc a43f 1310 cf3f
00000200: 77f2 d53f d23b bb3f 8c79 8e3f 4a8d 813f
00000210: 2eac 3e3f 842f f53e 6728 833e d0ad f23d
00000220: 6ef6 263d 44f8 323b 206b 3d36 0000 0000
00000230: 0000 0000 0000 0000 8c33 bd15 f454 2738
00000240: 5733 2f3b fc38 9b3c 4f4e cc3d ca7a 5f3e
00000250: 2371 d73e c76c 373f 3375 913f 5c20 d43f
00000260: db43 0b40 dd0b 2f40 5e83 5240 db54 6140
00000270: 3040 7540 ae8b 7340 2e0a 5640 3105 2040
00000280: 6623 e33f 2556 9c3f 6049 3d3f 8d3c bc3e
00000290: 7afe e13d 0612 403c b62b 8f37 4d3f bf1b
000002a0: 0000 0000 0000 0000 6a91 5b2d 0322 6823
000002b0: 57b3 643c 0759 8b3d 56b8 4f3e 0957 c83e
000002c0: 72b1 313f 1ee1 a43f 2b49 0640 22f0 2b40
000002d0: 4b26 4940 888a 8140 006a 9940 bb9a a740
000002e0: f371 ac40 8946 aa40 3981 a140 0216 8840
000002f0: ca7f 4c40 2290 0c40 0d36 b13f 848f 373f
00000300: 14be 443e 6906 003c 6f9e be39 9ced 3437
00000310: 0000 0000 4a75 6b1a 2d85 2d25 0c7d 9626
00000320: 2f58 1b3c 541b e13d 3a36 8e3e af12 163f
00000330: fbf6 933f 150a 0240 4729 3d40 c0f6 5c40
00000340: f109 8340 eceb 9d40 0c22 b240 61f2 b040
00000350: 214e b540 40b6 b540 3d4a b440 ad43 a340
00000360: e55f 8440 8a79 4040 5896 f13f d405 853f
00000370: a328 a33e c7b6 013d 4056 003b 0d0f d227
00000380: dea4 1b3a f401 0000 5efe 0637 0fae 693a
00000390: cd5a 4d3c 111c 283e d30a e13e 1d4e 873f
000003a0: 7bd9 dd3f 8477 2d40 825a 5b40 58f7 7940
000003b0: 6487 9540 927c a940 9974 aa40 789b a840
000003c0: 25b8 ab40 9e0c ae40 cb61 a240 8fa2 9a40
000003d0: 5e51 8840 6951 5140 eaaa 0c40 e31a 943f
000003e0: 49c1 ad3e 29ba cf3c 4314 8e39 52e9 6f36
000003f0: 0000 0000 f401 0000 d317 2e39 161e 933c
0.0 0.0 0.0 0.0 0.0 0.0 0.0 0.0
0.0 0.0 0.0 0.0 0.0 0.0 0.0 0.0
0.0 0.0 0.0 0.0 0.0 0.0 0.0 0.0
0.0 0.0 0.0 0.0 0.0 0.0 0.0 0.0
0.0 0.0 0.0 0.0 0.0 5.2846893e-08 1.6113294e-05 0.00047781478
0.0018645689 0.00031506817 3.9778183e-08 0.002311381 0.0172551 0.005433359 9.9129786e-05 3.0898903e-38
0.0 0.0 0.0 0.0 0.0 0.0 0.0 0.0
0.0 0.0 0.0 3.880857e-05 4.614572e-06 1.3950698e-10 7.8768005e-07 1.020991e-05
0.00013243915 0.00037020684 4.0424726e-05 0.002740148 0.006433812 0.010212484 0.009324715 0.007954693
0.015664008 0.0019537571 0.0012025335 0.000113104215 4.6743644e-05 1.3814637e-15 5.86281e-17 2.3067741e-30
0.0 0.0 0.0 0.0 0.0 0.0 0.0 0.0003258122
8.150606e-05 0.0062371013 0.005076752 0.011317844 0.037651952 0.059418216 0.105512016 0.16606094
0.18379359 0.1978846 0.2567962 0.3038665 0.3529017 0.28563264 0.23008296 0.2246276
0.17209515 0.092542276 0.018497488 0.0012467315 0.0015998904 0.00058475503 2.7711152e-05 0.0
0.0 0.0 0.0 8.4742953e-07 0.0002847055 0.004861892 0.019663999 0.06975889
0.16250448 0.34720784 0.48075697 0.61869323 0.78281736 1.066305 1.2879926 1.617678
1.6714619 1.4627631 1.1130843 1.0121243 0.74481475 0.47887814 0.25616762 0.11849558
0.040762357 0.0027308622 2.822555e-06 0.0 0.0 0.0 7.641782e-26 3.989502e-05
0.0026733482 0.01894807 0.09975874 0.21824184 0.42078504 0.71650356 1.1363891 1.6572375
2.1760166 2.735099 3.289268 3.5208042 3.8320427 3.8054004 3.3443713 2.5003169
1.7745178 1.2213789 0.73940086 0.36764947 0.11034866 0.011723047 1.7067283e-05 3.1639207e-22
0.0 0.0 1.2480997e-11 1.25839475e-17 0.013958774 0.0680409 0.20285162 0.39128903
0.69411385 1.28812 2.0982158 2.6865315 3.1429622 4.0481606 4.7941895 5.237638
5.38891 5.3211102 5.0470243 4.2526865 3.1952996 2.1962972 1.384462 0.7170336
0.19213134 0.007814028 0.00036357666 1.0784159e-05 0.0 4.8691606e-23 1.505048e-16 1.0442235e-15
0.009481474 0.109915406 0.27775747 0.5862226 1.1559747 2.0318654 2.9556444 3.4525604
4.0949636 4.935049 5.566656 5.5295873 5.665787 5.6784973 5.6340623 5.102011
4.136706 3.0074182 1.8874006 1.0392404 0.3186694 0.03166845 0.001958266 5.8303027e-15
0.0005937348 7e-43 8.046247e-06 0.00089141814 0.012533856 0.16416956 0.4395357 1.0570713
1.7331995 2.7104197 3.4273992 3.9057217 4.672777 5.2964563 5.326733 5.268978
5.3662286 5.43904 5.0744376 4.8323436 4.2599325 3.270594 2.1979318 1.1570705
0.33936527 0.025357323 0.00027099447 3.5749586e-06 0.0 7e-43 0.00016602808 0.017958682

exp_avg f4 [10]
00000000: 5197 2e3b 4828 e53a e252 803a 5a5e 3eba
00000010: 81c1 363b 0dd2 9ebb bb1c 4fbb 850c c63b
00000020: b185 32bb 5c51 35bb
0.0026640485 0.0017483318 0.0009790326 -0.0007261984 0.0027886333 -0.0048468173 -0.0031602818 0.006043973
-0.002724033 -0.0027666902

exp_avg_sq f4 [10]
00000000: c53a 5039 6eaf 4d39 e42b 003a de4f 383a
00000010: 8113 d239 44df 4a3a be26 8539 4916 d739
00000020: 9c9b 7d3a d511 4e3a
0.00019858319 0.00019615676 0.0004889353 0.0007030944 0.00040068853 0.00077389576 0.00025396602 0.000410246
0.00096743717 0.00078609335
