checkpoint/MLP_1_Layer checkpoint/best_model.pth (torch, 97572 bytes, 6 tensors)

MLP.weight f4 [10, 784]
0.020192841 -0.015939169 0.014819052 -0.013385224 -0.024424132 -0.033229694 0.031651482 -0.021445535
-0.011823786 0.008768525 0.014175378 0.022376364 -0.029707812 0.007408717 0.019213839 -0.03160751
-0.035325855 0.025254574 -0.035366938 -0.018751064 0.0014154273 -0.0064804046 0.024201097 0.0008284407
-0.0007494135 -0.0025454336 -0.031773586 -0.028525885 -0.022573361 0.024504105 0.0013376985 0.021900106
-0.027404238 -0.023698974 -0.02148303 -0.021321064 0.011927205 0.014527441 -0.01357816 0.06596101
0.044492166 0.051863372 -0.034434743 0.04885782 0.025605401 0.044739228 -0.02958377 -0.00567849
0.0036617555 0.0015729207 0.021195544 -0.009122133 0.004143877 0.00019683158 0.032375015 -0.032593295
-0.03498009 0.021578057 -0.03144662 0.0395953 0.022886246 -0.013769412 0.00967997 -0.029817132
-0.06309869 -0.02619717 -0.060842294 -0.045723073 -0.049436074 -0.02069987 -0.066030025 -0.051738326
0.0068110335 -0.03707607 -0.0398252 -0.032745834 0.011260534 -0.014632348 -0.029948412 -0.003347299
-0.020308355 0.019762717 -0.029819584 0.023254337 -0.034751195 -0.0030189413 0.0039516347 0.01627879
0.0011901286 -0.07210685 -0.046779193 -0.07146907 0.013315845 -0.031516667 -0.021632252 -0.060625676
0.0031067764 0.045245815 0.016093533 0.007718518 0.03459143 -0.022816224 0.014012655 0.005337798
-0.038285367 0.0056372667 0.009595689 -0.029389042 0.04160377 0.01563611 0.007502471 0.03532791
-0.020208262 0.031010726 0.021559777 0.019458724 -0.014325451 -0.073959626 -0.055701308 0.013593263
-0.003787143 -0.027168117 0.033406436 0.031613883 -0.047683507 -0.0045256214 0.014381028 0.03594005
-0.026216349 -0.022745186 -0.0041124313 -0.012609494 -0.026589535 0.003129005 0.01061807 -0.03203374
-0.0033933718 -0.059216823 0.029503908 -0.014936086 0.01514749 -0.02233023 -0.019697253 -0.008737085
-0.0011430638 -0.045559846 -0.042768404 -0.02726126 0.0078079985 -0.0052474583 0.019005798 -0.004423433
0.017640654 -0.008373459 0.026849346 0.0050148764 -0.013176931 0.012047153 -0.0055478066 -0.008378081
-0.0093098255 0.004570388 0.0051135323 -0.025167638 -0.05632151 -0.08107133 -0.017167307 -0.023797406
-0.022943098 -0.011816016 -0.03250896 0.029781476 0.0090099005 -0.033146396 -0.017200967 -0.01815671
-0.021778643 -0.04287336 0.0050556436 0.0104714595 -0.019000074 0.04102771 0.0078803245 -0.018952327
0.034415346 0.007147563 -0.0010308479 0.0026144127 -0.018326245 0.021109782 0.033030182 0.0025033522
-0.08149764 -0.07461367 -0.016845541 -0.025698138 0.029319152 0.011557741 -0.0033159896 -0.03770087
0.002121078 -0.037775565 0.0067691924 -0.008863502 0.0056499504 -0.016306486 0.020136693 -0.017456682
-0.015181103 0.0439328 0.0031952476 -0.0022259627 -0.011966749 0.046236098 0.0014991103 0.011657825
0.026321571 -0.022045441 0.009260847 0.040969227 -0.03965472 -0.113303244 -0.04774327 -0.009503353
0.037942052 -0.0046546333 0.041528445 0.07761149 -0.030028723 0.025007311 0.007899524 -0.01902667
-0.01956581 -0.011487407 0.016430806 -0.034624517 0.0046228915 0.0017083539 0.014771003 0.05302796
0.0051483233 0.008366669 0.027309382 -0.00069964974 -0.008841638 -0.00028954336 0.037822556 0.056781914
0.0035745164 -0.104205176 -0.119783126 0.006112428 -0.00036647066 -0.009597927 0.068070486 0.08342017
00000000: 756b a53c dc92 82bc 9ccb 723c b34d 5bbc
00000010: 1e15 c8bc dc1b 08bd fca4 013d 8cae afbc
00000020: 8eb8 41bc dca9 0f3c d83f 683c a34e b73c
00000030: cc5d f3bc d3c4 f23b 5766 9d3c e076 01bd
00000040: d8b1 10bd aee2 ce3c ecdc 10bd d59b 99bc
00000050: dc85 b93a 9359 d4bb 6141 c63c b72b 593a
00000060: 4a74 44ba 4ad1 26bb 0525 02bd 1eaf e9bc
00000070: c5eb b8bc d5bc c83c b755 af3a da67 b33c
00000080: da7e e0bc 5a24 c2bc 2efd afbc 83a9 aebc
00000090: 536a 433c 8104 6e3c ee76 5ebc 9116 873d
000000a0: 6b3d 363d b06e 543d 720b 0dbd 231f 483d
000000b0: 6bc2 d13c 7b40 373d aa59 f2bc a012 babb
000000c0: 10fa 6f3b 762a ce3a 47a2 ad3c 0075 15bc
000000d0: 5cc9 873b 9364 4e39 aa9b 043d 8c80 05bd
000000e0: 4847 0fbd 77c4 b03c 2cce 00bd ae2e 223d
000000f0: f07b bb3c 1a99 61bc bd98 1e3c 0f43 f4bc
00000100: e339 81bd 739b d6bc c535 79bd 1e48 3bbd
00000110: 7b7d 4abd c692 a9bc c03a 87bd 91eb 53bd
00000120: 172f df3b 14dd 17bd c01f 23bd 7f20 06bd
00000130: 1a7e 383c 84bc 6fbc 5f56 f5bc 5c5e 5bbb
00000140: b55d a6bc 6ce5 a13c 3348 f4bc e17f be3c
00000150: 4557 0ebd 6ed9 45bb b77c 813b 195b 853c
00000160: 17fe 9b3a c2ac 93bd 8a9b 3fbd 605e 92bd
00000170: b42a 5a3c 9f17 01bd 1f36 b1bc a152 78bd
00000180: 0f9b 4b3b ad53 393d 96d6 833c 9feb fc3b
00000190: beaf 0d3d 17e9 babc 5695 653c b2e8 ae3b
000001a0: 1ed1 1cbd d2b8 b83b 3d37 1d3c 4ac1 f0bc
000001b0: b768 2a3d 4d17 803c 4ad7 f53b 00b4 103d
000001c0: cc8b a5bc 350a fe3c 219e b03c e767 9f3c
000001d0: 4cb5 6abc 2578 97bd 0e27 64bd 47b6 5e3c
000001e0: b731 78bb ac8f debc 30d5 083d 8f7d 013d
000001f0: c84f 43bd aa4b 94bb 679e 6b3c e035 133d
00000200: abc3 d6bc 1d54 babc 93c1 86bb 0d98 4ebc
00000210: 4cd2 d9bc fe0f 4d3b 6af7 2d3c d035 03bd
00000220: 5563 5ebb 578d 72bd 2eb2 f13c 7cb6 74bc
00000230: 2e2d 783c e3ed b6bc 225c a1bc fe25 0fbc
00000240: dbd2 95ba f69c 3abd ec2d 2fbd 0253 dfbc
00000250: 3dda ff3b dff2 abbb 0cb2 9b3c 72f2 90bb
00000260: 2283 903c d530 09bc 29f3 db3c d553 a43b
00000270: 0ee4 57bc 6c61 453c 60ca b5bb 3844 09bc
00000280: 3d88 18bc 31c3 953b 6b8f a73b 5d2c cebc
00000290: 62b1 66bd ba08 a6bd 74a2 8cbc c7f2 c2bc
000002a0: 2af3 bbbc f797 41bc 1e28 05bd 48f8 f33c
000002b0: 439e 133c 84c4 07bd 0be9 8cbc 61bd 94bc
000002c0: 2069 b2bc fa9b 2fbd d0a9 a53b 7c90 2b3c
000002d0: 0ba6 9bbc ac0c 283d 7a1c 013c e941 9bbc
000002e0: 1bf7 0c3d 1b36 ea3b 841d 87ba 9156 2b3b
000002f0: ec20 96bc 6cee ac3c a84a 073d 480f 243b
00000300: 3ce8 a6bd 0dcf 98bd a9ff 89bc e784 d2bc
00000310: b82e f03c ae5c 3d3c 1351 59bb 3a6c 1abd
00000320: c901 0b3b 8dba 1abd 1ad0 dd3b 3938 11bc
00000330: 3823 b93b 2e95 85bc b5f5 a43c 5101 8fbc
00000340: 29ba 78bc e1f2 333d 5c67 513b 75e1 11bb
00000350: 2f10 44bc 1062 3d3d cb7d c43a 7600 3f3c
00000360: 56a0 d73c a498 b4bc cfba 173c 59cf 273d
00000370: fd6c 22bd 880b e8bd 728e 43bd f4b3 1bbc
00000380: 2069 1b3d e585 98bb bb19 2a3d c6f2 9e3d
00000390: ccfe f5bc 22dc cc3c 016d 013c d2dd 9bbc
000003a0: 7a48 a0bc ad35 3cbc e699 863c 70d2 0dbd
000003b0: a07b 973b d8ea df3a 1402 723c d933 593d
000003c0: 44b3 a83b 5a14 093c edb7 df3c b368 37ba
000003d0: 85dc 10bc dacd 97b9 d3eb 1a3d 2794 683d
000003e0: 6f42 6a3b 8669 d5bd db50 f5bd c34a c83b
000003f0: dc22 c0b9 a040 1dbc 8a68 8b3d 32d8 aa3d

MLP.bias f4 [10]
-0.037978888 0.019028727 0.041520033 -0.03287376 0.036172815 0.200444 -0.027692856 0.05106584
-0.13221343 -0.02821466
00000000: c08f 1bbd 22e2 9b3c e910 2a3d a3a6 06bd
00000010: f229 143d 3141 4d3e 21dc e2bc 6a2a 513d
00000020: f562 07be 6e22 e7bc

exp_avg f4 [10, 784]
0.0 0.0 0.0 0.0 0.0 0.0 0.0 0.0
0.0 0.0 0.0 0.0 0.0 0.0 0.0 0.0
0.0 0.0 0.0 0.0 0.0 0.0 0.0 0.0
0.0 0.0 0.0 0.0 0.0 0.0 0.0 0.0
0.0 0.0 6e-45 6e-45 6e-45 0.0 6e-45 -3.485385e-06
-6.8890813e-06 -2.8318766e-06 6e-45 -0.012463508 -0.034066916 -0.016202558 1.2659842e-36 8.2922e-37
6e-45 6e-45 6e-45 0.0 0.0 0.0 0.0 0.0
0.0 0.0 0.0 -5.9185073e-29 -2.1586006e-29 6e-45 1.3698416e-22 1.04549724e-22
3.911876e-23 9.003153e-25 0.00044697567 0.0047093784 0.0012787834 -2.6684977e-06 3.3280583e-17 2.918873e-14
-0.008438234 -0.0024834478 6.6764845e-13 9.0380326e-14 5.3528536e-25 4.9959882e-24 5.2814813e-24 3.7469903e-24
6e-45 6e-45 0.0 0.0 0.0 0.0 0.0 -1.5479585e-28
1.645638e-26 1.5271453e-26 1.3637801e-22 2.774401e-22 -1.0287818e-13 0.0002563017 0.0022147826 0.008905441
0.004110025 -0.0013224338 -0.018950837 -0.0607184 -0.09884103 -0.05156283 -0.14472912 -0.27062184
-0.3173398 -0.061867297 0.0002138262 -1.9249195e-10 1.1252204e-13 -2.7098607e-27 2.48e-43 0.0
0.0 0.0 0.0 3.2441e-41 2.7431643e-26 3.9247435e-26 3.6202382e-22 2.6269048e-13
-3.149096e-05 0.0027376907 0.06132305 0.09218911 0.06654256 0.049105663 -0.00092202716 -0.007813493
0.04534124 -0.18956763 -0.26829484 -0.24514438 -0.39598566 -0.03731368 -0.030820955 -0.046528086
0.00019539475 0.00014458374 7.7e-44 6e-45 0.0 0.0 4.1899869e-22 2.549e-40
4.4098964e-26 2.1432234e-09 8.640161e-09 0.06119903 0.07041948 0.13523601 0.14742284 0.15458319
0.08499517 0.0057428894 0.14312862 0.2753756 0.054438338 -0.04898633 -0.13685003 -0.19742486
-0.5259399 -0.25724715 -0.098442055 -0.048357498 0.000114316616 1.0055426e-05 7.3142645e-16 1.7640282e-15
0.0 6e-45 1.8622174e-23 6e-45 -0.004857106 0.09750619 0.15119532 0.15704903
0.14957559 0.15326305 0.11922463 0.07443289 0.023360137 0.024510259 0.15514426 0.06881902
-0.18658757 -0.27132624 -0.13368618 -0.2466961 -0.37699988 -0.31549093 -0.2484763 -0.17852896
-0.03818499 1.8573779e-06 5.0124225e-15 4.0228458e-15 0.0 6e-45 6e-45 9.18509e-40
-0.0016190347 0.1612478 0.16561024 0.146102 0.14579128 0.118073255 0.12128508 0.05860055
-0.011770303 0.052016325 0.018914793 -0.16561654 -0.27612332 -0.17932424 0.050503977 -0.083493344
-0.23633574 -0.12662385 -0.27174708 -0.18124302 -0.04408861 0.008014112 6.6690366e-16 4.9938196e-34
-0.001511163 6e-45 -2.555666e-38 -1.429492e-24 4.0294585e-09 0.15724203 0.14870705 0.10560256
0.044384763 -0.073375456 -0.0796322 -0.042633694 0.10895414 0.039149143 -0.18619117 -0.4330964
-0.2699551 -0.026936416 0.059881356 -0.018385427 -0.19073571 0.033247236 -0.067669906 -0.075097285
0.008945258 0.008389735 2.7059045e-07 1.1636087e-34 6e-45 6e-45 -3.3892006e-38 -4.7080836e-24
00000000: 0000 0000 0000 0000 0000 0000 0000 0000
00000010: 0000 0000 0000 0000 0000 0000 0000 0000
00000020: 0000 0000 0000 0000 0000 0000 0000 0000
00000030: 0000 0000 0000 0000 0000 0000 0000 0000
00000040: 0000 0000 0000 0000 0000 0000 0000 0000
00000050: 0000 0000 0000 0000 0000 0000 0000 0000
00000060: 0000 0000 0000 0000 0000 0000 0000 0000
00000070: 0000 0000 0000 0000 0000 0000 0000 0000
00000080: 0000 0000 0000 0000 0400 0000 0400 0000
00000090: 0400 0000 0000 0000 0400 0000 75e6 69b6
000000a0: c228 e7b6 450b 3eb6 0400 0000 be33 4cbc
000000b0: c089 0bbd 3abb 84bc 6465 d703 a015 8d03
000000c0: 0400 0000 0400 0000 0400 0000 0000 0000
000000d0: 0000 0000 0000 0000 0000 0000 0000 0000
000000e0: 0000 0000 0000 0000 0000 0000 4f0d 9690
000000f0: 7ae8 da8f 0400 0000 8b9a 251b 25c9 fc1a
00000100: ae2a 3d1a 2a51 8b17 0f58 ea39 2151 9a3b
00000110: da9c a73a 7114 33b6 c77a 1924 5174 0329
00000120: 8540 0abc 57c1 22bb 24ed 3b2b b684 cb29
00000130: ada9 2517 df45 c118 4251 cc18 65f4 9018
00000140: 0400 0000 0400 0000 0000 0000 0000 0000
00000150: 0000 0000 0000 0000 0000 0000 203a 4491
00000160: e1f9 a214 bc3d 9714 f3de 241b c7b3 a71b
00000170: 3ca9 e7a9 3b60 8639 e325 113b 20e8 113c
00000180: 63ad 863b 8455 adba c93e 9bbc dbb3 78bd
00000190: 2a6d cabd 8c33 53bd df33 14be f28e 8abe
000001a0: 5d7a a2be 9068 7dbd 8936 6039 aba5 53af
000001b0: 8a60 fd29 81b2 5693 b100 0000 0000 0000
000001c0: 0000 0000 0000 0000 0000 0000 6f5a 0000
000001d0: bdd5 0715 0958 4215 79d4 da1b b0e1 932a
000001e0: 2915 04b8 d46a 333b e12d 7b3d a5cd bc3d
000001f0: 7747 883d 0523 493d 32b4 71ba 2a04 00bc
00000200: bcb7 393d 041e 42be f15d 89be 2107 7bbe
00000210: a2be cabe 3bd6 18bd 3a7c fcbc 3c94 3ebd
00000220: e1e2 4c39 679b 1739 3700 0000 0400 0000
00000230: 0000 0000 0000 0000 e844 fd1b 8fc6 0200
00000240: 145e 5a15 fc47 1331 d46f 1432 d6ab 7a3d
00000250: 1738 903d 4f7b 0a3e 03f6 163e 0e4b 1e3e
00000260: f311 ae3d d92e bc3b 4f90 123e 08fe 8c3e
00000270: bcfa 5e3d e4a5 48bd 6a22 0cbe be29 4abe
00000280: ffa3 06bf e6b5 83be fd9b c9bd 8312 46bd
00000290: 44bd ef38 bab3 2837 bfd1 5226 2739 fe26
000002a0: 0000 0000 0400 0000 451a b419 0400 0000
000002b0: 5c28 9fbb 53b1 c73d f2d2 1a3e 76d1 203e
000002c0: 582a 193e fdf0 1c3e 0b2c f43d 4570 983d
000002d0: c25d bf3c bdc9 c83c 23de 1e3e fdf0 8c3d
000002e0: d010 3fbe 46eb 8abe 08e5 08be e79d 7cbe
000002f0: 2106 c1be 0788 a1be 9270 7ebe 4cd0 36be
00000300: dd67 1cbd 054b f935 7097 b427 34f0 9027
00000310: 0000 0000 0400 0000 0400 0000 6e00 0a00
00000320: ca35 d4ba 251e 253e bb95 293e c39b 153e
00000330: 4f4a 153e 64d0 f13d 5064 f83d 2107 703d
00000340: 3bd8 40bc 120f 553d 32f3 9a3c 6297 29be
00000350: 0960 8dbe c6a0 37be 42dd 4e3d 8ffe aabd
00000360: ff01 72be afa9 01be 6f22 8bbe c597 39be
00000370: 4296 34bd 9f4d 033c ce38 4026 b8f2 2508
00000380: 3712 c6ba 0400 0000 c924 0b81 0334 dd97
00000390: 7e73 8a31 0e04 213e a946 183e 2846 d83d
000003a0: cccc 353d df45 96bd 3516 a3bd aba0 2ebd
000003b0: 5923 df3d da5a 203d e6a8 3ebe d0be ddbe
000003c0: 8e37 8abe c2a9 dcbc 2746 753d 099d 96bc
000003d0: 3950 43be 412e 083d 8596 8abd 9bcc 99bd
000003e0: 228f 123c 1975 093c ab45 9134 8dab 1a07
000003f0: 0400 0000 0400 0000 9086 3881 9a22 b698

exp_avg_sq f4 [10, 784]
0.0 0.0 0.0 0.0 0.0 0.0 0.0 0.0
0.0 0.0 0.0 0.0 0.0 0.0 0.0 0.0
0.0 0.0 0.0 0.0 0.0 0.0 0.0 0.0
0.0 0.0 0.0 0.0 0.0 0.0 0.0 0.0
0.0 0.0 0.0 0.0 0.0 0.0 7.85e-43 0.0049583167
0.019371144 0.0032732645 0.0 0.0026249073 0.019610973 0.0044360934 0.0 8.70422e-29
1.1116903e-27 6.8211546e-29 7e-43 0.0 0.0 0.0 0.0 0.0
0.0 0.0 0.0 0.000114125134 1.3570165e-05 2.8204976e-08 7.63999e-07 3.32189e-07
3.6040885e-05 9.854327e-05 0.00015211453 0.028943682 0.03391269 0.021022137 0.017213088 0.008756599
0.028624065 0.017191457 0.0026201787 0.00040726858 0.00060055783 0.0024637904 0.0027508545 0.0013839557
0.0 0.0 0.0 0.0 0.0 0.0 0.0 0.000959193
0.00093636586 0.0057977573 0.0054535223 0.013608594 0.030712798 0.031875614 0.065703794 0.1348155
0.15979101 0.21210662 0.23272035 0.27871925 0.3539392 0.335957 0.25899604 0.21170598
0.15310134 0.091994315 0.031776503 0.022718593 0.015304031 0.0010773242 9.75332e-40 0.0
0.0 0.0 0.0 7.331978e-05 0.0013431977 0.0087031135 0.014599584 0.06812932
0.13636534 0.25490424 0.40882382 0.6232508 0.73802453 0.93607384 1.2234124 1.4701822
1.5838279 1.4915445 1.262292 1.1016917 0.81782526 0.49770585 0.28497013 0.12194463
0.05857797 0.014553669 9.9353e-41 0.0 0.0 0.0 4.3731745e-27 0.0022419346
0.0055508665 0.018844727 0.08133209 0.19569133 0.40585896 0.6958268 1.1297407 1.6890239
2.1672451 2.6940145 3.18705 3.543159 3.6288104 3.598849 3.1791961 2.389598
1.7756786 1.1964078 0.59322774 0.2715725 0.115790226 0.025614396 0.0055606845 0.00021484128
0.0 0.0 1.1200927e-29 0.0005233585 0.0075044986 0.06139054 0.18724084 0.43180057
0.7879363 1.3008205 2.135426 2.957065 3.4474938 4.113635 4.770672 5.3084264
5.5867887 5.2583876 4.565654 3.6926277 2.7673774 1.973553 1.2450536 0.5982197
0.13552336 0.019530954 0.006618608 0.0011173123 0.0 1.42e-43 2.55e-43 3.1155958e-09
0.007497175 0.10530225 0.28652072 0.72943676 1.295464 2.0393865 3.0224357 3.745563
4.256453 4.889244 5.3470616 5.6200747 5.6434464 5.4077325 5.209145 4.4610033
3.6064231 2.7046509 1.8064455 0.98121095 0.29348382 0.040469877 0.01330714 0.0002593333
0.0008647926 3.5e-43 0.00025740927 0.0012507334 0.009857794 0.15557116 0.51690227 1.1302866
1.8310857 2.5998578 3.472748 4.0769234 4.611053 4.8776183 4.995705 4.965498
5.0963755 4.956218 4.69707 4.433595 3.9634044 3.2173693 2.1828332 1.2143599
0.34080157 0.03887871 0.00062597624 5.057926e-31 0.0 4.6e-43 0.00019682744 0.009692808
00000000: 0000 0000 0000 0000 0000 0000 0000 0000
00000010: 0000 0000 0000 0000 0000 0000 0000 0000
00000020: 0000 0000 0000 0000 0000 0000 0000 0000
00000030: 0000 0000 0000 0000 0000 0000 0000 0000
00000040: 0000 0000 0000 0000 0000 0000 0000 0000
00000050: 0000 0000 0000 0000 0000 0000 0000 0000
00000060: 0000 0000 0000 0000 0000 0000 0000 0000
00000070: 0000 0000 0000 0000 0000 0000 0000 0000
00000080: 0000 0000 0000 0000 0000 0000 0000 0000
00000090: 0000 0000 0000 0000 3002 0000 6079 a23b
000000a0: 3cb0 9e3c 4484 563b 0000 0000 a306 2c3b
000000b0: 31a7 a03c a65c 913b 0000 0000 9ead dc10
000000c0: 8427 b012 d3ef ac10 f401 0000 0000 0000
000000d0: 0000 0000 0000 0000 0000 0000 0000 0000
000000e0: 0000 0000 0000 0000 0000 0000 7756 ef38
000000f0: 6aab 6337 6647 f232 9d15 4d35 b557 b234
00000100: 9b2a 1738 04a9 ce38 ef80 1f39 4d1b ed3c
00000110: 08e8 0a3d 9e36 ac3c 7602 8d3c d777 0f3c
00000120: 047d ea3c 19d5 8c3c 4eb7 2b3b aa86 d539
00000130: c16e 1d3a 8b77 213b ae47 343b d965 b53a
00000140: 0000 0000 0000 0000 0000 0000 0000 0000
00000150: 0000 0000 0000 0000 0000 0000 5a72 7b3a
00000160: 7376 753a 1dfb bd3b 76b3 b23b 95f6 5e3c
00000170: 6899 fb3c 0190 023d b68f 863d 130d 0a3e
00000180: 41a0 233e 7a32 593e 3e4e 6e3e 4ab4 8e3e
00000190: 8537 b53e 8e02 ac3e 219b 843e 74c9 583e
000001a0: 99c6 1c3e 8467 bc3d 1428 023d 581c ba3c
000001b0: c2bd 7a3c 0035 8d3a d49e 0a00 0000 0000
000001c0: 0000 0000 0000 0000 0000 0000 42c3 9938
000001d0: 3c0e b03a 8197 0e3c 1833 6f3c 6387 8b3d
000001e0: 5ba3 0b3e cf82 823e 5b51 d13e 5d8d 1f3f
000001f0: 2def 3c3f 89a2 6f3f c798 9c3f ee2e bc3f
00000200: dfba ca3f eeea be3f c992 a13f 3c04 8d3f
00000210: ff5c 513f 4dd3 fe3e 9be7 913e 1bbe f93d
00000220: 74ef 6f3d 8372 6e3c f514 0100 0000 0000
00000230: 0000 0000 0000 0000 423d ad13 6ced 123b
00000240: 0be4 b53b 4260 9a3c 7091 a63d 4f63 483e
00000250: bfcc cf3e b521 323f 589b 903f ef31 d83f
00000260: 25b4 0a40 bc6a 2c40 a1f8 4b40 1ec3 6240
00000270: 6e3e 6840 8b53 6640 f377 4b40 2cef 1840
00000280: 7049 e33f e423 993f c6dd 173f 8d0b 8b3e
00000290: 6d23 ed3d 48d5 d13c 6736 b63b 0447 6139
000002a0: 0000 0000 0000 0000 8a2e 630f ff31 093a
000002b0: 4ce8 f53b a674 7b3d 10bc 3f3e f714 dd3e
000002c0: 31b6 493f 4981 a63f d2aa 0840 8e40 3d40
000002d0: bda3 5c40 e6a2 8340 58a9 9840 a1de a940
000002e0: f9c6 b240 b644 a840 d619 9240 0354 6c40
000002f0: b61c 3140 629d fc3f eb5d 9f3f ed24 193f
00000300: a3c6 0a3e 61ff 9f3c e8e0 d83b c872 923a
00000310: 0000 0000 6500 0000 b600 0000 241a 5631
00000320: ddaa f53b b5a8 d73d d8b2 923e 5ebc 3a3f
00000330: c4d1 a53f 4f85 0240 966f 4140 4eb7 6f40
00000340: dd34 8840 b074 9c40 211b ab40 a7d7 b340
00000350: 1d97 b440 250c ad40 51b1 a640 8ac0 8e40
00000360: a3cf 6640 0019 2d40 9b39 e73f a430 7b3f
00000370: 8343 963e bec3 253d 3106 5a3c 20f7 8739
00000380: 40b3 623a fa00 0000 e3f4 8639 a6ef a33a
00000390: 9682 213c 0c4e 1f3e b553 043f 3bad 903f
000003a0: 0461 ea3f 1264 2640 8141 5e40 2876 8240
000003b0: bf8d 9340 7315 9c40 d1dc 9f40 5ce5 9e40
000003c0: 8215 a340 5699 9e40 664e 9640 03e0 8d40
000003d0: 6ba8 7d40 61e9 4d40 8ab3 0b40 2570 9b3f
000003e0: 8b7d ae3e 483f 1f3d 8e18 243a 9b23 240d
000003f0: 0000 0000 4801 0000 7763 4e39 95ce 1e3c

exp_avg f4 [10]
-0.00089914846 -0.0035224764 -0.002638072 0.002896238 0.004723175 2.1384823e-05 0.0051095365 0.0057405727
-0.0062880963 -0.005143113
00000000: d5b4 6bba 59d9 66bb 81e3 2cbb cfce 3d3b
00000010: ddc4 9a3b 8f63 b337 e66d a73b 6a1b bc3b
00000020: 600c cebb 8f87 a8bb

exp_avg_sq f4 [10]
0.00018337475 0.00021386977 0.0005296992 0.0006594308 0.00041004206 0.00072564284 0.00026375157 0.0004287661
0.0009676153 0.00077606784
00000000: 4948 4039 3b42 6039 83db 0a3a a7dd 2c3a
00000010: eafa d639 1139 3e3a 2348 8a39 03cc e039
00000020: 90a7 7d3a 0871 4b3a
