checkpoint/MLP_1_Layer checkpoint/last_model.pth (torch, 97572 bytes, 6 tensors)

MLP.weight f4 [10, 784]
0	0x3ca56b75	0.020192841
1	0xbc8292dc	-0.015939169
2	0x3c72cb9c	0.014819052
3	0xbc5b4db3	-0.013385224
4	0xbcc8151e	-0.024424132
5	0xbd081bdc	-0.033229694
6	0x3d01a4fc	0.031651482
7	0xbcafae8c	-0.021445535
8	0xbc41b88e	-0.011823786
9	0x3c0fa9dc	0.008768525
10	0x3c683fd8	0.014175378
11	0x3cb74ea3	0.022376364
12	0xbcf35dcc	-0.029707812
13	0x3bf2c4d3	0.007408717
14	0x3c9d6657	0.019213839
15	0xbd0176e0	-0.03160751
16	0xbd10b1d8	-0.035325855
17	0x3ccee2ae	0.025254574
18	0xbd10dcec	-0.035366938
19	0xbc999bd5	-0.018751064
20	0x3ab985dc	0.0014154273
21	0xbbd45993	-0.0064804046
22	0x3cc64161	0.024201097
23	0x3a592bb7	0.0008284407
24	0xba44744a	-0.0007494135
25	0xbb26d14a	-0.0025454336
26	0xbd022505	-0.031773586
27	0xbce9af1e	-0.028525885
28	0xbcb8ebc5	-0.022573361
29	0x3cc8bcd5	0.024504105
30	0x3aaf55b7	0.0013376985
31	0x3cb367da	0.021900106
32	0xbce07eda	-0.027404238
33	0xbcc2245a	-0.023698974
34	0xbcaffd2e	-0.02148303
35	0xbcaea983	-0.021321064
36	0x3c436a53	0.011927205
37	0x3c6e0481	0.014527441
38	0xbd33232f	-0.043734726
39	0x3dca469a	0.098767474
40	0x3dcf9908	0.1013661
41	0x3dfc1383	0.12308409
42	0xbd0d0b72	-0.034434743
43	0x3e2c163c	0.16805357
44	0x3e1446cb	0.1448013
45	0x3e27de94	0.163935
46	0xbcf259aa	-0.02958377
47	0xbbba12a0	-0.00567849
48	0x3b6ffa10	0.0036617555
49	0x3ace2a76	0.0015729207
50	0x3cada247	0.021195544
51	0xbc157500	-0.009122133
52	0x3b87c95c	0.004143877
53	0x394e6493	0.00019683158
54	0x3d049baa	0.032375015
55	0xbd05808c	-0.032593295
56	0xbd0f4748	-0.03498009
57	0x3cb0c477	0.021578057
58	0xbd00ce2c	-0.03144662
59	0x3d38875f	0.045050975
60	0x3ce839aa	0.028347809
61	0xbc61991a	-0.013769412
62	0x3c0a8477	0.008454434
63	0xb9288989	-0.00016072964
64	0xbd00cea5	-0.03144707
65	0xbcd69b73	-0.02619717
66	0xbdbcdfe6	-0.09222393
67	0xbd8737d2	-0.06602444
68	0xbdd9e8d1	-0.10640109
69	0xbdd317d5	-0.1030728
70	0xbe2009f6	-0.156288
71	0xbe24f3e0	-0.16108656
72	0xbd305804	-0.04305269
73	0xbdc1740b	-0.094459616
74	0xbdae8597	-0.08521574
75	0xbdbacfcf	-0.091216676
76	0xbd47ed07	-0.04881003
77	0xbc7fb081	-0.015606047
78	0xbcf59ce9	-0.029982047
79	0xbb5b5e5c	-0.003347299
80	0xbca65db5	-0.020308355
81	0x3ca1e56c	0.019762717
82	0xbcf44833	-0.029819584
83	0x3cbe7fe1	0.023254337
84	0xbd0e5745	-0.034751195
85	0xbb45d96e	-0.0030189413
86	0x3b817cb7	0.0039516347
87	0x3c5b61e9	0.013390043
88	0xbced9b5c	-0.029004745
89	0xbceae81c	-0.028675131
90	0xbd1c70f4	-0.038193658
91	0xbd9f4c05	-0.077781714
92	0x3d86787e	0.06565951
93	0xbd96f186	-0.07370286
94	0xbc4b03f3	-0.012391078
95	0xbd3e856f	-0.04651397
96	0xbcfbe28a	-0.03074767
97	0x3d1044e0	0.035221934
98	0x3ca76e48	0.020438328
99	0xbc709cbf	-0.014685809
100	0x3b622cac	0.003451149
101	0x3ab79b65	0.0014008103
102	0x3c183b62	0.009291502
103	0xbd03b6a8	-0.032156616
104	0x3c0917a8	0.0083674565
105	0xbd0b32d6	-0.033984028
106	0xbcd12c05	-0.025533685
107	0xbd2cf113	-0.042222094
108	0x3ccc0fd6	0.024909895
109	0x3d33a892	0.043861933
110	0xbd5e9eab	-0.054350536
111	0x3d10b400	0.03532791
112	0xbca58bcc	-0.020208262
113	0x3cfe0a35	0.031010726
114	0x3cb09e21	0.021559777
115	0xbbfe0f34	-0.007753277
116	0xbda6ce38	-0.08144802
117	0xbe1a7e80	-0.15087318
118	0xbd94ba53	-0.07262101
119	0x3c84e386	0.016221773
120	0x3bac0df0	0.005250685
121	0x38c250c3	9.265684e-05
122	0xbbd1c993	-0.0064022033
123	0x3d223b8c	0.03960757
124	0xbd7ed768	-0.062217146
125	0x3c0fb801	0.008771897
126	0xbc34a551	-0.011025743
127	0x3c9d5d41	0.019209506
128	0xbd5fa0ea	-0.05459682
129	0xbbbbb9be	-0.0057289293
130	0x3b463cf9	0.0030248745
131	0xbb945d61	-0.004527733
132	0xbb90a972	-0.0044147307
133	0xbc9cbed5	-0.019133965
134	0x3c82cb57	0.0159661
135	0xbcb07b42	-0.021543149
136	0x3be4689b	0.0069704778
137	0x3cbd52a5	0.023110697
138	0xbcf8609c	-0.030319504
139	0xbc74b67c	-0.014936086
140	0x3c782d2e	0.01514749
141	0xbcb6ede3	-0.02233023
142	0xbd4ed227	-0.050493386
143	0xbd759dac	-0.05996482
144	0xbd475566	-0.048665427
145	0xbe0381c5	-0.12842472
146	0xbc8f982b	-0.017528614
147	0xbc80aa63	-0.015706247
148	0x3cb28217	0.021790547
149	0xbc8ed855	-0.01743714
150	0x3d2ff446	0.042957567
151	0xbba6d9d6	-0.005091886
152	0xbc137163	-0.0089992015
153	0xbc17976d	-0.009252411
154	0x3c6f9187	0.014622099
155	0xbc2c92db	-0.01053306
156	0x3b623d31	0.0034521336
157	0x3ccbab3b	0.024861922
158	0xbc1d8722	-0.009614738
159	0x3a76f717	0.00094209745
160	0xbc010373	-0.0078743575
161	0xbb8ddfff	-0.004329681
162	0x3c86a57e	0.016436335
163	0xbd1d522b	-0.03840844
164	0xbd49faef	-0.049311575
165	0xbda4a7f0	-0.08039844
166	0xbd8d407c	-0.06897065
167	0xbd625b3e	-0.055262797
168	0xbcbbf32a	-0.022943098
169	0xbc4197f7	-0.011816016
170	0xbd81a602	-0.063304916
171	0xbaeacd68	-0.0017913999
172	0xbd8f747a	-0.07004638
173	0xbd03aa96	-0.032145105
174	0xbb308709	-0.0026935956
175	0x3c1e3e1a	0.009658361
176	0x3a9b105a	0.0011830435
177	0xbd94212c	-0.072328895
178	0x3be6f7ba	0.0070485743
179	0x3ba1325c	0.0049193334
180	0xbd15ba61	-0.036554698
181	0x3d0a0d15	0.033703882
182	0x3b171404	0.0023052702
183	0xbcafb8a2	-0.021450344
184	0x3ccebf9c	0.02523785
185	0xbbd2f520	-0.0064379126
186	0x3cf40a24	0.029789992
187	0x3c4fb88b	0.012678276
188	0xbcd8ee16	-0.026480716
189	0x3d6bf2df	0.057604667
190	0x3d45f467	0.048328783
191	0x3b85cead	0.0040834756
192	0xbda88a95	-0.082295574
193	0xbe30d86a	-0.17270055
194	0xbdbacb78	-0.0912084
195	0xbd6a2450	-0.057163537
196	0x3cf02eb8	0.029319152
197	0x3c3d5caa	0.011557737
198	0xbb595113	-0.0033159896
199	0xbddc2d56	-0.10750835
200	0xbdcdbcf1	-0.10045803
201	0xbc3c3fdb	-0.011489834
202	0x3c06dff3	0.008232105
203	0x3cc4eb70	0.024038047
204	0xbac87f0e	-0.0015296654
205	0xbc1928f1	-0.00934814
206	0x3cc0a527	0.02351625
207	0xbc185285	-0.009297018
208	0xbcfac007	-0.030609144
209	0x3cf4c0e1	0.029877128
210	0x3ad1e8ba	0.0016014792
211	0x3bb7e8d5	0.0056124725
212	0xbc8adfc8	-0.01695241
213	0x3d446507	0.04794791
214	0x3c1faf99	0.009746456
215	0x3cbab1b3	0.022789812
216	0x3bba5420	0.005686298
217	0xbcae8f65	-0.02130861
218	0xbbfa3e10	-0.007636793
219	0x3cb95cb5	0.022627214
220	0x3b90e853	0.0044222265
221	0xbdb87fe2	-0.09008767
222	0xbd7a1565	-0.06105556
223	0xbc1bb3f4	-0.009503353
224	0x3e222181	0.15833093
225	0xbb9885e5	-0.0046546333
226	0x3dff31ce	0.12460671
227	0x3df7a928	0.12092811
228	0xbe11735b	-0.14204161
229	0xbc8e8bf8	-0.017400727
230	0xbcda93fc	-0.026681893
231	0xb8d1a1e8	-9.996054e-05
232	0xbcaa5e0f	-0.020796804
233	0x3c277a0c	0.010221969
234	0x3bdfb3cc	0.0068268534
235	0xbcc91f5b	-0.024551084
236	0x3cb8c4bf	0.022554753
237	0xbc740572	-0.014893876
238	0x3ca647b0	0.020297855
239	0x3d40b4db	0.047047477
240	0x3d157e1b	0.036497217
241	0x3c8a3932	0.016872976
242	0x3c89f2ec	0.016839467
243	0xbc44aed9	-0.012004578
244	0x3b9478ea	0.0045310156
245	0x3c8adfcc	0.016952418
246	0x3d64bacd	0.05584221
247	0x3d015f65	0.031585116
248	0x3cd0df88	0.025497213
249	0xbe40a311	-0.18812205
250	0xbe257d76	-0.16161141
251	0x3bc84ac3	0.006112428
252	0xb9c022dc	-0.00036647066
253	0xbc1d40a0	-0.009597927
254	0x3e56ce10	0.20977044
255	0x3dbecb2b	0.09316095

MLP.bias f4 [10]
0	0xbe41f822	-0.18942311
1	0x3de471bf	0.11154508
2	0x3e095ddc	0.13414711
3	0xbe134c8c	-0.14384669
4	0x3dbb69ae	0.09151016
5	0x3f280642	0.6563455
6	0xbe05accb	-0.13054197
7	0x3e5cf39c	0.21577305
8	0xbef621a6	-0.48072547
9	0xbe01056f	-0.12599729

exp_avg f4 [10, 784]
0	0x00000000	0.0
1	0x00000000	0.0
2	0x00000000	0.0
3	0x00000000	0.0
4	0x00000000	0.0
5	0x00000000	0.0
6	0x00000000	0.0
7	0x00000000	0.0
8	0x00000000	0.0
9	0x00000000	0.0
10	0x00000000	0.0
11	0x00000000	0.0
12	0x00000000	0.0
13	0x00000000	0.0
14	0x00000000	0.0
15	0x00000000	0.0
16	0x00000000	0.0
17	0x00000000	0.0
18	0x00000000	0.0
19	0x00000000	0.0
20	0x00000000	0.0
21	0x00000000	0.0
22	0x00000000	0.0
23	0x00000000	0.0
24	0x00000000	0.0
25	0x00000000	0.0
26	0x00000000	0.0
27	0x00000000	0.0
28	0x00000000	0.0
29	0x00000000	0.0
30	0x00000000	0.0
31	0x00000000	0.0
32	0x00000000	0.0
33	0x00000000	0.0
34	0x00000004	6e-45
35	0x00000004	6e-45
36	0x00000004	6e-45
37	0x00000004	6e-45
38	0x00000004	6e-45
39	0x9fdd9812	-9.384872e-20
40	0xa05aff3d	-1.854977e-19
41	0x9fb40b82	-7.6252003e-20
42	0x00000004	6e-45
43	0x80606e0b	-8.855684e-39
44	0x8103c98e	-2.4205508e-38
45	0x807d5bc8	-1.1512362e-38
46	0x00000004	6e-45
47	0x00000004	6e-45
48	0x00000004	6e-45
49	0x00000004	6e-45
50	0x00000004	6e-45
51	0x00000000	0.0
52	0x00000000	0.0
53	0x00000000	0.0
54	0x00000000	0.0
55	0x00000000	0.0
56	0x00000000	0.0
57	0x00000000	0.0
58	0x00000000	0.0
59	0x9b21a58e	-1.3371101e-22
60	0x9a5ef604	-4.6107254e-23
61	0x00000004	6e-45
62	0x0000d6ac	7.701e-41
63	0xa2b37d7d	-4.8650913e-18
64	0xa1b583cd	-1.2299924e-18
65	0x1c028a54	4.3192177e-22
66	0x1a3306d4	3.7021848e-23
67	0x9f9f4540	-6.7453684e-20
68	0x3938a0e9	0.00017607551
69	0x398eff21	0.00027274436
70	0x39bc3fa6	0.00035905576
71	0x391f498a	0.00015190817
72	0xaf9e1fa3	-2.8762512e-10
73	0xadbd0570	-2.1489227e-11
74	0x0fa9d88e	1.67481e-29
75	0x13d9ead6	5.5010067e-27
76	0x1450f57e	1.0549731e-26
77	0x0a47d067	9.6206976e-33
78	0x07e4145c	3.4317593e-34
79	0x00000004	6e-45
80	0x00000004	6e-45
81	0x00000004	6e-45
82	0x00000000	0.0
83	0x00000000	0.0
84	0x00000000	0.0
85	0x00000000	0.0
86	0x00000000	0.0
87	0x228b9ccd	3.7842045e-18
88	0x247d129d	5.4876396e-17
89	0x00000004	6e-45
90	0x2e9d1d41	7.14473e-11
91	0x3020d0e9	5.850454e-10
92	0xb6849e0e	-3.9523065e-06
93	0xb6a4c01e	-4.9099463e-06
94	0xb6483587	-2.983348e-06
95	0x3b1ed48e	0.002423558
96	0x3d5f0802	0.054450996
97	0x3d9a2ec8	0.07528454
98	0x3cd74417	0.026277585
99	0x3a739061	0.00092912285
100	0x39d3ddae	0.0004041022
101	0x374769fd	1.1886002e-05
102	0xb7f7b106	-2.9527127e-05
103	0x3ccf15d0	0.025278956
104	0x3d5f8160	0.05456674
105	0x3d565769	0.052329455
106	0x3c078296	0.00827088
107	0xb53fd29c	-7.145952e-07
108	0x2b7cb867	8.9784294e-13
109	0x2b98e298	1.0863142e-12
110	0x2a967bdf	2.6731305e-13
111	0x00000000	0.0
112	0x00000000	0.0
113	0x00000000	0.0
114	0x00000004	6e-45
115	0x22f458c9	6.6230337e-18
116	0x2405940f	2.8965188e-17
117	0x30b491e7	1.3138192e-09
118	0x2fc0cdee	3.5070918e-10
119	0xb6c88a12	-5.976538e-06
120	0xb7b2a728	-2.1297092e-05
121	0x370732d2	8.05846e-06
122	0xbb97f980	-0.004637897
123	0xbda37648	-0.07981545
124	0xbd694a6d	-0.056955744
125	0xbe2500b9	-0.16113557
126	0xbe830545	-0.25589958
127	0xbea0e4b9	-0.31424502
128	0xbed24cf6	-0.41074342
129	0xbeee6928	-0.46564603
130	0xbeab2242	-0.33424574
131	0xbe4f86dd	-0.2026629
132	0xbdede07b	-0.11615082
133	0x3c3d4899	0.011552953
134	0xbb851957	-0.0040618586
135	0xbc468843	-0.012117448
136	0xba2bee85	-0.00065586745
137	0x2b8f479f	1.018064e-12
138	0x29c01b66	8.531266e-14
139	0x00000004	6e-45
140	0x00000000	0.0
141	0x00000000	0.0
142	0x0000089d	3.09e-42
143	0x246ffbc6	5.2038124e-17
144	0x24d55ab4	9.252768e-17
145	0x301e55bd	5.7601907e-10
146	0xb1e8186b	-6.7548647e-09
147	0x3c8dc6cd	0.01730671
148	0x3cdc6173	0.026901936
149	0xbde542b5	-0.11194364
150	0xbe496980	-0.19669151
151	0xbe4b204e	-0.19836542
152	0xbe069cf6	-0.13145813
153	0xbe2ec7e2	-0.17068437
154	0xbe5788f2	-0.21048334
155	0xbe66957d	-0.22517963
156	0xbebc4905	-0.3677446
157	0xbec924a2	-0.3928576
158	0xbf00932b	-0.5022456
159	0xbe8f9fa7	-0.28051493
160	0xbe489321	-0.19587375
161	0xbdfc66c7	-0.12324291
162	0xbc4dc596	-0.012559315
163	0xbc6398e5	-0.013891433
164	0xbabf3688	-0.0014588395
165	0x2ac34f0c	3.4693808e-13
166	0x145e5b36	1.1226124e-26
167	0x07521177	1.5803777e-34
168	0x00000000	0.0
169	0x00000004	6e-45
170	0x078de949	2.1352435e-34
171	0x00000004	6e-45
172	0x3bd6683d	0.006543188
173	0x3ce43d60	0.027861297
174	0x3d52551b	0.051350694
175	0x3c89167f	0.01673436
176	0xbe3b7b19	-0.18308677
177	0xbe74e668	-0.23916018
178	0xbe87e8be	-0.26544756
179	0xbe313eab	-0.17309062
180	0xbcea6985	-0.028614769
181	0xb99bfc91	-0.0002975208
182	0xbd84e5db	-0.06489154
183	0xbe6a9b95	-0.22910912
184	0xbe04151d	-0.12898679
185	0xbd8ddb2b	-0.069265686
186	0xbed8adfc	-0.4232024
187	0xbeda7922	-0.42670542
188	0xbeb644a5	-0.35599247
189	0xbe7d61ae	-0.24744293
190	0x3bf24919	0.007393968
191	0x3b9e1630	0.0048244223
192	0xba398442	-0.0007076898
193	0x29265653	3.693428e-14
194	0x26a83000	1.1670352e-15
195	0x07ef8776	3.604034e-34
196	0x00000000	0.0
197	0x00000005	7e-45
198	0x00000004	6e-45
199	0x00000004	6e-45
200	0x3d26db71	0.04073662
201	0x3d59dd82	0.053189762
202	0x3d21d9e8	0.039514452
203	0xbe5efcb8	-0.21776092
204	0xbeeec276	-0.46632737
205	0xbee479c7	-0.4462416
206	0xbeb1fe07	-0.3476412
207	0xbe3b2841	-0.18277074
208	0xbdb775b0	-0.08957994
209	0xbe87a256	-0.2649104
210	0xbe91ab4d	-0.28451005
211	0xbe8e01f8	-0.27735877
212	0x3ceb2cd7	0.028707905
213	0x3e51f22d	0.20502539
214	0xbe26e147	-0.16296874
215	0xbea8472b	-0.32866797
216	0xbeb6c900	-0.35700226
217	0xbece6f43	-0.4031926
218	0xbe01f255	-0.12690099
219	0x3d336b0f	0.04380327
220	0x3d2d13f3	0.042255353
221	0x34a6c291	3.1061475e-07
222	0x2b8d6dbf	1.0049113e-12
223	0x2aa4ff8c	2.9309573e-13
224	0x86b5fea8	-6.8458817e-35
225	0x0f4bc9b2	1.0047518e-29
226	0xb2baa106	-2.1726475e-08
227	0xb2e0e96b	-2.6183178e-08
228	0x3d0cebbe	0.03440451
229	0xbc6033f9	-0.013684266
230	0xbd91dbd6	-0.071220085
231	0xbed3cf81	-0.4136925
232	0xbefefcca	-0.49802238
233	0xbede04d0	-0.43363047
234	0x3c1c5bd6	0.00954338
235	0xbe10a650	-0.14125943
236	0xbf1a6704	-0.6031344
237	0xbf3eaec9	-0.7448545
238	0xbf3bc2f2	-0.7334434
239	0xbeec4496	-0.46146077
240	0xbe20b5c7	-0.15694343
241	0xbde1e481	-0.11029912
242	0xbe9b9e0d	-0.3039402
243	0xbed3b27d	-0.41347113
244	0xbf01d107	-0.50709575
245	0xbf03486f	-0.512824
246	0xbe7787e2	-0.24172929
247	0xbdf7d5b4	-0.121013075
248	0xbdd2bcdb	-0.102899276
249	0x331f0d91	3.703241e-08
250	0x2a08d242	1.2152174e-13
251	0x00000004	6e-45
252	0x00000004	6e-45
253	0x0000000b	1.5e-44
254	0xbd1b8522	-0.037968762
255	0xbc0a3d7d	-0.0084375115

exp_avg_sq f4 [10, 784]
0	0x00000000	0.0
1	0x00000000	0.0
2	0x00000000	0.0
3	0x00000000	0.0
4	0x00000000	0.0
5	0x00000000	0.0
6	0x00000000	0.0
7	0x00000000	0.0
8	0x00000000	0.0
9	0x00000000	0.0
10	0x00000000	0.0
11	0x00000000	0.0
12	0x00000000	0.0
13	0x00000000	0.0
14	0x00000000	0.0
15	0x00000000	0.0
16	0x00000000	0.0
17	0x00000000	0.0
18	0x00000000	0.0
19	0x00000000	0.0
20	0x00000000	0.0
21	0x00000000	0.0
22	0x00000000	0.0
23	0x00000000	0.0
24	0x00000000	0.0
25	0x00000000	0.0
26	0x00000000	0.0
27	0x00000000	0.0
28	0x00000000	0.0
29	0x00000000	0.0
30	0x00000000	0.0
31	0x00000000	0.0
32	0x00000000	0.0
33	0x00000000	0.0
34	0x00000000	0.0
35	0x00000000	0.0
36	0x00000000	0.0
37	0x00000000	0.0
38	0x35b888ea	1.3748916e-06
39	0x3b2e469b	0.0026592377
40	0x3c22e7c8	0.009942956
41	0x3adb5c95	0.0016735966
42	0x00000000	0.0
43	0x3ac60940	0.0015108958
44	0x3c38f19f	0.011288076
45	0x3b275725	0.002553412
46	0x00000000	0.0
47	0x0d817375	7.978034e-31
48	0x0f4eaa71	1.018941e-29
49	0x0d4ae446	6.252083e-31
50	0x000001f4	7e-43
51	0x00000000	0.0
52	0x00000000	0.0
53	0x00000000	0.0
54	0x00000000	0.0
55	0x00000000	0.0
56	0x00000000	0.0
57	0x00000000	0.0
58	0x00000000	0.0
59	0x3590aee7	1.0779739e-06
60	0x3409a104	1.2817696e-07
61	0x2f8e1f60	2.5851943e-10
62	0x31f0fa76	7.0133934e-09
63	0x3ba7ea11	0.0051243384
64	0x39abf83b	0.00032800608
65	0x357274e0	9.03221e-07
66	0x384b7469	4.8507387e-05
67	0x3b347779	0.0027537032
68	0x3c53b424	0.012921367
69	0x3c21978d	0.009862793
70	0x3b8b198d	0.0042449892
71	0x3aeeb21d	0.0018211041
72	0x3b28def9	0.0025767668
73	0x3aef294d	0.0018246562
74	0x38f1b280	0.00011525024
75	0x39294b48	0.0001614514
76	0x3a19f770	0.0005873358
77	0x37bd9cde	2.2603603e-05
78	0x37d381bf	2.5213578e-05
79	0x3754d192	1.2684979e-05
80	0x00000000	0.0
81	0x00000000	0.0
82	0x00000000	0.0
83	0x00000000	0.0
84	0x00000000	0.0
85	0x00000000	0.0
86	0x00000000	0.0
87	0x37227ce1	9.685028e-06
88	0x3912ea41	0.00014010911
89	0x3967c5a0	0.00022103498
90	0x399d70c8	0.00030029402
91	0x3cb9e356	0.02269141
92	0x3d12871b	0.035773378
93	0x3d26f07e	0.040756695
94	0x3d499bb6	0.049220763
95	0x3df5ca5f	0.1200149
96	0x3e49a434	0.19691545
97	0x3e8b8526	0.27250022
98	0x3e8ea640	0.27861214
99	0x3e91b621	0.28459266
100	0x3e9a3685	0.3011972
101	0x3eadf30c	0.33974493
102	0x3e80f6a1	0.25188163
103	0x3e5947db	0.21218817
104	0x3e176f39	0.14788522
105	0x3dc3b63c	0.09556243
106	0x3d16ec9d	0.036846746
107	0x3c597b43	0.013274017
108	0x3b8cc1e8	0.0042955764
109	0x3834d07c	4.310951e-05
110	0x2dec1bb3	2.6842395e-11
111	0x00000000	0.0
112	0x00000000	0.0
113	0x00000000	0.0
114	0x00000000	0.0
115	0x362da361	2.5874108e-06
116	0x391d2ee9	0.00014990162
117	0x39794e62	0.0002377569
118	0x3c288d6d	0.010287625
119	0x3db80980	0.08986187
120	0x3e1f3d3f	0.15550707
121	0x3e8a3c66	0.26999205
122	0x3ee1f04b	0.4412864
123	0x3f19e63f	0.6011695
124	0x3f5c31c2	0.86013424
125	0x3f8ed358	1.1158247
126	0x3fab9043	1.34034
127	0x3fc65143	1.5493549
128	0x3fd496e9	1.6608554
129	0x3fb9ab31	1.4505368
130	0x3f93ac03	1.1536869
131	0x3f85ad68	1.0443544
132	0x3f46caea	0.7765337
133	0x3ee34c5a	0.4439419
134	0x3e78f70d	0.24312992
135	0x3e07c30e	0.13258001
136	0x3d72fb9b	0.05932198
137	0x3c0aa6bf	0.008462607
138	0x2c406472	2.73406e-12
139	0x00000000	0.0
140	0x00000000	0.0
141	0x00000000	0.0
142	0x383fcf42	4.5730972e-05
143	0x393a39ef	0.00017759924
144	0x3b066936	0.0020509488
145	0x3c81fb5b	0.015866926
146	0x3dc96c44	0.09835103
147	0x3e6105d2	0.21974877
148	0x3ee0b4ee	0.43888038
149	0x3f32977d	0.697624
150	0x3f8d549e	1.1041448
151	0x3fcfe039	1.6240302
152	0x40049752	2.0717359
153	0x4032c483	2.7932441
154	0x4058e26a	3.3888192
155	0x40632cf4	3.5496187
156	0x4067ef1c	3.623969
157	0x40697f6d	3.6484025
158	0x404eae49	3.2293875
159	0x401b3348	2.425005
160	0x3ff4137a	1.9068444
161	0x3f9d4e51	1.2289525
162	0x3f24acb9	0.64326054
163	0x3e83a027	0.25708124
164	0x3db373c1	0.08762313
165	0x3c160c93	0.009158271
166	0x39306231	0.00016821247
167	0x3936f4b6	0.00017448034
168	0x00000000	0.0
169	0x090f5808	1.7254391e-33
170	0x33c1fcbe	9.0332364e-08
171	0x39574269	0.00020528738
172	0x3c2265f4	0.009912003
173	0x3d87835f	0.06616854
174	0x3e72c643	0.23708443
175	0x3ee86895	0.4539229
176	0x3f3f0c59	0.74628216
177	0x3f9f7dab	1.2460226
178	0x3ff6c563	1.9278988
179	0x401aa680	2.4164124
180	0x403eca6f	2.9811056
181	0x407dd90e	3.966373
182	0x4094cdee	4.650138
183	0x409f280f	4.97364
184	0x40a46480	5.137268
185	0x40a4aaeb	5.145864
186	0x4094e382	4.652772
187	0x407195d2	3.7747693
188	0x40405085	3.0049145
189	0x4000840f	2.0080602
190	0x3f9627ed	1.1730934
191	0x3f0146c7	0.5049862
192	0x3de7f72f	0.113264434
193	0x3c216fe7	0.00985334
194	0x3b20b037	0.0024519095
195	0x3a6ddf08	0.0009074067
196	0x00000000	0.0
197	0x0d6cf4bd	7.301771e-31
198	0x0a84022c	1.2711955e-32
199	0x395e8b81	0.00021223539
200	0x3c83e1b7	0.01609884
201	0x3db155e2	0.08658959
202	0x3e9e96e2	0.3097449
203	0x3f35125d	0.70731145
204	0x3f9b2fa7	1.2123917
205	0x3fef32de	1.8687398
206	0x4026275a	2.5961518
207	0x4055e4f5	3.3420994
208	0x4080c974	4.0245914
209	0x4090f722	4.5301676
210	0x40a25712	5.0731287
211	0x40a3fee1	5.124863
212	0x40ad6189	5.418156
213	0x40aee05c	5.4648876
214	0x40a1acc7	5.052341
215	0x40885493	4.260324
216	0x40648696	3.5707145
217	0x40296b29	2.6471655
218	0x3fd3a29c	1.6534
219	0x3f5ec972	0.8702613
220	0x3e8a8f46	0.27062434
221	0x3cb06d2d	0.021536434
222	0x3919c3b6	0.00014664125
223	0x361f8404	2.376969e-06
224	0x3a31d928	0.0006784373
225	0x09f731be	5.9509864e-33
226	0x39b562e5	0.00034596692
227	0x3a9accba	0.0011810281
228	0x3c414968	0.011797287
229	0x3e0dd67b	0.13851349
230	0x3ef16fcc	0.47155607
231	0x3f8ee237	1.1162785
232	0x3fd8347f	1.689102
233	0x401d4bcb	2.457751
234	0x404e6e60	3.2254868
235	0x407d00e2	3.953179
236	0x408c3caf	4.3824077
237	0x4096e9ab	4.716024
238	0x409a33c4	4.818819
239	0x409d7143	4.920076
240	0x40a32185	5.0978417
241	0x40a4d71b	5.151258
242	0x409892d9	4.7679257
243	0x40884d21	4.259415
244	0x406c1f22	3.6894002
245	0x4037cd63	2.8719108
246	0x3ffc723c	1.9722362
247	0x3f89ba59	1.0759994
248	0x3ea337d2	0.31878525
249	0x3c506aeb	0.012720804
250	0x37a7e646	2.001518e-05
251	0x09c091db	4.635948e-33
252	0x00000000	0.0
253	0x0000014d	4.67e-43
254	0x3999c68a	0.00029330357
255	0x3bbeed4e	0.0058266288

exp_avg f4 [10]
0	0xbb3acce1	-0.0028503465
1	0xbc0c8d14	-0.0085785575
2	0xba7f2efa	-0.0009734478
3	0x3bb0a169	0.0053903353
4	0xbc001d3c	-0.00781947
5	0xbb4708b5	-0.003037018
6	0x3c01a13e	0.007911978
7	0xbb4bf878	-0.003112344
8	0x3b3c260f	0.0028709208
9	0x3c271551	0.010197953

exp_avg_sq f4 [10]
0	0x393d182f	0.00018033454
1	0x3959f90b	0.00020787508
2	0x39ff682d	0.00048715007
3	0x3a2d531a	0.00066118094
4	0x39d0077a	0.00039678422
5	0x3a3d2e8d	0.00072167144
6	0x398518c2	0.00025386183
7	0x39cd8779	0.00039201582
8	0x3a829578	0.0009962758
9	0x3a3e660e	0.0007263132
