checkpoint/MLP_1_Layer checkpoint/last_model.pth (torch, 97536 bytes, 6 tensors)

MLP.weight f4 [10, 784]
00000000: 4f0d 033d 1c18 013c 1274 ff3c 981d 31bc
00000010: 40ad 70ba 3e9c a5bc 2366 d2bc a54f a7bc
00000020: 06b4 e03c e5cb 87bc bef1 ffbc 9edf f53c
00000030: c02c ef3a 10bf a03c 342c 683c 3c2e 5abc
00000040: 2a83 943c 90ba 8abb 92bb 1cbc 26e8 2abc
00000050: 8030 fab9 dc36 a5bb a89f 8dbb 1c4b 0fbd
00000060: 489a f3bb 2a26 b93c fa92 fcbc f6fa fa3c
00000070: 809c f9b9 b0c5 873c 00e1 edbb ec49 d93c
00000080: 5aea e43c e810 ffbc 8a29 843c f8c9 e13b
00000090: d1d9 e9bc f4f3 fb3b 1640 26bd 2f4c 463e
000000a0: c4b8 113e 61ae 533e cc6f 953b 3a82 543e
000000b0: 924a 773e 2158 893e 6028 88bb ab31 0abd
000000c0: 385e debc ca8f 11bd bc0f 313c 7587 bbbc
000000d0: d865 ad3b 163a b33c c052 ba3c 8709 99bc
000000e0: be79 e43c 40d1 32bc 8159 073d 8f5e 883d
000000f0: 5ee6 883d 754f 2bbd e166 47bd 17d4 733d
00000100: e76f 73bd a78a e4bd 4472 cdbd fc60 8cbd
00000110: 86b5 41be 0070 26be 6696 39be 7a55 8dbe
00000120: f24b dcbd f84c 1dbe 5573 0fbe d7b9 a7bd
00000130: 32f0 abbd 6c73 91bd ad3a 86bc df3d 0d3d
00000140: 7ccf c6bc 2aea f9bc e617 dc3c 9a0b 9ebc
00000150: d4c3 b8bb b83a 863b 026a b53c 5a64 df3d
00000160: 072c 82bd 69ff 703d 97d6 c23b 347e cabd
00000170: 7107 32bc 1b7a 07be 1d64 cbbd c9f1 2dbc
00000180: a03d 69bc 72bd 8c3d f194 a13d 6eef 883b
00000190: a807 fcbc 38ae 0e3c 8abf 62bd a7e5 e3bc
000001a0: af96 f53c afb8 a6bd a089 563b 05d8 023d
000001b0: 67d3 903c 1b13 473d ae08 60bd be4e 933c
000001c0: 9320 fabc a06b b9ba a191 073d 5b64 b3bd
000001d0: b730 48bd 7b40 24be a5ae fbbd 5c14 b43c
000001e0: 6c44 b7bc 4a22 c33d f8b7 1abd 7635 193d
000001f0: 9856 41bd 5aae 243d 9d3a b1bc 8012 2f3d
00000200: 498f 62bc 98b9 e23c e999 6bbc 915f 8dbc
00000210: c099 cc3c b90e 21bd 0659 893d 9f72 35bc
00000220: 8306 80bd 2160 1d3d 60e7 a0bd ba2a fbbc
00000230: 0006 29ba 4abf efbc 1d24 fd3c 6ba4 d0bd
00000240: cd59 d4bc a013 43be fe6a 593d 8c61 dbbc
00000250: 1564 c73c 502f df3c 2bab c03c aefc b23c
00000260: 6d7b efbc 10c2 21bb 6295 fe3c c624 3abc
00000270: 7563 1a3c 341f 9f3c b58d a4bc 049e 8d3b
00000280: eda4 b8ba 5d68 73bc 266a 1a3d 3646 53bd
00000290: d12a 0bbd e4df 17be 827d 7dbd c40d e5bc
000002a0: 959b 83bc 84f8 523c 1821 6dbd 161d 10bd
000002b0: 37d2 cebc 6b9d 2a3d 9e40 be3c e43e 82ba
000002c0: 4a50 9c3c 9edc 9ebd af24 a73b c442 283c
000002d0: 7565 48bb f37b 7b3d d22f 573c 15cf 46bc
000002e0: ff98 933b 8579 11bc 1e73 b43c 3d88 b13c
000002f0: 56eb 8ebc c089 4e3d 9911 1a3d a3cb 05bd
00000300: 1e26 ebbd 7095 33be 8b73 22be 695e 02bd
00000310: b8df f93b 04e1 533b 5c65 9abd b26e b1bc
00000320: cd44 85bd eef0 383d c5aa 583d a448 d63c
00000330: de91 3bbd 2caf 063d 35b5 373c c941 e43c
00000340: e45e 5fbc a62d 8f3c 251b 343c b049 4c3c
00000350: bbea 82bb 688b 033d 65fb 803c 1bee eb3a
00000360: 8ecd 133d ec0c 8cbc 7e01 16bd 3396 e93c
00000370: 4c21 00bd cbfc 90bd a1e0 4ebe c724 3f3d
00000380: 72b0 9d3e b800 863c e4c5 bc3d 918b 283e
00000390: 5499 7ebd 8d7d f9bc 2f14 04bd 6f36 b8bb
000003a0: 67d3 96bc 0339 bd3c 3815 0abd 107b cd3c
000003b0: b6f8 1e3d 35ec c6bc a4c4 d53c 2fed f03c
000003c0: acd9 823d 54fe f73b cd2c 5a3c 38da 0ebd
000003d0: 5e0c 1c3d 22af f23c 4546 e53c e69c 0a3c
000003e0: 992b e0ba b788 3abe 6444 44be 6481 843b
000003f0: bc20 6b3c e0a9 303b 88c5 a03e 8ece 9c3a
0.031995114 0.007879283 0.031183276 -0.010810278 -0.00091810897 -0.020216104 -0.025683468 -0.02042372
0.027429592 -0.016576717 -0.031243201 0.030013856 0.001824759 0.019622356 0.014170695 -0.013316687
0.01812895 -0.0042336658 -0.009566205 -0.010431325 -0.0004771985 -0.00504194 -0.004322011 -0.03498374
-0.0074341632 0.022601206 -0.030831803 0.030637246 -0.00047609583 0.016573757 -0.007259488 0.026524507
0.027943779 -0.031135991 0.016133089 0.0068905316 -0.028546246 0.0076889936 -0.04058846 0.19364999
0.14230639 0.20671989 0.0045604464 0.20752802 0.2414954 0.2682505 -0.0041552037 -0.033738773
-0.027144536 -0.03553752 0.010806974 -0.02289174 0.0052916817 0.021878283 0.022744536 -0.0186813
0.027890082 -0.010914147 0.033044342 0.066586606 0.06684564 -0.041823823 -0.048682097 0.059528437
-0.05943289 -0.11159258 -0.1003156 -0.06854436 -0.18916902 -0.16253662 -0.18123779 -0.27604276
-0.10756673 -0.15361392 -0.1400884 -0.08189743 -0.08395423 -0.07102093 -0.0163854 0.034482833
-0.024268858 -0.030507166 0.026866864 -0.019292641 -0.005638579 0.0040963553 0.022145275 0.109078124
-0.06356054 0.058837328 0.0059459913 -0.098873526 -0.010866032 -0.13230173 -0.099312045 -0.010616728
-0.014235884 0.06872071 0.078897364 0.004178933 -0.03076537 0.008708529 -0.055358447 -0.027819468
0.029979078 -0.08140694 0.003273584 0.031944294 0.01767893 0.048602205 -0.054695778 0.017981883
-0.03053311 -0.0014146455 0.033097867 -0.08759376 -0.048874583 -0.16040222 -0.1228917 0.021982364
-0.022371493 0.095280245 -0.037773103 0.0374045 -0.047201723 0.040205337 -0.021634394 0.042742252
-0.013828107 0.027676389 -0.014379957 -0.017257484 0.024975657 -0.03932068 0.06706433 -0.011074691
-0.06251242 0.038421754 -0.07856631 -0.030660022 -0.00064477324 -0.029266018 0.03090101 -0.1018761
-0.025921727 -0.19050455 0.05308055 -0.026779912 0.024339715 0.02724424 0.02351912 0.021849003
-0.029233659 -0.002468232 0.03107709 -0.0113613065 0.0094231265 0.019424058 -0.020087102 0.0043218154
-0.0014087238 -0.014856425 0.037698887 -0.05158063 -0.03397638 -0.14831501 -0.06188727 -0.027960666
-0.016065398 0.012876634 -0.05789289 -0.03518399 -0.025246723 0.04165403 0.023224171 -0.0009936956
0.019081254 -0.07756923 0.0051008086 0.010269824 -0.0030578051 0.061397504 0.01313396 -0.012134333
0.0045043225 -0.00887907 0.022027548 0.021671409 -0.017446201 0.050424337 0.03761444 -0.032664906
-0.1148188 -0.17537475 -0.15864389 -0.031828318 0.0076255463 0.0032330165 -0.07538864 -0.021659229
-0.06507263 0.045151643 0.052897234 0.026157685 -0.045793407 0.0328819 0.011212637 0.0278634
-0.0136334635 0.017477822 0.0109928 0.01246874 -0.003995267 0.03211537 0.015744874 0.0018000038
0.036084704 -0.017096005 -0.036622517 0.028514003 -0.031281754 -0.070794664 -0.20202877 0.046665933
0.3079868 0.016357765 0.09217432 0.1645949 -0.062157944 -0.030455375 -0.03224581 -0.0056217234
-0.018411351 0.023098474 -0.033711642 0.025083095 0.038811408 -0.024282554 0.026094742 0.029409973
0.06389174 0.00756816 0.013316345 -0.03487608 0.03809773 0.029624525 0.027987609 0.008460259
-0.0017102837 -0.18216215 -0.19166714 0.004043745 0.014351066 0.0026956722 0.31400704 0.0011963414

MLP.bias f4 [10]
00000000: 1a2c f0be 97b2 853e a329 883e cd54 9dbe
00000010: 5e0f c73d f0e3 9a3f f7d6 8abe 8041 f03e
00000020: a149 68bf 793d 84be
-0.46908647 0.26112816 0.26594266 -0.3072876 0.09719728 1.2100811 -0.2711713 0.46924973
-0.9073735 -0.2582815

exp_avg f4 [10, 784]
00000000: 0000 0000 0000 0000 0000 0000 0000 0000
00000010: 0000 0000 0000 0000 0000 0000 0000 0000
00000020: 0000 0000 0000 0000 0000 0000 0000 0000
00000030: 0000 0000 0000 0000 0000 0000 0000 0000
00000040: 0000 0000 0000 0000 0000 0000 0000 0000
00000050: 0000 0000 0000 0000 0000 0000 0000 0000
00000060: 0000 0000 0000 0000 0000 0000 0000 0000
00000070: 0000 0000 0000 0000 0000 0000 0000 0000
00000080: 0000 0000 0000 0000 0000 0000 0000 0000
00000090: 0400 0000 0400 0000 0400 0000 0400 0080
000000a0: 2a00 0000 8f11 9301 4213 1d11 9919 ba12
000000b0: 3de2 cc10 9ea2 590a ad04 5d09 0400 0000
000000c0: 0400 0000 0400 0000 0000 0000 0000 0000
000000d0: 0000 0000 0000 0000 0000 0000 0000 0000
000000e0: 0000 0000 0000 0000 0000 0000 0400 0080
000000f0: 0400 0080 0400 0000 0400 0000 0400 0000
00000100: 1fc7 270f c0b6 8a0f e649 3a2a 4fd5 b82d
00000110: 7465 d72d 9c58 fdbc 69fa a6bc f127 a514
00000120: 12b6 2895 0fa0 7495 132d c610 de66 c511
00000130: 99db 9311 680b 0000 0d0c 0000 8c08 0000
00000140: 0400 0000 0000 0000 0000 0000 0000 0000
00000150: 0000 0000 0000 0000 0000 0000 dec3 4e05
00000160: 8e61 3b07 0400 0080 0e28 1d38 62f5 a039
00000170: 62f5 a039 1cb7 c538 a3eb f1bc 7173 7dbe
00000180: e52a b6be 6a17 7dbe 3994 0cbe 688a 79bc
00000190: 4ee4 4139 ec3f 1c39 5dfd 0038 0c46 aeb3
000001a0: b99a bfbb 2b03 d1bb d829 ecba 9ff2 0d37
000001b0: 01b7 f393 e589 0b93 0400 0000 0000 0000
000001c0: 0000 0000 0000 0000 0400 0000 6feb b405
000001d0: 0400 0000 d839 2236 82b6 4539 3853 a039
000001e0: 3bc3 933a 394c 813b 3745 c3bd ac76 b1be
000001f0: 94b4 bdbe 2910 c6be 595e b4be 5550 51be
00000200: fdd7 8bbe 27f2 9dbe ae6d 15be 261f 0cbd
00000210: 89a0 b43a 163f 03bc 7417 edba 2a00 8339
00000220: 31a9 0b37 3228 9a2d 0400 0000 0400 0000
00000230: 0000 0000 0000 0000 0400 0000 5fb0 3107
00000240: 44c7 eb17 900f 5f37 f498 adb9 75d2 3a39
00000250: b4f2 b93b 606e 1abd bd9d 9ebe 0e05 f2bd
00000260: e8f6 c9bd c103 05bd 5b16 90be 5a93 74bf
00000270: 1dae b0bf 2b54 91bf 9a29 89bf 97af 4abf
00000280: 6c0a 32bd 59ab 34bc 0204 80bb 2f21 9f39
00000290: 678d c136 9e31 782f 200b 2900 b5fc 6200
000002a0: 0000 0000 0400 0000 67a9 4c26 0400 0000
000002b0: 4801 7fae 2301 e9b9 4864 1aba 2974 563b
000002c0: b1fe c3bb 2958 55be 1586 cabd 0005 06be
000002d0: 3470 fabd 88d0 c1bd 248a 58bf a96f b8bf
000002e0: e09f b0bf b074 9fbf e7e2 79bf 7761 51bf
000002f0: e1d5 f3be e183 c73b b79e ad3d ecce 0abb
00000300: b040 a0b7 28ad c52f 1144 2b1d 34bd e100
00000310: 0000 0000 a20e ea08 b720 6127 0400 0000
00000320: fead f1b1 d6e0 0bba 3b4a 1fba d8ff 413c
00000330: 7acd 31be 8af9 28bf 7171 46bf 8b11 11be
00000340: 2b98 f3bd b6a3 03bf 2994 9cbf 56c8 b3bf
00000350: 8e65 7fbf 61e8 f7be 29be d9be 3f63 2cbf
00000360: b33c 10bf b80e 41be 0522 453e 9184 833d
00000370: 3d4c f238 4339 6b36 0151 911c 1fb7 030c
00000380: a7ad 4485 7f0b 3809 2820 3527 f55f 0c0d
00000390: 21e4 3db4 a9ef 4eba aaee e13b 216b 96bc
000003a0: 28fe 40bf 3d13 78bf 596d debe 94d6 0cbe
000003b0: 769f 9abe 662b 92bf 157e b4bf c8ca a5bf
000003c0: 0a9d 25bf 3d7a 10bd fb78 31be 9c89 14bf
000003d0: 4a2e fbbe 9bb8 0abf b2e0 c5bc b98c 843e
000003e0: 0e62 bd3d 92ef de34 7a8d 960c 2388 960c
000003f0: 0400 0000 310d 5309 5bc9 bcb4 71cf a7b3
0.0 0.0 0.0 0.0 0.0 0.0 0.0 0.0
0.0 0.0 0.0 0.0 0.0 0.0 0.0 0.0
0.0 0.0 0.0 0.0 0.0 0.0 0.0 0.0
0.0 0.0 0.0 0.0 0.0 0.0 0.0 0.0
0.0 0.0 0.0 0.0 6e-45 6e-45 6e-45 -6e-45
5.9e-44 5.4024467e-38 1.239105e-28 1.1744561e-27 8.081239e-29 1.0478755e-32 2.6604106e-33 6e-45
6e-45 6e-45 0.0 0.0 0.0 0.0 0.0 0.0
0.0 0.0 0.0 -6e-45 -6e-45 6e-45 6e-45 6e-45
8.272085e-30 1.3678243e-29 1.6545757e-13 2.1013106e-11 2.4487724e-11 -0.030926041 -0.020383077 1.6676496e-26
-3.4070958e-26 -4.9401672e-26 7.816668e-29 3.1144516e-28 2.3327848e-28 4.092e-42 4.323e-42 3.066e-42
6e-45 0.0 0.0 0.0 0.0 0.0 0.0 9.7220486e-36
1.4096985e-34 -6e-45 3.746902e-05 0.00030700403 0.00030700403 9.427799e-05 -0.029531306 -0.24751069
-0.355796 -0.24715963 -0.13728417 -0.0152307525 0.00018490964 0.00014901132 3.075354e-05 -8.115248e-08
-0.005847302 -0.0063785515 -0.0018017842 8.4607445e-06 -6.152228e-27 -1.7612254e-27 6e-45 0.0
0.0 0.0 6e-45 1.7013603e-35 6e-45 2.417355e-06 0.00018855373 0.0003057958
0.0011273393 0.003945854 -0.09534686 -0.34660852 -0.37051833 -0.38684204 -0.35228232 -0.204408
-0.27313223 -0.3084881 -0.1459262 -0.034209393 0.0013780753 -0.008010646 -0.0018088655 0.0002498639
8.324439e-06 1.7525623e-11 6e-45 6e-45 0.0 0.0 6e-45 1.3367831e-34
1.5236821e-24 1.3295459e-05 -0.0003311109 0.00017816744 0.0056746844 -0.037702918 -0.3097972 -0.1181737
-0.09861547 -0.032474283 -0.28142056 -0.9553734 -1.3803135 -1.1353811 -1.0715821 -0.7917418
-0.04346697 -0.011027181 -0.003906728 0.00030351567 5.7683096e-06 2.2573096e-10 3.769246e-39 9.090533e-39
0.0 6e-45 7.10063e-16 6e-45 -5.7981425e-11 -0.0004444207 -0.0005889577 0.0032723045
-0.0059812893 -0.20834412 -0.09888855 -0.13087845 -0.12228432 -0.09463602 -0.84585786 -1.4409076
-1.379879 -1.2457485 -0.9761185 -0.81789345 -0.47624114 0.0060887192 0.08477538 -0.0021180464
-1.9103609e-05 3.5957126e-10 2.2666851e-21 2.073086e-38 0.0 1.4086803e-33 3.1242757e-15 6e-45
-7.0338038e-09 -0.00053359324 -0.000607643 0.011840783 -0.1736354 -0.66005766 -0.7751685 -0.14166848
-0.11894258 -0.5142168 -1.2232715 -1.4045513 -0.99764335 -0.4841948 -0.42527893 -0.6733894
-0.5634262 -0.18853271 0.19251259 0.064217694 0.0001155366 3.505106e-06 9.616234e-22 1.0146979e-31
-9.2477706e-36 2.21536e-33 2.5136228e-15 4.3256335e-31 -1.768499e-07 -0.00078939885 0.006894906 -0.01836163
-0.7538781 -0.96904355 -0.434428 -0.1375373 -0.30199784 -1.1419494 -1.4100977 -1.2952509
-0.6469275 -0.035272826 -0.17331307 -0.58022475 -0.49058753 -0.54187936 -0.024154995 0.25888613
0.09247218 4.1525033e-07 2.3196307e-31 2.3193094e-31 6e-45 2.5404404e-33 -3.5164234e-07 -7.814277e-08

exp_avg_sq f4 [10, 784]
00000000: 0000 0000 0000 0000 0000 0000 0000 0000
00000010: 0000 0000 0000 0000 0000 0000 0000 0000
00000020: 0000 0000 0000 0000 0000 0000 0000 0000
00000030: 0000 0000 0000 0000 0000 0000 0000 0000
00000040: 0000 0000 0000 0000 0000 0000 0000 0000
00000050: 0000 0000 0000 0000 0000 0000 0000 0000
00000060: 0000 0000 0000 0000 0000 0000 0000 0000
00000070: 0000 0000 0000 0000 0000 0000 0000 0000
00000080: 0000 0000 0000 0000 0000 0000 0000 0000
00000090: 0000 0000 2925 0530 4704 1f34 fd50 053b
000000a0: fe34 023c 4903 b03a 2470 c82f a874 873a
000000b0: 4bc4 f53b 49d6 dd3a 18e6 7335 7d15 0300
000000c0: 0000 0000 0000 0000 0000 0000 0000 0000
000000d0: 0000 0000 0000 0000 0000 0000 0000 0000
000000e0: 0000 0000 0000 0000 0000 0000 9217 0637
000000f0: e21b 7f35 57f5 b32b ad10 f831 257b 203a
00000100: 2a9c 2b3a 1597 dc3a 37dd 5837 44e6 8d3b
00000110: 1c0c 5d3c 0122 763c e75a 873b 2a00 b23b
00000120: c8f7 ae3b 2574 8838 19f4 b038 1097 8b35
00000130: ae05 e634 abba ea2b 619a 1e21 7390 db0a
00000140: 0000 0000 0000 0000 0000 0000 0000 0000
00000150: 0000 0000 0000 0000 0000 0000 2eb3 9338
00000160: e9cc 3b3a 13d0 373a 79b8 fd39 4a53 893c
00000170: e42f 013d 4c43 013d 0333 643d 3fc7 0c3e
00000180: ee56 4f3e 186f 533e 5d32 613e 28d7 7b3e
00000190: af78 b13e 42c3 9c3e c588 603e 7189 5a3e
000001a0: 5bb6 103e be5f c13d 41d8 d23c 55b0 183b
000001b0: 49a0 f739 57ae b837 665c 8834 0000 0000
000001c0: 0000 0000 0000 0000 0000 0000 b147 2d37
000001d0: 421f 2f36 1a5c 0b3a dc74 2c3c d0db 933d
000001e0: 4c4f fd3d 8070 5d3e 5593 bb3e 781e 143f
000001f0: 57f5 483f ca50 8a3f 8cf8 a43f f0fd ac3f
00000200: e724 b13f 92a1 b33f c91e 953f c903 7e3f
00000210: 5739 203f 0192 b73e 7183 4c3e 3e80 e73d
00000220: e8da 213d 96f1 b93b 3b3a de32 0000 0000
00000230: 0000 0000 0000 0000 3512 7812 dc1d 273a
00000240: 0765 683b c0f5 043c f2b3 d93d 53a5 453e
00000250: 3a5a b73e c031 283f bc18 8a3f 5d4b ca3f
00000260: 258c ff3f 94f9 2340 f40f 3d40 1081 5140
00000270: 3261 6140 50e7 6040 8b13 5240 29af 1a40
00000280: 36c3 cb3f a671 803f 2ade 093f e24b 943e
00000290: fdc3 dc3d d1fe 1d3c 0f26 df39 785f 6018
000002a0: 0000 0000 0000 0000 a339 832c 8228 aa32
000002b0: a304 0a3c b361 7c3d 4f6d 513e 1aa2 c33e
000002c0: 6335 303f 44b5 9d3f ecdc 0140 a8e4 2140
000002d0: 611d 4240 a9ec 6b40 3ab3 8b40 00d4 9940
000002e0: 31f1 a140 3cb3 a140 bfe8 9340 1978 7440
000002f0: c734 3940 ba89 ee3f 8480 923f 5b47 0a3f
00000300: 7c15 193e 2101 bc3b 5dbd e738 eae8 d638
00000310: 0000 0000 021f 0a17 7fe9 992e ae8d 9536
00000320: 2a32 663b dbdf ac3d f280 983e 373f 1d3f
00000330: 99d1 993f c8b5 f83f 7613 2e40 8e2e 4c40
00000340: b39d 6940 6d0a 8840 f45d 9940 d011 9f40
00000350: 60d0 a540 e983 a540 57aa 9b40 76fc 8c40
00000360: 45a2 6d40 d47a 2d40 ac3c da3f 68a5 703f
00000370: 82d4 a23e 6c3f cb3c 2daa 353a 8be0 ee39
00000380: 108c 313a f401 0000 bce4 4537 ee53 8439
00000390: 8aed 493c 51f5 1e3e 27d1 f33e 5f40 823f
000003a0: 5c4c e73f 0d57 2240 91dc 4740 7e74 6340
000003b0: e161 7d40 61d6 8f40 2933 9640 63fa 9a40
000003c0: 3933 9f40 d791 9c40 e86a 9240 50ac 8740
000003d0: 48cd 6e40 dd41 3f40 ad8e 0340 1bf1 9d3f
000003e0: 7803 ad3e 3807 9e3c 5965 df3a bdbb 0c33
000003f0: 0000 0000 f401 0000 74cb 5039 678a 2b3b
0.0 0.0 0.0 0.0 0.0 0.0 0.0 0.0
0.0 0.0 0.0 0.0 0.0 0.0 0.0 0.0
0.0 0.0 0.0 0.0 0.0 0.0 0.0 0.0
0.0 0.0 0.0 0.0 0.0 0.0 0.0 0.0
0.0 0.0 0.0 0.0 0.0 4.8437926e-10 1.4809585e-07 0.0020342462
0.007947205 0.0013428713 3.645947e-10 0.0010334449 0.0075002066 0.0016924824 9.0859385e-07 2.83215e-40
0.0 0.0 0.0 0.0 0.0 0.0 0.0 0.0
0.0 0.0 0.0 7.99251e-06 9.503548e-07 1.278681e-12 7.2196458e-09 0.00061218656
0.00065464026 0.0016829694 1.2926109e-05 0.0043304283 0.013491657 0.015022756 0.0041307095 0.0054321485
0.0053395964 6.506619e-05 8.437801e-05 1.0400272e-06 4.284497e-07 1.6678511e-12 5.37368e-19 2.1143269e-32
0.0 0.0 0.0 0.0 0.0 0.0 0.0 7.042881e-05
0.0007164018 0.00070119015 0.00048393363 0.016763348 0.031539813 0.03155832 0.05571271 0.13747881
0.20248005 0.20647848 0.21991868 0.24593794 0.34662387 0.3061772 0.21927173 0.21341492
0.14132063 0.094420895 0.025737884 0.0023298461 0.00047230933 2.2015693e-05 2.5399203e-07 0.0
0.0 0.0 0.0 1.03282955e-05 2.6095227e-06 0.00053161534 0.010525908 0.0721966
0.1236864 0.21624947 0.36635843 0.5785899 0.7849936 1.0805905 1.288835 1.3514996
1.3839387 1.4033682 1.165002 0.99224526 0.62587494 0.3585358 0.19972016 0.11303757
0.039515406 0.0056745512 2.5870682e-08 0.0 0.0 0.0 7.8277444e-28 0.0006374994
0.0035460608 0.008115232 0.10630025 0.19301347 0.35811025 0.6570091 1.0788798 1.5804249
1.9964644 2.562108 2.9540987 3.2735023 3.5215573 3.5141182 3.2824428 2.416941
1.5918949 1.0034683 0.5385462 0.28964144 0.10779569 0.0096432725 0.0004256223 2.899952e-24
0.0 0.0 3.729643e-12 1.9809026e-08 0.008423957 0.06161661 0.20451854 0.3820961
0.6883146 1.2320943 2.029109 2.529581 3.0330431 3.6863196 4.3656282 4.807129
5.0606923 5.053129 4.6221614 3.8198302 2.8938463 1.8635781 1.144547 0.5401513
0.14949602 0.0057374393 0.0001105021 0.00010247699 0.0 4.462934e-25 6.999112e-11 4.4570397e-06
0.0035125115 0.084411345 0.29785877 0.61424583 1.2017089 1.9430475 2.7199378 3.1903415
3.6502502 4.2512727 4.792719 4.9709244 5.1816864 5.1723523 4.8645434 4.405818
3.7130291 2.7106218 1.7049766 0.9400239 0.31802756 0.024810515 0.000692996 0.00045562195
0.0006772885 7e-43 1.1795371e-05 0.00025239534 0.0123247 0.15523268 0.47620508 1.0175894
1.8070178 2.5365632 3.1228373 3.553985 3.959099 4.4949193 4.693745 4.843065
4.975003 4.8928027 4.57555 4.2397842 3.7312794 2.988395 2.0555832 1.2339205
0.3379171 0.019290552 0.0017043754 3.2767037e-08 0.0 7e-43 0.00019912218 0.0026175024

exp_avg f4 [10]
00000000: 083e a9bb 77d4 e13a 9c8e 4bbb eef5 723b
00000010: f00d 473b e6bb 163b 3d51 c83a cd73 a7bb
00000020: c56e 0d3c b24d f7bb
-0.0051648654 0.0017229457 -0.0031060344 0.0037072855 0.0030373298 0.002300018 0.0015283 -0.00511024
0.008632367 -0.007547104

exp_avg_sq f4 [10]
00000000: 763b 3639 f561 3f39 0588 f239 8944 353a
00000010: 4d70 d839 5c60 4a3a c4be 6839 ec65 ce39
00000020: dbda 6d3a 89af 383a
0.00017379023 0.00018251671 0.0004625918 0.00069148146 0.000412824 0.0007720047 0.0002219631 0.0003936732
0.00090734445 0.00070452
